best_model_dropout_0.35_hidden_11_layers_3.pt (torch, 47682 bytes, 45 tensors)

text_embedding.weight f4 [27, 11]
00000000: b724 9bbd f34a 84bd 6a8c 8fbc 508d 3a3d
00000010: 06f0 a8bc fdeb 96bd 16a9 86be 7afe 2fbe
00000020: 68cf 47be 10bc 6abd 4e83 cbbd 480c 743e
00000030: 2dcc b63e 4652 8dbc 8196 4d3d 7e8f 6ebf
00000040: 0007 ca3d 5ee0 333f 8862 823e 331a 10bf
00000050: 9c9f 43bd 1394 723f 6b1e 533e 8b28 c4be
00000060: 7117 e7be 237b 4f3e 1237 763f 1161 5b3e
00000070: f4fc 1c3f ac50 0ebf 1921 37bf d915 153f
00000080: cf80 2abe d049 c3be ad54 6cbf 5240 0c3f
00000090: 97d6 abbe 4140 f1be 044a 173f ff0c 383e
000000a0: c9f9 8d3e c83e bcbe 8244 8dbe f11b 35be
000000b0: 1832 d53e 24e1 40bf a10b babe 7885 aa3e
000000c0: 8b1d 9e3d 827d f3be e414 013f af9a 553e
000000d0: 2635 ae3e 3c60 0d3e 259e 1ebd 4c5e 87bf
000000e0: fc43 77bf ee55 893e 917c c7bd 650e 3c3f
000000f0: 02d0 bd3b 0c5e 623c a18e 0dbd 97fa 0ebe
00000100: 144b 143f 21f7 01be a5ff 8a3d 6874 5b3e
00000110: 8125 8fbd 42c4 c0be 8f2e c7bd 665b 1ebf
00000120: 2bd1 b2be 112f 8b3e b194 fb3d 69cf 69bf
00000130: 1e54 873b 2741 1dbe 40ec 273f f319 df3e
00000140: e932 61bf 86cc 2cbe 82ce 1cbe 4743 6b3f
00000150: 4d25 a6be f9c9 aa3b 920a ef3e 49dd bd3d
00000160: cc59 893e 288a 8e3e 21fb 98be e251 4c3e
00000170: 2d7a b3bd fe65 1ebf 6f4a 23bf 1e97 7cbe
00000180: be2b 843e c7a1 b63e 6728 20be c547 f3be
00000190: 9ee2 a73d 40a3 adbe 8b94 28bf 4d9b 7f3f
000001a0: 69da ea3e 4913 e33e 9604 0f3e e733 0dbf
000001b0: 0fbc dc3e fe4a b33e 4204 05bf c541 cfbe
000001c0: 42ac babb f6cb 1d3f 8422 f63c 1f58 05bf
000001d0: 68b7 c53e 10b3 c9be a73c 943f d708 5e3e
000001e0: 813c b63c 2ca4 a73e c4f1 f53e e8fb 163e
000001f0: 6e74 cd3e 96a5 153f 900a a83d 12df d8bc
00000200: 74bb 3d3f cf04 50bd 9698 333f 5b52 633e
00000210: 3ad5 93be bcff afbe 9a6a 2a3d a1fc 11bf
00000220: b9b4 1bbf 5624 593f c588 8a3c b5fb 513e
00000230: bb03 e2be bb6c 86be 820c b03e 92c1 7e3e
00000240: 30fe 8f3f e3a0 133f dcda 98be b8bb bc3d
00000250: 5a91 613e 86f5 d63e a71d 043f b431 0d3f
00000260: 34ba 403f aefb f1be 5c90 b03e fb47 ce3d
00000270: d800 8e3d 9829 e73d 53a8 063f f8f4 3d3c
00000280: 5f3e 4cbf 6f36 073e 6135 c93e e4fa 82be
00000290: 5008 c23d 23c5 d8be ddda 62be 18fc 243e
000002a0: b981 3d3f c805 2cbf 64b9 023f be60 0f3e
000002b0: 9d4f c43d e161 9fbe 0683 edbd 8531 183f
000002c0: c4bc f9be 9343 333f 7a94 9bbe bb79 c8be
000002d0: 5e7f 21bf d527 253f 5007 953e d49c 7f3f
000002e0: 62d2 1fbe 1ea7 ebbe 1e40 4fbf b6be 493d
000002f0: a8fb 3d3e 833e 86bf 9b65 54bf 8c5d b0bf
00000300: b25a 893f 74e7 7b3f 7382 62bd a8cf 7abe
00000310: ddf2 50bf bb03 6c3e 0c02 b63e 8792 b939
00000320: 4b28 57bf 6a41 5cbe e6bf 233f 17a4 043f
00000330: 299d b23f 3cfe 08bf abbb f1be 65a8 afbe
00000340: 63c9 f0bd e12c 883f 1599 0c40 2542 913e
00000350: 96da 61be bdac fbbe e653 7c3f b9fa 1c3f
00000360: a8f8 cb3d 1ff0 683e 4796 8cbf bb9e 10bf
00000370: d0c0 a3be c995 adbe 15f7 c8be a2ac 0abf
00000380: c1de 15be a65d 7a3f 20a9 45bd ba32 c3be
00000390: 28d6 d5be 05c0 d1be feda d03e 7db7 7bbe
000003a0: 95ac 33be 9559 023f 5ba3 043f 4a08 c43e
000003b0: 9a14 1a3f 22a2 e5bb 320f 5ebe 8f74 a6be
000003c0: d022 d63d d6ce 8ebc 6e90 fa3e 59a3 6b3f
000003d0: ed51 64be 0172 10bf 657c 8c3f 3b63 fb3f
000003e0: 14b4 e43d 4c92 a43d 3534 5c3f f786 283f
000003f0: 7f16 62be e891 10bf 50c4 b13e 1f84 0fbf
-0.07575362 -0.06459608 -0.01752301 0.045544922 -0.020622265 -0.0736923 -0.26300877 -0.17186919
-0.19512713 -0.057308257 -0.09937154 0.2383281 0.3570265 -0.017251145 0.05019236 -0.931877
0.098646164 0.7026423 0.25465798 -0.56289977 -0.047759637 0.94757193 0.20617072 -0.38312182
-0.45135072 0.20261817 0.9617778 0.21423747 0.61323476 -0.55591846 -0.7153488 0.5823646
-0.16650699 -0.38142252 -0.92316705 0.54785645 -0.33562157 -0.47119334 0.59097314 0.17973708
0.27729633 -0.36766648 -0.2759133 -0.1768644 0.4163978 -0.7534354 -0.36336997 0.33304954
0.077204786 -0.47556692 0.504225 0.20859788 0.34024924 0.13806242 -0.038725037 -1.0575652
-0.9658811 0.26823372 -0.09740556 0.73459464 0.0057926187 0.013816368 -0.03455985 -0.1396278
0.5792706 -0.12691928 0.067870416 0.21431124 -0.06989575 -0.37649733 -0.09725677 -0.6185821
-0.34925207 0.27184346 0.1228422 -0.9133211 0.0041299006 -0.15356885 0.65594864 0.43574485
-0.8796831 -0.16874894 -0.15313151 0.9189953 -0.32450333 0.0052120653 0.46687752 0.092707224
0.26826322 0.2783978 -0.29879096 0.19953111 -0.087635376 -0.6187438 -0.6378545 -0.24667022
0.25814623 0.356703 -0.15640412 -0.47515693 0.08197521 -0.33913612 -0.6585166 0.99846345
0.4586976 0.4435065 0.13966593 -0.5515732 0.43112227 0.35018152 -0.5195962 -0.40479866
-0.0056968043 0.61639345 0.030045755 -0.5208759 0.3861649 -0.39394426 1.158101 0.2168306
0.022245647 0.3274244 0.48036015 0.14744532 0.4012789 0.5845579 0.0820514 -0.026473556
0.74114156 -0.050785836 0.701547 0.22199385 -0.28873616 -0.34374797 0.04160557 -0.57026106
-0.60822636 0.8482107 0.01691092 0.20506175 -0.4414347 -0.2625483 0.34384543 0.24878529
1.1249447 0.5766737 -0.29854476 0.09215492 0.22028103 0.41984195 0.51607746 0.55153966
0.75284123 -0.4726233 0.34485137 0.10072323 0.06933755 0.1128723 0.5260059 0.01159405
-0.7978267 0.13204359 0.39298537 -0.2558204 0.09474242 -0.42337903 -0.22153802 0.16111791
0.74026066 -0.6719632 0.51064134 0.14001748 0.095854975 -0.31129363 -0.11597256 0.5945056
-0.4877683 0.70024985 -0.30386716 -0.39155373 -0.6308497 0.64513904 0.29107141 0.99848676
-0.15607598 -0.46025938 -0.8095721 0.04925414 0.1855303 -1.0487827 -0.8296754 -1.3778548
1.0730803 0.98400044 -0.055300187 -0.24493277 -0.8162058 0.23048298 0.35548437 0.0003539512
-0.8404586 -0.21509328 0.6396469 0.5181288 1.3954211 -0.5351293 -0.47213492 -0.34308162
-0.117571615 1.0638696 2.1968434 0.28370777 -0.2205604 -0.49155226 0.9856552 0.6132007
0.09959537 0.22747849 -1.0983361 -0.56492203 -0.31983042 -0.3390334 -0.3925101 -0.54169667
-0.14635755 0.97799146 -0.048256993 -0.3812464 -0.4176495 -0.40966812 0.40792078 -0.24581714
-0.17546304 0.5091794 0.5181176 0.38287574 0.60187685 -0.007007853 -0.21685484 -0.32510802
0.10455859 -0.017432611 0.48938316 0.92046124 -0.22296877 -0.56423956 1.0975462 1.9639658
0.1116716 0.080357164 0.8601716 0.6583094 -0.22078894 -0.56472635 0.34720087 -0.56060976

encoder_layer.weight_ih_l0 f4 [33, 11]
00000000: 3e51 a3bb 81cc 463f 0d43 bfbd 5b16 303e
00000010: bb43 f43e a5a8 febd deb3 19c0 3945 3f3c
00000020: 118a 9f3d 8ba2 b1bd 837f 69be a5a1 03bf
00000030: bac7 8cbe f215 393e b25a 8bbe 0e80 cabe
00000040: 975c 81be a2ac 3e3f d302 3a3e 7dbb f33c
00000050: 7883 dabe 5264 a1be 07f9 fd3d a548 0240
00000060: ae73 923e 1f79 e73e 99ec 4d3e 0741 c6bd
00000070: 4306 223f 4f6f 403d 1506 9bbc e06e c73e
00000080: 37b2 433e ddf6 db3e 7e07 03c0 ab04 aebe
00000090: 2839 9a3b 3bdf c1bf 1cb5 45be 29ec 173e
000000a0: 20e9 053d 4118 2a3e e2aa 2cbf ff5c 47bd
000000b0: e948 fc3e 3cde 3a3f 3b89 293e 1a2c c53e
000000c0: 0148 e3bf 7fc4 d13d 52a0 1740 9245 6d3e
000000d0: 05a1 503e 80aa dbbe fc66 a13e 8abf 3dbd
000000e0: b3e6 843f cd37 91bb 25ac 38be 9527 28bf
000000f0: 53d1 b0be 10c0 5d40 2cc0 383e cddf bdbd
00000100: 0736 2fbe 0ccf c9be f0b7 afbe 2a50 afbf
00000110: 2cb4 243f 5b37 e13e dc88 893e 1b80 47be
00000120: 2b0c 14c0 891a 7a3e 9753 973d 739d 61bf
00000130: bb37 65bf 0fc9 073f 44a2 a8bf 05f2 31bb
00000140: 3899 f53b e372 b2be f790 19bf a78b 163f
00000150: 5a45 fdbe d266 6ebe 9f5e 20bf 9d87 fa3e
00000160: eff1 0d3f 4ffa 7d3d c000 403e 89a8 113f
00000170: f446 83bf 1833 f63d 031b 2f40 c004 7a3d
00000180: f169 813e 2463 18bf 8b93 d8be 630e 443f
00000190: 7328 b1bf d435 e73e 8aa7 59be 7687 e5bf
000001a0: a5ee b03e e07d 0540 9229 bcbd 748b 2fbf
000001b0: 8c1a 1e3e e1bc 42bd dc91 9bbe d62e f83f
000001c0: f17e a9be 54dc 3dbe 3724 393f 437a 42be
000001d0: c409 903e c8d9 103f 645a 123e f2b1 4abf
000001e0: 53a7 98be 2c75 5c3d 7958 76be 665b f9bd
000001f0: a05e 203e 1217 5fbd f5e8 4cbe 4f25 01bf
00000200: a685 00be 7146 d13c bb17 ba3d 30e8 7c3c
00000210: b2dc 103d 534e 6b3e 5fc9 143e 04af 01be
00000220: 5eff 77bc 7655 873c 6cc3 1b3f ffd8 4a3d
00000230: 43ba a03d 2feb 133d 9448 74bd 7fff 193d
00000240: 5a7e 003f 9a65 b03c 2c99 97bc acc8 8b3d
00000250: 39e8 603d d126 863e 8e64 dbbc 5aa1 09bc
00000260: f35a 0dbe 6f48 85b9 6386 16bd 3035 64bf
00000270: 61c7 5cbd cb1d 8e3c 7294 6d3d 7c4e 01bd
00000280: 6936 c3be 27ec 3b3e 0b84 be3d a729 aabc
00000290: 4ace 1b3b 11d9 993c 6ea4 b7be 2c9e 373e
000002a0: d120 3cbd 995a 95bc 2f3f ebbc 206f 88bd
000002b0: 9c0e 393c 7377 3d3d 4332 bfbd 5471 173d
000002c0: 9c3a dcbd f53f e33d 020c 7ebd a641 a53d
000002d0: f431 683e f029 ffbd 29c2 27bf 6aa3 c93d
000002e0: ee18 e3bd 8cc0 40bd 8a10 c5bc 5c19 74bd
000002f0: 4d66 55bf 49c9 273e 1fad 6f3d ad70 763e
00000300: d07a b9bc d238 6d3e 9985 ccbd ed50 3c3e
00000310: 589e 2c3e 78b9 343e ba2f 303d d47e ee3e
00000320: c196 26bd 247a 8bbd c8f0 313e e220 20be
00000330: c12d 063f 8731 2fbe 2b5d bc3c 7f37 89bd
00000340: e78f 11be f006 923c 56b4 0f3f 6795 83be
00000350: 2a55 4d3e 1816 b5bd 9d79 573e 361e 8bbe
00000360: 45b2 24be c67b aabc 16a4 babc dd70 10bd
00000370: a0ca c6bd 2e6f a4bd 082b 753b 42cc b43c
00000380: 1bad 68be ebe4 e8bd 6d77 c53e c01e 583d
00000390: 22f7 af3b 9215 863b 66e6 7cbe f63b d73e
000003a0: 30f3 193d 21d1 86bc 957b b0bd 62b9 3a3e
000003b0: 6f91 a2bd 1f37 27bf 15bb 033d 4ea0 d23c
000003c0: 44cc 0ebc 62dc d33c 95eb 863c 6516 79be
000003d0: 4941 f6bc 4d0b 0f3d 0d10 bbbd 251f a539
000003e0: b0c9 39be d9be fabd 4db7 333d 8e33 103c
000003f0: b392 30bd 184c 27bd f8c4 d83e f52b c43d
-0.00498405 0.776558 -0.09338961 0.17196028 0.47707924 -0.1243451 -2.4016032 0.011674219
0.07790006 -0.08673581 -0.22802548 -0.51418525 -0.2749613 0.18074778 -0.27217633 -0.39550823
-0.25265953 0.74482167 0.1816514 0.029752487 -0.42678428 -0.3152185 0.12401014 2.0356839
0.28603882 0.45209596 0.20109786 -0.09680372 0.63290805 0.046981152 -0.018923799 0.38951778
0.19110952 0.4296178 -2.0473323 -0.33987936 0.0047065206 -1.514625 -0.19307369 0.14836182
0.03269303 0.16610815 -0.67448246 -0.048672672 0.49274376 0.7299535 0.16556256 0.3851021
-1.7756349 0.10242557 2.3691602 0.2317107 0.20373924 -0.4290352 0.31523883 -0.046325244
1.0382904 -0.004431701 -0.18034418 -0.656854 -0.34534702 3.4648476 0.18042058 -0.09271202
-0.17110454 -0.39415777 -0.3432002 -1.3696339 0.6433742 0.43987545 0.26862228 -0.19482462
-2.3132427 0.24424185 0.0738899 -0.88130873 -0.8953816 0.53041166 -1.317452 -0.0027152312
0.0074950717 -0.34853277 -0.59986824 0.5880684 -0.49466974 -0.2328141 -0.6264438 0.4893159
0.55447286 0.06200629 0.18750286 0.5689779 -1.0256028 0.12021464 2.7360237 0.061039686
0.2527614 -0.59526277 -0.42300066 0.7658445 -1.3840469 0.45158255 -0.21255317 -1.7931964
0.3455707 2.0858078 -0.091876164 -0.68572164 0.15439814 -0.04754341 -0.3038472 1.9389293
-0.3310466 -0.1854108 0.72320884 -0.18991952 0.2813245 0.5658231 0.14292294 -0.79177773
-0.29815158 0.05382268 -0.24057187 -0.12175636 0.15661097 -0.05446536 -0.20010741 -0.50447553
-0.12550983 0.025546284 0.090865575 0.015436217 0.03536672 0.22979097 0.14529942 -0.1266442
-0.015136568 0.016520243 0.60845065 0.04952335 0.078480266 0.03611296 -0.05963953 0.037597176
0.501928 0.021532822 -0.018505655 0.068253845 0.054908965 0.2620149 -0.026781347 -0.008400286
-0.13804226 -0.00025421704 -0.036749255 -0.8914366 -0.05390108 0.01734819 0.058002897 -0.03156899
-0.3812745 0.18351804 0.09302529 -0.020771815 0.002377408 0.018780263 -0.35867637 0.17931432
-0.045929734 -0.018231677 -0.028716652 -0.066618204 0.011294987 0.046256494 -0.093357585 0.036973312
-0.10753366 0.11096183 -0.06202317 0.08069162 0.22675306 -0.12459171 -0.6553064 0.09845622
-0.11088739 -0.047058627 -0.024055738 -0.059594497 -0.83359224 0.16385378 0.05851471 0.2406642
-0.02264157 0.23166206 -0.09986419 0.18390246 0.16857278 0.17648876 0.043014266 0.46581137
-0.040671114 -0.06810406 0.17377007 -0.15637544 0.52413565 -0.17108737 0.022993645 -0.06700038
-0.1421505 0.017825574 0.56134546 -0.25699922 0.20052019 -0.08842105 0.21042486 -0.27171487
-0.1608363 -0.020810973 -0.02278332 -0.035263885 -0.097066164 -0.08029018 0.0037409682 0.022070054
-0.22722284 -0.11371788 0.38567677 0.0527637 0.0053700367 0.004091927 -0.24697265 0.42037934
0.037585437 -0.016457142 -0.086173214 0.1823478 -0.079378955 -0.65318483 0.032160837 0.025711205
-0.008715693 0.025861923 0.016469756 -0.24324949 -0.030060427 0.034922887 -0.09133921 0.00031494457
-0.18143344 -0.122434326 0.04387598 0.008801354 -0.043108653 -0.040844053 0.42337775 0.09578697

encoder_layer.weight_hh_l0 f4 [33, 11]
00000000: 6305 ffbf 261b 833f e61a 69be 2bde 603f
00000010: 7ba9 5b3f ce8b 93be 2179 8cbe f416 d2bf
00000020: c4d4 97bf 2e04 8abe a490 f33e bff3 903f
00000030: 0cb6 4fbf 151c 76be 8b3c 1240 7bb8 24c0
00000040: 5b50 f63f ce94 873f 8d47 52be 19b0 343f
00000050: 30c9 54bf ebcd 8340 afa3 f63f 3db1 0c40
00000060: 108b 32bf fe6a 93bf 3755 4640 f9ad 8ebe
00000070: 174f e83f f075 abbe 7843 e8be 48f3 463e
00000080: d8f4 943f 6d13 843f 9487 e53e 5e17 5f40
00000090: bd15 4cbf 62a8 18bf f352 913f 46cb 2c3f
000000a0: 343a 0bc0 a74a 30c0 7c05 67bf b6ef 8f3f
000000b0: d03f 2840 4e94 273f e41b 2cc0 9daa 8bbd
000000c0: 5ef2 5a40 0563 6abf 571d 35bf 2f55 2240
000000d0: 4b07 90bf 9095 1ebf 4b8c 9fbe 0e9c 97bf
000000e0: 5817 573f 8c0f dbbe 7cc1 0d40 9b80 07be
000000f0: dc86 ccbf b556 d1be 8b35 b3bf 96cb 963f
00000100: c561 b33f 74d5 1fbe 5c57 653f 2cca cfbe
00000110: b748 8e3f 7fc8 edbe 04e3 56be 2774 7840
00000120: a7ef 0f3f fada 71bf e419 c5bf c40f e6bf
00000130: c0c2 d13d 0109 b53f 00fd ccbf 04ad 34bf
00000140: 4e0d f43f ed26 78bf 224f 953e fe1a b9bf
00000150: 2b0a debf d504 a93e b6f2 5e3f cb0a cc3f
00000160: 6906 d33c b615 b1be cfbd adbf e3d2 b9bf
00000170: 293c 1fc0 c629 863f 65e9 3940 b49e 63bf
00000180: 0e38 ec3f e0e2 453c cc2c 9ebf 9fbe 0fc0
00000190: fc66 9a3f 26ff c1bd a9ff f83d d38f 15bf
000001a0: 1400 9cbe 3219 293f 5c67 46c0 ac01 2d40
000001b0: c359 483f b157 f93f f2ce c4be 240a 3c40
000001c0: 7487 883f c30d cb3d 5f4e 443f 9a18 69bf
000001d0: 6f33 6f3f 3381 babf 2d0d 0840 d2d8 c1bf
000001e0: cabb 1f3e 3aa9 3f3e fbe5 df3e 2d9c 0640
000001f0: 6ac0 a93e 64ab b5bf ee0b dd3f ed1f 77bf
00000200: 27be b6bd 437a dcbf 17c3 233f 6200 9fbe
00000210: 1fab b33f c73e 563f c765 83bf 780e 01bf
00000220: 97d1 25bf 4eb9 9dbf e098 03bf 1a8f 8f3e
00000230: b2c7 84bf 21c6 723f 1dd2 2cbe 66f4 a53e
00000240: ebe4 a23e 8d6f f8bf 95ab db3e 7aa5 963e
00000250: c222 4fbe 9f8a 34be 5fbb 33bf 5ec0 893e
00000260: a0b3 85be c436 cbbe 2a2a 913e 9382 4d3f
00000270: 1a64 f5be 4f42 273f 8e9e eabe 7307 bcbd
00000280: 1a0d 47be e78a c53f 6d82 2e3f a6e5 3c3e
00000290: 5911 38be 21aa 1b3f 716d c83e 6b8d 283e
000002a0: 62ca 24bf ea2a 8e3d 9fa9 ff3e 3c9e 9a3d
000002b0: b030 2cbc 8314 463f f57c 223e b742 46bf
000002c0: 4d4e a73d f0ea edbd 7802 8abf 599d 6c3f
000002d0: f2bd a13e f355 d03d f18a d0bd 9a4a 7ebf
000002e0: 72ff ba3e 9938 b2be 56e4 a73f ed9c b53f
000002f0: 0266 c9be 8179 4240 8ebb 2f3f 184d 46c0
00000300: 77b3 523f c923 0540 56db d7bd 1554 b3bf
00000310: 6504 c53f bd84 133f b1a3 573e a35c 50be
00000320: cdd5 6fbf 72ce e3b9 7edf abbe 303f 5fbf
00000330: d8a4 cc3d 7356 183f 935a f93e dc71 e43f
00000340: dd2f 973d 0924 ddbe e463 8d3e 7c74 16bf
00000350: 6a73 b4be 3d50 7d3f 62df dbbe 39bb a63f
00000360: d2bb 9f3e 4e51 28be 1e93 233f e4a5 e2bf
00000370: 2124 a93e a5c2 093f 5c6a dc3d 1daa 063f
00000380: 3e83 a9be 0c3d a6be 1ff1 c63e 4540 1b40
00000390: 1643 44bf 8dc0 c5be 2835 c3be 3b71 983f
000003a0: 1e6d 44bf 5ef8 a8bf 2b55 a0be 61af ca3f
000003b0: dfdf f3be e926 a93e 5344 48be 1411 213f
000003c0: f8ac f5bd f422 933f 3e4d 443f ef6a 30bf
000003d0: e5c9 a93f b563 bcbe 3781 febf 82de cb3f
000003e0: 302f 493f 3a72 89bd 4df1 9cbf e9b4 0c3c
000003f0: b629 4e3f 51d7 b93e 2690 1b3e 70a3 35bd
-1.9923519 1.024266 -0.22764167 0.87839 0.8580548 -0.288176 -0.27436164 -1.6413255
-1.1861806 -0.26956314 0.4757129 1.1324385 -0.81137156 -0.2403415 2.2849452 -2.5737598
1.9243273 1.0592287 -0.20535107 0.70581204 -0.8311949 4.1188865 1.9268702 2.1983178
-0.6974344 -1.1517026 3.098951 -0.27867106 1.8149136 -0.33488417 -0.45363975 0.19428742
1.163722 1.0318428 0.4483 3.4858012 -0.7972067 -0.5963193 1.1353439 0.6749767
-2.1754274 -2.7545564 -0.90242743 1.1245029 2.6288948 0.6546067 -2.6892023 -0.06819651
3.421043 -0.9155734 -0.70747894 2.5364492 -1.1252226 -0.61946964 -0.31161723 -1.1844499
0.84019995 -0.427853 2.2149343 -0.13232653 -1.5978656 -0.40886465 -1.4000715 1.178088
1.4014212 -0.1560877 0.89586425 -0.40583932 1.1115941 -0.4644203 -0.20985037 3.8820894
0.56225055 -0.94474757 -1.5398526 -1.7973561 0.10242224 1.4143373 -1.601471 -0.705765
1.906656 -0.96934396 0.29161936 -1.4461362 -1.7346853 0.330115 0.870891 1.5940794
0.025759893 -0.34586877 -1.357355 -1.4517483 -2.488047 1.0481498 2.9048703 -0.88914037
1.8454607 0.012078017 -1.2357421 -2.2460096 1.2062678 -0.09472494 0.12158138 -0.58422583
-0.3046881 0.6605407 -3.1000586 2.703227 0.78261966 1.9479886 -0.38439137 2.938119
1.0666337 0.09914734 0.76682085 -0.91053164 0.93437856 -1.4570678 2.1258042 -1.5144293
0.1559898 0.18716899 0.4373015 2.1032822 0.33154613 -1.4192929 1.7269266 -0.9653309
-0.089229874 -1.7224811 0.6396956 -0.3105498 1.4036597 0.8368954 -1.0265435 -0.504127
-0.64772934 -1.2322176 -0.51405144 0.28038865 -1.0373442 0.9483357 -0.16877027 0.32413024
0.31815276 -1.9409043 0.42904344 0.29423124 -0.20228103 -0.17631005 -0.7020778 0.26904577
-0.26113605 -0.3969022 0.2835248 0.80277365 -0.47927934 0.65335554 -0.45824093 -0.09181108
-0.19438592 1.5433015 0.68167764 0.18446979 -0.17975368 0.6080647 0.39145997 0.16460197
-0.6437131 0.06941779 0.49934098 0.07549712 -0.010509655 0.7737505 0.1586798 -0.7744555
0.081692316 -0.116170764 -1.0782003 0.92427593 0.3159023 0.101726435 -0.10182751 -0.9933258
0.36523014 -0.34808806 1.3116558 1.4188515 -0.39335638 3.038666 0.6864556 -3.0984554
0.8230509 2.0803092 -0.10539882 -1.4010035 1.5391966 0.5762442 0.21058537 -0.20347838
-0.9368561 -0.00043450628 -0.33568949 -0.8720579 0.09992379 0.5950691 0.48701915 1.7847247
0.07382176 -0.43191555 0.27615273 -0.5877149 -0.35244304 0.9895056 -0.42943865 1.3025886
0.31197983 -0.16437265 0.6389636 -1.7706876 0.33035377 0.5381263 0.10762474 0.5260332
-0.33107942 -0.3246845 0.38855836 2.4257977 -0.76664865 -0.38623467 -0.38126493 1.1909555
-0.76729 -1.3200796 -0.31314978 1.5834771 -0.47631738 0.330375 -0.19557314 0.62916684
-0.11995882 1.1495042 0.7668036 -0.6891317 1.3264738 -0.3679482 -1.9883183 1.5927279
0.7858763 -0.0671124 -1.2261139 0.008588054 0.80532396 0.36297086 0.15191707 -0.04434532

encoder_layer.bias_ih_l0 f4 [33]
00000000: 80c7 d1bf d6b7 50bf e7db 263f 86e7 68bd
00000010: 76b2 abbf f891 50bf f372 a8bf e431 eebf
00000020: b0e6 8abf 7bc7 003f dbed 9cbf f36b 053f
00000030: 7bb9 353f 1ec1 c23f 1abc 093f a606 de3f
00000040: bfe0 7a3f 72d1 44bf 3495 47be 54e5 7a3f
00000050: 3b72 013f 6f50 473f bf8d 8b3e de27 2a3e
00000060: beb8 89bd 534d 24bd a74b 0ebf e65c 713e
00000070: 4432 d6bc 0d17 123f 5e03 bcbd 8685 803e
00000080: 9a48 babe
-1.6389008 -0.8153051 0.65179294 -0.056861423 -1.3413837 -0.8147273 -1.316008 -1.8608975
-1.085165 0.50304383 -1.2260088 0.5211784 0.70986146 1.5215185 0.53802645 1.7345779
0.97999185 -0.7688209 -0.1949051 0.98006177 0.50564927 0.77857107 0.2725658 0.1661677
-0.0672469 -0.040112805 -0.55584186 0.23570594 -0.026147015 0.5706642 -0.0918033 0.2510187
-0.36383516

encoder_layer.bias_hh_l0 f4 [33]
00000000: a93c e9bf b4b6 28bf 4c6b 2c3f c25d 273d
00000010: b665 c2bf e64c 6bbf cb02 abbf 3510 bcbf
00000020: 0a4c 6dbf 1903 8c3e d343 b2bf bde0 693f
00000030: 9fff ec3e 712d c53f 50f2 5f3f c639 c43f
00000040: 557b a03f 663b 17bf b01e 263d 6c94 a43f
00000050: c218 033f e627 e33e 46ca 593f 38dd 20bf
00000060: 4c82 3bbf b220 903f 07e9 a83e b6ad d0be
00000070: 5629 1abf ed58 f1bb 9447 ddbe 53d3 ad3d
00000080: d4c9 65bf
-1.8221637 -0.6590378 0.6735122 0.0408609 -1.518729 -0.9191421 -1.3360227 -1.4692446
-0.9269415 0.27346113 -1.3926948 0.9135855 0.46288773 1.5404493 0.87479115 1.5330131
1.2537638 -0.5907501 0.04055661 1.2857795 0.5120965 0.44366378 0.8507427 -0.62837553
-0.7324569 1.1259978 0.32990286 -0.4075753 -0.60219324 -0.007365337 -0.43218672 0.084875725
-0.8976109

encoder_layer.weight_ih_l0_reverse f4 [33, 11]
00000000: fd7d 78be 04d9 e8be c05e cdbe 9c41 863e
00000010: 188e 89be 3f51 7c3e 91ba 56bf a25d 4fbd
00000020: cac2 87bd 2a7b 8d3d 217b 96bd be00 d83e
00000030: e014 0f40 7546 3ebe 9cdd 543e 61f4 2c3f
00000040: 92d7 5abc 4d36 dcbf 505f 7c3d 8fef e43d
00000050: 2d9a 723e 0223 213f be87 263f e16d e2bf
00000060: a977 093f 6301 d13c 0746 c5bf bcb0 bcbe
00000070: 9899 3440 3b6c 9c3e 4341 ba3e 1c32 9ebe
00000080: 9b9c e13d e2fa 0b3d b82e 84bf da98 833e
00000090: 1306 aa3e 51c4 1fbe 309d 563e fbae e23b
000000a0: a49c b13e 5107 c3be a191 903e 948f 4bbd
000000b0: d3ae 4f3e c7a3 263f 32e8 f5bd 7b05 483e
000000c0: 773e 24be 12b6 e0be 4dd6 6c3f 6080 d5be
000000d0: 0434 babd a3ec 79be 6d5e aabe 55da 193f
000000e0: 0f11 3b40 267b 03be 9cad 89be 4c25 39be
000000f0: ebcb 9e3f 3ffa e63f c74d a33f dab3 a6bf
00000100: 6144 c13d e034 7c3f 739b 54bf 7ee2 c0be
00000110: df3b bf3c 462e 37bf 15c7 3bbe d4fd 4bbe
00000120: 532b 9dbe d70d 3cbe e7b9 c13c 4fea 1c3e
00000130: 36d6 463e 429a 763e 0624 1ebf 568d 54be
00000140: f9b1 6cbe fb46 64bc eac5 dd3d 4e39 9a3f
00000150: 89e0 7e3e 5ff7 36be a61e a63e be7f b63d
00000160: 2fed 0b3b 2bde b83e b695 c9bd 2549 2dbd
00000170: 5d6a aa3d 52e2 0c3f 9533 e9be 7515 e4bb
00000180: acc9 6f3c 8cb8 083f 8c81 bb3e d27c 023f
00000190: 2944 af3e df02 ec3c 2061 48bd 7955 97bd
000001a0: e20e 85bd 8b4d a53f 8ccb cfbd 82c2 ff3d
000001b0: 03a3 de3d 6dfb 1f3c adef 5dbf 706d 5ebf
000001c0: 0be0 db3c c52b d33e 6791 12be 8d5b 143e
000001d0: 02c4 fd3e 46a1 70bd 68ea 81be f02b 1cbd
000001e0: dd46 e83c 2c01 6e3d aecf e93c d1ec 5a3d
000001f0: fd82 103e 28f6 6cbc a59e 0e3e 8dec 343e
00000200: f5e5 a8bc b532 003d a14f 983d e974 0c3d
00000210: f6c1 2abd 151f ab3d 3cd8 17bd 75db f73c
00000220: 1ae6 1abd 753e 01bd 38de 60be 4220 a8b9
00000230: 44aa 66bd f456 38bb 9b88 74bd 4a90 833d
00000240: 87ff 713e 79fc 273c da75 83be 6a6d 1abc
00000250: 8d77 f13b 6a10 6dbf e8a6 b3bd 07a9 503a
00000260: c4a1 073e 111c fc3d d5d6 303e d2b9 783e
00000270: d09d c0bd 1afb 3d3d 1a84 b4bb e40f 02bd
00000280: c79e 2dbe ea67 38bd 7ad7 29bd 350d 4fbd
00000290: 739c e33d 0198 25bd 8971 eb3c c963 e7bd
000002a0: 7866 2c3b 25bd c93d c911 f33b ca5b 39be
000002b0: 03ea bebd 9821 163c faaa 01be d0a1 1d3d
000002c0: f9cb 63bd 6462 2fbf 2167 283d 7b0f ea3c
000002d0: ba21 eebc bfbb d43d f1ea 68be e4e4 f1bc
000002e0: 629e 1c3d bf1c 233d 37df 083e 3fa2 27be
000002f0: 50a9 c23e a17a 4a3d 7b66 a6bd e122 46bc
00000300: 0a48 99bb 6600 af3e 0729 e23d 4a3d 04be
00000310: 98d2 e83d 4132 c83d dfe3 c8bd 167b d5bd
00000320: 7673 16bb 53ba 6bbd 98f4 2fbe 6648 4d3d
00000330: f905 2d3f a194 cc3c 41b9 5dbd a3a7 443d
00000340: 99e9 abbc 46b2 4a3d f1d0 d2be 1b06 623d
00000350: 94b2 80bd e541 4e38 9388 82bc f2ee 47be
00000360: 65be 033e 2f80 01be c59b 35be a548 cabd
00000370: 4612 c1bd c4fd f7bf e6cb 39be bd30 2dbc
00000380: 765e 63be d0fd f0bb 9746 03be 6b4a 873e
00000390: c71d 583e 5fd1 613e 8444 633e 3511 32bc
000003a0: 6f90 18be 5d84 233d adc5 ba3d f93f dabd
000003b0: 3b61 cbbc 7458 dd3d a653 aa3d eb59 a7bc
000003c0: 3326 4fbd b83c efbc e074 d6bd d7bb b3bb
000003d0: b8e9 043d 8df3 7e3d b192 fa3d 6e65 58bc
000003e0: fdba 03bf 0b0f b0bc 3a27 f73c 0a17 21bd
000003f0: 411e 933d 85aa 253e beea 113e c684 743b
-0.2426681 -0.4547807 -0.4011135 0.2622193 -0.2686622 0.24640368 -0.8387843 -0.050626405
-0.0662895 0.06908257 -0.07347704 0.42188066 2.235649 -0.18581565 0.20787662 0.6756039
-0.01335706 -1.7204071 0.061614335 0.11178505 0.23691626 0.6294404 0.65050876 -1.7689782
0.5369821 0.025513357 -1.5411996 -0.36853588 2.8218746 0.30551323 0.36377916 -0.30897605
0.11016198 0.034174807 -1.0326757 0.25702554 0.3320776 -0.15602233 0.209584 0.006917832
0.3468982 -0.3809152 0.28236106 -0.049697474 0.20281534 0.65093654 -0.12007178 0.1953334
-0.16039453 -0.4388891 0.925145 -0.41699505 -0.090919524 -0.24406676 -0.33275166 0.60098773
2.9229162 -0.12839946 -0.26890266 -0.18080634 1.2405981 1.8045119 1.2758111 -1.3023636
0.0943687 0.9851818 -0.83049697 -0.376728 0.023343978 -0.7155498 -0.18337663 -0.19921046
-0.30697116 -0.18364654 0.023648215 0.15323757 0.19417652 0.24082282 -0.6177372 -0.2075704
-0.23114766 -0.013932939 0.10828765 1.2048738 0.24890341 -0.17867802 0.32445258 0.08911084
0.002135109 0.36107 -0.09843008 -0.042306084 0.083210684 0.5503284 -0.45547166 -0.0069605657
0.014635485 0.53406596 0.36622274 0.5097171 0.3423169 0.028809963 -0.04892075 -0.073893495
-0.06496979 1.2914289 -0.10146245 0.12488271 0.10870936 0.009764534 -0.8669384 -0.8688574
0.02684023 0.4124433 -0.14313279 0.14488049 0.49563605 -0.058747552 -0.2537415 -0.03812784
0.028354103 0.058106586 0.028541412 0.053448502 0.14112468 -0.014462985 0.13927706 0.17668362
-0.020617465 0.031298358 0.07437063 0.03429118 -0.04168888 0.08355538 -0.03707145 0.030256012
-0.0378171 -0.031553704 -0.2195977 -0.0003206749 -0.05631472 -0.0028128 -0.05970059 0.06424005
0.23632632 0.010253065 -0.2567585 -0.0094255 0.007368988 -0.9260317 -0.08772069 0.00079597573
0.13245302 0.12310041 0.17269452 0.24289635 -0.094051 0.046382047 -0.005508912 -0.031753436
-0.169551 -0.045020975 -0.04146526 -0.050549705 0.11113825 -0.040428165 0.028740661 -0.112983294
0.0026306193 0.098505296 0.0074178916 -0.18101421 -0.09321978 0.009163283 -0.12662879 0.038484395
-0.055614445 -0.6850951 0.041113976 0.028571835 -0.029068816 0.10387372 -0.22745873 -0.029528089
0.038236983 0.039822336 0.133664 -0.16370486 0.380198 0.049433354 -0.08125015 -0.012093277
-0.004677777 0.3417999 0.110429816 -0.12914005 0.113682926 0.0977521 -0.09809088 -0.104238674
-0.0022957004 -0.05755074 -0.17183149 0.050117873 0.6758724 0.024973216 -0.05413175 0.048011433
-0.020985411 0.04948642 -0.41175035 0.055181604 -0.06284061 4.9175596e-05 -0.015934264 -0.19524744
0.12865598 -0.12646554 -0.17735203 -0.09877137 -0.094273135 -1.9374318 -0.18144187 -0.010570702
-0.22204003 -0.0073544756 -0.12819897 0.26423964 0.21105109 0.22052525 0.22194105 -0.01086836
-0.14898847 0.039921153 0.09119735 -0.10656733 -0.024826637 0.10807887 0.08316736 -0.020428618
-0.05057354 -0.029203758 -0.10471511 -0.0054850387 0.032449454 0.062243987 0.122350104 -0.0132077765
-0.51457196 -0.021491548 0.030170072 -0.039328612 0.07183505 0.1617833 0.14249703 0.0037310584

encoder_layer.weight_hh_l0_reverse f4 [33, 11]
00000000: 9949 7e40 c886 ba3e bd3a 29bf 6a89 1ac0
00000010: 37cc 92bf a9ff ebbf 8947 13be 7368 d4bf
00000020: 98a1 e5be 7ff5 aa3e 5af2 2b40 89a5 e73f
00000030: 03e3 12c0 593d 933f 20d4 c43f 1b59 0040
00000040: cc7d 86bd be18 03c0 7b5d 7ac0 dc28 05be
00000050: 2f60 a5be 92dd 2abe 6a10 4cbf efb5 a03f
00000060: f5a6 35c0 7881 e5bf 31dd 9d3f aaf4 cb3d
00000070: 5fb6 fcbf f7ed 8d3e d2b4 9e3f 1cfd a13f
00000080: dd39 c03f 1c36 20c0 542c 7b40 0450 dcbe
00000090: 873d 5bc0 0a84 f03f 139a a23f fca1 43bd
000000a0: 7996 3f3f f249 013f 798f a1bf 7618 0b3f
000000b0: 5511 b9bf 0fab 41c0 e17d adbf 85b8 423e
000000c0: 9a10 2340 e19c 593f 7b45 8cbf 2c0c ee3f
000000d0: a472 abbf a3bf 223d 5f38 ecbd 1c76 cb3f
000000e0: 4304 a43e 5a8f 25be 878f 57bf d4b7 4640
000000f0: c4ae ed3e fdf3 3bbe 837e 4e3f 60c0 7e3f
00000100: 43d5 a53f e088 333f 7661 923f ccf1 8bbe
00000110: 97af 52c0 9c6f 013f 48bd d53e 0ad4 0fc0
00000120: a446 1abf f14a ba3f 1616 82bf 5cbd 453f
00000130: 7eba 8fbf efe9 c63f b5ed a5bf 28f9 12be
00000140: 8d27 1940 67d4 283c c958 35bf 1633 d43f
00000150: 5a6f 4cbe f684 c0be b4cc 3040 ef2e 6abd
00000160: c3bd bcbf 8009 a03f e8b2 db3f bcea 4ec0
00000170: c601 e03e 4873 0040 93f6 e33f 66c0 3cc0
00000180: e29d f93f a8da 293f 90f2 e4bf f2cf 40c0
00000190: eccc 8840 60b8 ca3f 183e 3c40 d615 a0bf
000001a0: 665f 3b3f 8c60 d93f c7f2 1540 366e b0be
000001b0: ae75 0bbf 7344 59be 7689 243e 74d8 0240
000001c0: ad42 a63f 39be af3f 0db7 cabf 69ec 2b3f
000001d0: d749 6fbf 79f3 8fbf fdd4 92bf fd75 a3bf
000001e0: 4133 8d3f 42b8 f4bc aea6 f5be 885b 0ebf
000001f0: e8de 5bbf a8a8 61bf 211e bf3d 5c3d 5abf
00000200: f726 f73e a877 ffbe 1411 05bf 9d7e 253f
00000210: b4b4 203f 6999 00bf f2c3 173f 18aa 4bbf
00000220: e87e f53e 7908 e3be 0257 8b3f 5752 d4bc
00000230: fa92 763e 9eec 38be 587a efbd 66e1 80bf
00000240: 3af1 b9bf 0db4 8ebf e335 323f f07e a7be
00000250: 9aa5 74bf e59c 08c0 f847 28bf 25c7 11c0
00000260: 025e 353f 27a1 b53f b8cc 25bf 82dd 393f
00000270: 6658 8fbf 306e c33e 38f7 123f 88d5 97bd
00000280: a9f9 4c3e b9ef c63d b8f4 933c 4829 19bf
00000290: 5119 56be 1709 3ebe 0f71 f2bf ac65 68bf
000002a0: c084 633f 8483 91be d56a 413d 5148 0fbf
000002b0: e289 3a3f 8927 04bf 5129 37bf d9f8 e2bd
000002c0: e145 e13f 9003 8fbf 21f9 95bf 871e 81be
000002d0: c921 32bf 8503 e0bf 5825 f9bd 8f1a 97be
000002e0: 7e0e d9bd ead7 24bf 990f 28bf 48ea 84bd
000002f0: b47a 00bf 1273 8abe 9d50 8ebf 7517 933f
00000300: 3d52 863f fe66 6b3f 4dcd c83d 1609 0bbf
00000310: 95aa aebe 103f 43be dd92 503e bef1 95bf
00000320: f762 b5bf b6e7 3bbf 0902 cfbe 7585 323f
00000330: e1af 003f 8f49 283e 0ebe 443f 3957 5bbf
00000340: f922 933e 2355 babe 1f90 50be 162d bfbe
00000350: 2e8b 1bbf 2d40 8c3f 8ffd 833f bf1e acbe
00000360: f015 cd3e b211 85be 7b08 b23d 0e57 32be
00000370: 4475 943f 6131 353f 5379 0fc0 2975 023f
00000380: 34e3 09c0 711c 9a3f 72dd dc3e 4f04 5d3d
00000390: a4c1 23be b255 a13f eccd 08c0 1449 a5be
000003a0: fe21 963e 28a8 b9bf 1ad4 16bf 93f2 0b3f
000003b0: 5213 273f 4788 623f a2aa 853f dec0 183f
000003c0: 0b43 8cbf 888f 19bd f54e 8ebe de64 c1be
000003d0: 5864 833f d179 8a3f 6f69 b6be 1679 35bf
000003e0: 0b60 6a3f 0144 cbbf 62a0 0bc0 8b5a 8a3f
000003f0: 88ea 823f ddce 92bf 01e7 7940 5b90 cabe
3.973242 0.36430955 -0.6610525 -2.414637 -1.1468571 -1.8437396 -0.14382757 -1.6594375
-0.4484985 0.33390424 2.686667 1.8097392 -2.2951057 1.1503097 1.5377235 2.0054386
-0.065669626 -2.0483851 -3.9119556 -0.13003868 -0.32299945 -0.16686085 -0.79712546 1.2555522
-2.8383152 -1.7930136 1.2333127 0.09958775 -1.9743155 0.27720615 1.2398932 1.2655368
1.5017658 -2.5033026 3.9245806 -0.43029797 -3.4256303 1.8790295 1.270327 -0.047761902
0.7483898 0.50503457 -1.2621909 0.543342 -1.4458414 -3.0260656 -1.355404 0.19015701
2.5478883 0.85005003 -1.0958704 1.8597465 -1.339436 0.03973354 -0.115341894 1.5895419
0.320345 -0.16167966 -0.8420338 3.10497 0.46422398 -0.18354793 0.8066179 0.9951229
1.2955707 0.7013073 1.1435993 -0.27332914 -3.2919672 0.5056093 0.41745973 -2.2473168
-0.6026404 1.455412 -1.016299 0.77242064 -1.1228788 1.5540141 -1.2963167 -0.14352858
2.393039 0.010304547 -0.708386 1.657809 -0.19964352 -0.3760144 2.762494 -0.057173666
-1.4745411 1.2502899 1.7163973 -3.233077 0.43751353 2.0070362 1.7809623 -2.949243
1.9501307 0.6634927 -1.7886524 -3.012692 4.275015 1.5837517 2.94129 -1.2506664
0.7319244 1.6982589 2.342943 -0.34459084 -0.5447644 -0.21217518 0.16068062 2.0444613
1.2989098 1.3729926 -1.5837113 0.6715761 -0.93472046 -1.1246177 -1.1471249 -1.2770382
1.1031266 -0.029873017 -0.4797873 -0.55608416 -0.85887 -0.88147974 0.093319185 -0.85249877
0.48271915 -0.49895978 -0.51979184 0.6464632 0.6277573 -0.50234085 0.59283364 -0.7955642
0.47948384 -0.44342402 1.0885928 -0.025918169 0.24079505 -0.18059012 -0.11693257 -1.0068786
-1.4526742 -1.1148697 0.69613475 -0.32714033 -0.9556519 -2.134576 -0.65734816 -2.2777798
0.7084657 1.4189805 -0.647655 0.7260362 -1.1198852 0.38170004 0.57408476 -0.07413775
0.20017113 0.09713692 0.018061027 -0.59828615 -0.20908095 -0.18558155 -1.8940753 -0.9078014
0.88874435 -0.2842065 0.047221024 -0.5596972 0.7286664 -0.51622826 -0.7154742 -0.1108262
1.759945 -1.1172962 -1.1716653 -0.25218603 -0.695828 -1.7501074 -0.12165326 -0.2951245
-0.10598467 -0.6439196 -0.656488 -0.06489998 -0.5018723 -0.27040917 -1.1118351 1.1491534
1.0493847 0.9195403 0.09804783 -0.5431074 -0.3411452 -0.19067025 0.20368524 -1.1714399
-1.4170827 -0.7340044 -0.4043124 0.6973489 0.5026837 0.1643431 0.768525 -0.85679966
0.2873762 -0.3639308 -0.20367478 -0.37339085 -0.60759246 1.0957085 1.0311755 -0.33617207
0.400558 -0.25990063 0.08693024 -0.17416021 1.1598287 0.7077847 -2.24178 0.5096002
-2.1544924 1.203993 0.431377 0.053959187 -0.15991837 1.2604277 -2.1375685 -0.32282317
0.2932281 -1.4504442 -0.5891739 0.54667014 0.65263855 0.8848919 1.0442698 0.5966929
-1.095796 -0.037490398 -0.27794614 -0.37772268 1.0264997 1.0818425 -0.35627314 -0.7088789
0.915528 -1.5880128 -2.181664 1.0808882 1.0227823 -1.146938 3.9047244 -0.3956326

encoder_layer.bias_ih_l0_reverse f4 [33]
00000000: 5f61 b6bf 1998 00be ad9f dabe af56 3f3e
00000010: 1a79 193e 4a02 edbe 95fe 0cbf dc91 90bf
00000020: ad3a d53e b380 333f 0d25 d33f 257b 1a3f
00000030: 49ea 8d3f bd2b 2a3f 4395 b53f cdb0 9a3f
00000040: 494f 013f 5f79 693f a795 3e3f 2e46 853f
00000050: b4d2 02bf 0d1f 813f 3c69 3dbe d8e1 413d
00000060: 62dd 5c3d 8f76 37bf 82fe fe3d 7e5b 5c3e
00000070: e0d2 bb3e ed4e cd3e d46f 90be 640b 0fbf
00000080: 8c87 1d3e
-1.4248465 -0.1255802 -0.42699948 0.18685411 0.14987603 -0.4629081 -0.5507596 -1.1294513
0.4164633 0.70118254 1.6495682 0.60344154 1.1087123 0.6647299 1.4186176 1.2085205
0.50511605 0.9120082 0.744471 1.0412042 -0.5110276 1.0087601 -0.18497175 0.047334522
0.053922065 -0.7166528 0.12450887 0.21519276 0.36684322 0.40099278 -0.28210318 -0.55876756
0.15383738

encoder_layer.bias_hh_l0_reverse f4 [33]
00000000: ee4e b4bf fce1 1abf dc6e 33bf 3221 e83c
00000010: 25dc cb3e 58f0 eebe 5ac9 76bf 7564 98bf
00000020: c073 a03e 50b9 133f 61bd bb3f 9e47 3f3f
00000030: e562 833f 2307 e13e 4ba9 b23f c82e 233f
00000040: 4531 853e e064 5e3f 306e 263f 8440 883f
00000050: 8f9d f9be 1398 fe3e baa0 41bf b19d 133e
00000060: 51e6 a0bf f86d e93e 4b29 b43e f516 f13e
00000070: e63c c8bd 3466 583f 2583 adbe c6d1 3fbf
00000080: e424 cebd
-1.4086587 -0.60501075 -0.70091033 0.028336141 0.39816394 -0.46667743 -0.9640099 -1.1905657
0.3133831 0.5770464 1.4667169 0.74718654 1.0264555 0.43950757 1.3957914 0.6374326
0.26014152 0.86872673 0.6501188 1.0644689 -0.4875302 0.49725398 -0.75635874 0.14415623
-1.2570287 0.45591712 0.35187754 0.47087827 -0.097772405 0.8453095 -0.33889118 -0.74929464
-0.1006563

encoder_layer.weight_ih_l1 f4 [33, 22]
00000000: 5dc7 2c3f 7c85 f5be 5401 13bf b3f1 d1be
00000010: 8bfd 70bf 0e93 1f3e 4397 0b3f 9415 273f
00000020: 2514 99be bfbc eebe 04a1 22be e1bc ecbf
00000030: 7b85 0c3d aef6 863f 4747 bc3c 0aff 78bf
00000040: 98c4 c13d 1723 d93f 054b 69bf 4aaa 32bf
00000050: 065e 59bf 5a2d 05c0 ea2d fb3e 04b4 9abe
00000060: a970 bcbe 6211 b2be 8c2a 203e ee18 38bf
00000070: b4eb 4e3f e51a 463d b653 15bf 355d a43e
00000080: 2db2 463e 3a37 863f e16c 52bf 6109 a0be
00000090: d95d 4f3e 1672 ef3e 01ed 35bf e78b 2abf
000000a0: 43be 5d3d d8d6 1ebe 8595 3d3e bb8f b33f
000000b0: 4bb5 ee3f 8bd5 cebd 351a 89bf 3b98 a6bf
000000c0: bccb 2440 aae7 66bf aaed 9bbd a655 533f
000000d0: 90d0 683f 1e07 9bbf 2925 6b3d 6d5a 1640
000000e0: 5ecd b6bf b560 95bf 93d6 59bf 6c17 1240
000000f0: d70a 6abf 0c16 043f 28cd 0bc0 a757 633f
00000100: a3be 92be 6112 cd3f bd1c c43f e2b3 f8bd
00000110: 19d3 a03e c8ba dd3d 79f3 e03f 274f cc3f
00000120: 69cc c53f 036b 0cbe 59b3 6abc 635b 8ebf
00000130: 9713 fe3f a6c4 2040 c87f e5bf ecbc 823e
00000140: 3468 40bf e487 84be 391f b5be 4a37 b4bf
00000150: 410d 12c0 a21f 6f3f a8d3 dfbe c1b3 e13f
00000160: 76ac 3f3f 29dc 3f3e 1f10 bc3f 784a 65bf
00000170: 461e 133e 222d 87bd 7cf7 1a3f ad7b 583f
00000180: 9672 2b3e 152d 81bf 2ec5 343f a10d e43f
00000190: 4f73 53bf d69c 64bf 259e 9bbf 52ba b8be
000001a0: 5258 1fbe 035d edbf 9fbc 8abf 3fd9 75bf
000001b0: 8422 873e b88c 6a3f 3a26 e1bf 3c6f 43be
000001c0: 91e0 b2bf d012 08c0 a318 bebd cb7a cfbe
000001d0: 06b5 213f 5847 4fbe 0cb9 e0be dbf8 993e
000001e0: c538 12bf 0f62 93bf 4823 823e 6769 64bf
000001f0: 183b 4cc0 aa66 cb3f 7f44 533e 59bb d53e
00000200: c683 bbbf 6063 2ebe a9be 62bf bd9c 91bf
00000210: 4d6b 0e3e 9ad5 fcbd 1553 28bf 087f a43e
00000220: acc4 b5be f343 8a3d 8892 923e 82f8 b9be
00000230: 2bd0 69bf 469f 6e3f c6d2 633f a106 d8be
00000240: a3fd 9e3f 280e 97bd ddd3 d33f 2aa1 9b3e
00000250: 4807 403f a2fc 7c3f 941a e8bf 1549 1d3f
00000260: f1b9 9abf 932c 07bf c0eb 8cbf e614 8cbe
00000270: 76c2 6ebf 49af f1bd fdf6 0240 5702 b93f
00000280: 0687 8d3f 2082 a83f 685a 4fbd 7626 03c0
00000290: 17d4 2bbf 039c 1fbf 544e a53f 9780 0a3f
000002a0: 06e1 433f 0c50 b53f 07fc febe 8b74 ad3f
000002b0: eea1 9abf ccf2 1f3f 381e 463d 2636 8dbf
000002c0: 5a00 6d3f df72 f5be 5c9e 92bd 587c c93e
000002d0: fcc6 5ebf 6914 f2bf b107 7cbe 1a5b a5bf
000002e0: 14e1 a73f 6aab bc3c 7560 b53f 2ea8 f5bf
000002f0: 5476 683f 939a 033e 6a3e 14bf 5733 b53c
00000300: 5c50 5b3f 61f8 5ebe 5143 613f 765c 743f
00000310: 089c a1bd 65d9 a8be 8cff 533f 7273 0c3f
00000320: 7592 0d3e 2e2a c4bf 6c55 2740 5cd5 c13f
00000330: 20df 5abf 32d9 053f 539c 3e3f d958 dabe
00000340: 0bb0 a4bf 8dd7 f3be 1bd5 f8bf 836a 4a3f
00000350: ffa4 b73f 8185 ad3e 99ba 213f 9efd 2b3f
00000360: 7075 1e3f e2c5 a33d 0401 6dbe dae3 403f
00000370: 7690 8cbf 3e42 62bd 2acb 67bf 49a4 63be
00000380: 209d ef3f 78e0 11bf 46e6 4b3f 16a7 e93e
00000390: 8cb7 bfbf 7a61 8b3f bfb6 b03f 63d6 0cbf
000003a0: e766 5b40 4fc7 87bf 0049 9dbf a87d 0940
000003b0: 04d9 b03e 99d7 debf 9a90 35c0 a141 fe3f
000003c0: 1d81 3a3e 94bc 9a3f 65cf 993e 6443 ca3d
000003d0: dcbe 89bd 0c50 8dbc bcf2 97bc c9d1 353d
000003e0: cee5 adbd 1afa 0ebd 7ef0 953d a2ec 923d
000003f0: e134 ce3b fa2d a6be eb8f df3d 1175 75bd
0.67491704 -0.47953403 -0.574239 -0.41004714 -0.94136876 0.1558344 0.5452768 0.652673
-0.29898182 -0.46628377 -0.15881735 -1.8495141 0.034306984 1.0544031 0.022983206 -0.9726416
0.094613254 1.6963834 -0.91130096 -0.6979109 -0.84909093 -2.080893 0.49058467 -0.30215466
-0.36804703 -0.34778887 0.1564123 -0.7191304 0.80828404 0.048365492 -0.5833086 0.3210236
0.19403906 1.0485604 -0.82197386 -0.31257156 0.20250644 0.46766728 -0.71064764 -0.66619724
0.054136526 -0.15511644 0.18514068 1.4028238 1.8649076 -0.10099324 -1.0711123 -1.3015207
2.574935 -0.9019724 -0.0761369 0.82552564 0.9094324 -1.2111547 0.057408486 2.3492692
-1.4281423 -1.1670138 -0.8509304 2.2826796 -0.9142279 0.5159614 -2.1843967 0.8880562
-0.2866107 1.6021234 1.532127 -0.12143685 0.31411055 0.10826641 1.7574302 1.5961655
1.5453006 -0.13712697 -0.014324986 -1.1121639 1.9849728 2.5120025 -1.7929621 0.2553476
-0.75159 -0.25884926 -0.35375383 -1.4079373 -2.282059 0.9340764 -0.43716168 1.7632982
0.7487253 0.18736328 1.469242 -0.89566755 0.14367017 -0.06600405 0.6053388 0.84563714
0.1674293 -1.0091883 0.7061337 1.7816659 -0.8259782 -0.8930181 -1.2157637 -0.3607965
-0.15561035 -1.854401 -1.0838813 -0.96034616 0.2639352 0.9162097 -1.7589791 -0.19085401
-1.3974782 -2.1261482 -0.09282043 -0.4052337 0.63166845 -0.20242059 -0.4389118 0.30072674
-0.57117873 -1.15143 0.25417542 -0.8922333 -3.1911068 1.5890706 0.20631598 0.41744497
-1.4649589 -0.17030096 -0.88572174 -1.1375958 0.1390812 -0.12345429 -0.65751773 0.32128167
-0.3550161 0.067512415 0.2862742 -0.3632241 -0.91333264 0.9321178 0.8899349 -0.42192557
1.2421154 -0.07375747 1.654903 0.30396396 0.7501111 0.9882299 -1.8133111 0.6143964
-1.2087995 -0.5280239 -1.1009445 -0.27359694 -0.93265474 -0.11801011 2.046325 1.4453839
1.1056831 1.3164711 -0.050623327 -2.0492225 -0.671205 -0.6234743 1.2914529 0.5410246
0.76515234 1.4165053 -0.49801657 1.3551191 -1.2080667 0.62479854 0.048368663 -1.103215
0.9257866 -0.47939202 -0.07159111 0.3935268 -0.87022376 -1.8912479 -0.24612309 -1.2918427
1.3115563 0.023030955 1.4170061 -1.9191949 0.90805554 0.12851934 -0.57907736 0.022119207
0.85669494 -0.21774437 0.8799334 0.95453584 -0.07891089 -0.3297836 0.8281181 0.54863656
0.138254 -1.5325372 2.6145887 1.5143237 -0.8549671 0.5228454 0.7445728 -0.4264591
-1.2866224 -0.4762539 -1.9440035 0.79068774 1.4347228 0.33890918 0.6317535 0.67183864
0.61897945 0.079967275 -0.23144919 0.75347674 -1.0981586 -0.055238955 -0.9054438 -0.22230639
1.8719826 -0.5698314 0.79648244 0.4563529 -1.4977889 1.0889122 1.380577 -0.5501463
3.4281557 -1.0607699 -1.2287903 2.1482944 0.3454057 -1.7409545 -2.8369508 1.9863778
0.18213315 1.20888 0.30041042 0.09876135 -0.06725857 -0.017250083 -0.018548362 0.04438952
-0.084910974 -0.034906484 0.07321261 0.071740404 0.0062929248 -0.32456952 0.10916122 -0.059926096

encoder_layer.weight_hh_l1 f4 [33, 11]
00000000: c9b4 a8bf 2913 5c3e f310 adbe 0110 03c0
00000010: 06cb 7ebf 20c9 a53f 8175 ca3d 8469 bb3f
00000020: 09f1 0fc0 41e4 d23f 9e76 1940 c100 0b3f
00000030: af1a 0b40 23dd 783f cb2f 74bf 67b5 84be
00000040: 7610 9c3f 5369 033e f068 863f 8396 aa3e
00000050: 68a2 4940 4e9c bebe 4708 b63e 4cc4 77c0
00000060: 2637 f73e 8e2d a9be b42a f2be c352 033f
00000070: 59b7 e1bd 8773 4a3f dd25 35be 516c ba3f
00000080: de49 28c0 5ece 84bf 683c 84c0 e93b 24bf
00000090: 4296 1e3e b7fe d73f d63b a83f 7397 ae3e
000000a0: 9c7d df3f 7ba1 cfbf 077e 8f3f 5380 eebe
000000b0: 8f29 8740 1f36 f03f ac13 233f 5c8b e1bf
000000c0: 6fc6 b2bf 36cb b1bd 323c 0a40 cd03 22bf
000000d0: 91d0 68bf 5f63 67bf 66bf 8d3f f25d 3abd
000000e0: 9648 94bf b186 0ec0 e409 07c0 c497 4a3f
000000f0: f833 2bbe a8e9 1c3f 05e6 023f 1d67 54bf
00000100: 3ede 34bf dfb7 06bd 0a5e d43f 8d42 823f
00000110: 9020 2fbf 5556 8bbf 5f39 ca3f 6b74 8abf
00000120: 6b1b 803f cfaa ac3f 06f6 2f3f 4be0 493e
00000130: 3058 f53f 1950 40bf 2276 853e 1aa0 803e
00000140: cb88 ff3e 44f3 143e 4ada 93bf 1b3c 9fbf
00000150: f5ee a540 368a a03f fdb9 9b3f ca88 2a3f
00000160: cd18 e1bf 1d19 e6be 63d1 c03e f1f5 51c0
00000170: 3582 9b3f 8088 c8be e726 843d 8afd af3f
00000180: c3f9 4ac0 bc2d 1cbe 9d5a c43d a0ce d0bf
00000190: 2e35 91bd d9ff 663f 1913 18c0 cf88 2a3f
000001a0: 3eab fcbf baf7 723f fb06 f43f 0fb8 75bf
000001b0: 8939 06c0 3cf1 b33f 34f8 3a3f 7640 c8bf
000001c0: ccbb c33e d0fe df3f afc8 a2bd 8dfb 35bf
000001d0: edb2 9abf 5145 f43f c60d 0a3f 9fef 2a3f
000001e0: b6be c7bf 5187 663e 2d68 573f 322d 353e
000001f0: f9ba 983d 89c2 4d3c feeb 03be 3c12 a93d
00000200: 249a 7ebd 78db 003f 0ecf 2b3f 2249 b8bd
00000210: 93d2 963d 121a c3be a4fa 153e 7efb 20be
00000220: f521 92be 5367 873d 62e3 1fbf 9192 bd3d
00000230: 9c4a 9d3b d1a1 22be c304 8b3f 185b 423f
00000240: 14d0 973f 6200 273d b1b7 683f 5431 7f3e
00000250: b258 a13f 16e7 d8bd 7fe7 06bd 4dd7 81bf
00000260: b046 3d3f 21be 643f 024b b1bd f9e9 c5be
00000270: 233c 3e3e 4cf5 423e a4ce 6b3e 4d10 05bf
00000280: 8adf 583e 8476 723e 59c5 70bd f4b1 453f
00000290: 8590 b23d 181c 99be a8db d03e 3d73 273f
000002a0: 1b95 4f3f 02f6 3a3f cba7 20bf ac7c a63e
000002b0: 4d9c e63e 9e6a 043f 95c8 babe 5660 e73e
000002c0: bba0 283f a382 643f f18b 44bf 4a0f 2cbf
000002d0: 56b4 00bf 17c1 343e 6e01 0dbf e9ef 12be
000002e0: dd29 9f3d 6022 fd3e 9377 033f 4a24 f63e
000002f0: 6600 3bbf 1fab 713e 7a36 2bbf 30be e7be
00000300: 2607 183f 9a28 c53f 4f33 ce3e 590c 1dbf
00000310: d8ef 733e 2c39 c43e 263a 5c3e 5e03 213f
00000320: 40e1 a3be 2957 113f 3935 36bf ff3d db3e
00000330: 011a 55be 1564 3fbf b619 41bf 0c74 b43e
00000340: b2c3 a13e 8677 783d 279c 6ebe b05c 71be
00000350: bf27 0ebe cd66 3e3e 46f2 653e ff31 e23d
00000360: 4183 4fbc dbe7 e1bc bd1d 4dbf eee1 79bd
00000370: de97 853f 32b3 993f 001c b5be 60c4 523e
00000380: edf9 efbe decf 24bd 66ef 503f 31ab 993d
00000390: f283 8c3f ab1f ea3e 5502 023f ffeb a03f
000003a0: b036 9f3d 87f7 303f 9fa7 af3f 01c0 41be
000003b0: 3385 303f 5548 86bf 2562 b23e 0394 973e
000003c0: 55fc 593d 8a0a 403b b306 a13e 8d1d a4c0
000003d0: 2caf c93d 3314 30bd 0823 82be 5c39 183e
000003e0: b4a0 863d b082 30be 41ad 8c3f 110d 813e
000003f0: eb6f 9fbd 87d7 573f 414a 4940 60f2 ebbe
-1.3180171 0.21491684 -0.33801994 -2.0478518 -0.9952854 1.2952003 0.09885693 1.4641576
-2.2490866 1.6475908 2.3978648 0.54298025 2.1735036 0.9721243 -0.95385426 -0.2591965
1.2192523 0.12833147 1.0500774 0.33317956 3.1505375 -0.37228626 0.3555319 -3.871356
0.48284262 -0.33042568 -0.47298205 0.5129816 -0.11021299 0.7908253 -0.17690225 1.4564306
-2.6295085 -1.0375478 -4.132374 -0.64153916 0.15487006 1.6874608 1.314326 0.34099922
1.7460208 -1.6221155 1.1210335 -0.4658228 4.223823 1.8766516 0.6370189 -1.7620654
-1.3966807 -0.086813375 2.159924 -0.6328705 -0.9094325 -0.90386003 1.1074035 -0.04549975
-1.1584651 -2.226971 -2.1099787 0.79137826 -0.16719043 0.6129403 0.5113223 -0.8296984
-0.70651615 -0.032890197 1.6591198 1.017656 -0.6840906 -1.0885721 1.5798758 -1.0816778
1.0008367 1.3489627 0.68734777 0.19714467 1.9167538 -0.7512222 0.2606669 0.25122148
0.49909052 0.14545923 -1.1550992 -1.2440218 5.1854196 1.2542179 1.2166134 0.66614974
-1.7585694 -0.44941035 0.3765975 -3.280636 1.2149111 -0.3916664 0.064527325 1.3749249
-3.1714942 -0.15251821 0.095875956 -1.6313057 -0.07090221 0.9023414 -2.3761656 0.66615003
-1.9739759 0.9490925 1.906463 -0.95983976 -2.0972617 1.4057994 0.7303498 -1.5644672
0.38229215 1.7499638 -0.079484336 -0.7108696 -1.2085854 1.9083654 0.53927267 0.6677188
-1.5605075 0.22512557 0.84143335 0.17693022 0.07457537 0.012558588 -0.12882993 0.08255431
-0.06215872 0.5033488 0.67112815 -0.08998324 0.073643826 -0.38105828 0.14646393 -0.15720937
-0.28541532 0.066115044 -0.62456334 0.09256471 0.004800154 -0.1588204 1.0860828 0.7592025
1.1860375 0.04077185 0.9090529 0.24921161 1.2605193 -0.10590951 -0.032935616 -1.014383
0.73935986 0.89352614 -0.08656885 -0.3865507 0.18577628 0.19038886 0.23028046 -0.51978
0.21179023 0.23678023 -0.058781955 0.7722466 0.08718971 -0.29904246 0.40792584 0.65410215
0.8108689 0.7303163 -0.6275603 0.32516992 0.45041123 0.51725185 -0.36481157 0.45190686
0.65870255 0.89261836 -0.76776034 -0.6721083 -0.5027517 0.17651783 -0.55080307 -0.14349331
0.07771657 0.4944029 0.5135433 0.4807456 -0.7304748 0.23600434 -0.6688 -0.4526229
0.5938591 1.5403016 0.4027352 -0.61346966 0.23821962 0.3832487 0.21506557 0.6289576
-0.3200779 0.5677362 -0.7117496 0.42820737 -0.20810701 -0.7476209 -0.75429857 0.35244787
0.31594616 0.06066086 -0.23301755 -0.23570514 -0.1388235 0.18593903 0.22455701 0.11044692
-0.012665571 -0.027576378 -0.801235 -0.06100648 1.0436971 1.2007811 -0.35372925 0.20582724
-0.46870366 -0.0402373 0.81615293 0.07503355 1.0977767 0.45727286 0.5078481 1.257202
0.07774103 0.69127697 1.3723029 -0.189209 0.68953246 -1.0490824 0.34840503 0.2960511
0.05321916 0.0029303157 0.31450424 -5.1286073 0.098478645 -0.042988013 -0.25417352 0.14865631
0.065736204 -0.17237353 1.0990373 0.2520528 -0.077850185 0.84313244 3.145157 -0.46083355

encoder_layer.bias_ih_l1 f4 [33]
00000000: adbd e4be 0282 243f 67a6 513f 357b 243f
00000010: 2b78 963f 5e49 f8bf 6639 a73f c0e6 6cbe
00000020: 2330 a63f 9146 a4bf 0a19 183f b286 a83f
00000030: 6daa 4d40 5815 8f3f 828d 683f f9c5 b63f
00000040: 4a4e a53f e84d 6d3f f6d5 b83f a02b 783f
00000050: 658d 2b3f 0693 a43f 5b7f 9cbd 8c6b 813f
00000060: de62 0a3f 3425 3d3d b90e 263e a9ed dcbe
00000070: 5cfa 39be 9062 1a3f 6fd7 803e a134 04be
00000080: c5dc ec3e
-0.4467596 0.64260876 0.81894535 0.642505 1.1755422 -1.939739 1.3064392 -0.23134899
1.298344 -1.2834035 0.59413207 1.3166106 3.213527 1.1178389 0.90840924 1.4279166
1.2914517 0.92697 1.4440296 0.96941566 0.67012626 1.2857368 -0.07641479 1.0110946
0.5405711 0.046178058 0.16216554 -0.4315007 -0.18161911 0.60306644 0.25164363 -0.12910701
0.46262184

encoder_layer.bias_hh_l1 f4 [33]
00000000: 1257 9dbe 2c4c 803f 233f 7d3f 5436 923e
00000010: 2e63 a33f 5d78 05c0 bec7 823f ec39 82bd
00000020: 96aa 683f c6bb e1bf 9b57 8b3f 0c1c 973f
00000030: 8783 4040 b2fc 413f 4fb9 263f f9cb 9e3f
00000040: 30ce 8b3f 7fb2 653f 8a94 b23f 04cb aa3f
00000050: 044e 0b3f d42e 863f 6b2c 36bf e631 203f
00000060: 9bc1 33bf 9496 a33f 7d8e 293e aa22 c33e
00000070: 4acc e5be 17a0 903e 109f a73e 066e 25bf
00000080: c27c 6c3f
-0.30730492 1.0023246 0.98924464 0.28557074 1.2764642 -2.0854714 1.0217206 -0.06358704
0.90885293 -1.7635429 1.088611 1.1805434 3.0080278 0.7577621 0.6512651 1.2405998
1.0922298 0.8972549 1.395158 1.3343205 0.5441592 1.0483041 -0.71161526 0.6257614
-0.70217294 1.2780328 0.16558261 0.38112384 -0.44882423 0.2824714 0.32738543 -0.6462101
0.92377865
