model.pt (torch, 12148 bytes, 5 tensors)

weight_ih_l0 f4 [75, 1]
-0.55237174 -0.15503974 -0.027155966 0.25196287 -0.40823472 0.04765661 0.003801043 0.061883077
0.49518913 0.34078437 -0.07898109 -0.067550175 0.10999035 -0.1861682 0.062598966 -0.57654685
-0.4023312 0.13668579 0.025389336 -0.065786555 -0.20331062 -0.2380294 0.12227454 -0.11025504
-0.36521667 -0.2444093 0.44573283 -1.6063972 0.0070470725 -0.40578038 0.3315312 0.32459784
1.5548501 0.44041365 -0.5104549 -0.41659564 -0.3806002 0.1133128 -0.17024872 -0.1532712
-0.14409672 -1.3137058 -0.120915554 0.17383553 -0.43521008 -1.0429152 0.18408038 -0.07910295
0.018448189 -0.14054942 -0.24061027 -0.21179895 0.01708155 -0.025833484 -0.43065423 0.03170405
0.10129384 0.10051434 -0.2857295 -0.23824625 -0.31327748 -0.100639485 -0.071856216 -0.37433857
0.13978286 0.33715585 0.34381118 -0.09932287 -0.007881867 -0.27553803 -0.31722516 -0.21455443
-0.3898795 -0.054555006 0.21298729
00000000: 3c68 0dbf bdc2 1ebe 3076 debc 4701 813e
00000010: 2404 d1be 9433 433d eb1a 793b 1c79 7d3d
00000020: 6e89 fd3e 4a7b ae3e d6c0 a1bd bf57 8abd
00000030: 9f42 e13d e0a2 3ebe e333 803d 9398 13bf
00000040: 5bfe cdbe 5cf7 0b3e 4cfd cf3c 1abb 86bd
00000050: a930 50be fbbd 73be 136b fa3d 65cd e1bd
00000060: aefd babe 6e46 7abe 1837 e43e 6c9e cdbf
00000070: 21eb e63b 72c2 cfbe 75be a93e b031 a63e
00000080: 5405 c73f e67d e13e 2cad 02bf 064c d5be
00000090: 08de c2be 8b10 e83d ae55 2ebe 20f3 1cbe
000000a0: 178e 13be 8327 a8bf 93a2 f7bd f101 323e
000000b0: dbd3 debe 3f7e 85bf 917f 3c3e ba00 a2bd
000000c0: a820 973c 30ec 0fbe 8a62 76be d3e1 58be
000000d0: 9bee 8b3c bea0 d3bc b67e dcbe 1bdc 013d
000000e0: 2573 cf3d 76da cd3d 234b 92be d3f6 73be
000000f0: e865 a0be 131c cebd 5a29 93bd 4ea9 bfbe
00000100: 3d23 0f3e b19f ac3e 0508 b03e ca69 cbbd
00000110: f222 01bc 5213 8dbe 566b a2be 28b4 5bbe
00000120: 499e c7be 1275 5fbd 5719 5a3e

weight_hh_l0 f4 [75, 25]
0.1397455 -0.031314913 0.34425455 0.37375122 -0.05112232 -0.28103325 0.33885348 -0.22367601
0.019993307 -0.06056194 0.09442967 0.25980157 0.6762676 0.12356827 0.41858897 0.17115757
0.06958083 0.20750946 -0.17312899 0.055799436 0.17028904 -0.17827806 0.16077463 0.39913064
0.06290389 -0.09383062 0.09148341 -0.19186008 0.40771466 -0.24151245 0.03541667 -0.41174743
0.3469922 0.31847188 0.020647764 -0.115387365 0.079998165 0.043961488 -0.17660557 -0.033664845
0.72624785 -0.02585714 -0.09416598 -0.015387829 -0.2899039 -0.5682103 -0.37191942 0.22453947
0.05919866 0.65867317 -0.12826407 0.40039507 -0.79082555 0.20174412 0.08979122 0.4799869
-0.39898828 0.3470306 -0.14486924 -0.4479771 -0.22250387 0.36539224 -0.42918754 0.34786215
0.44494686 0.082415596 -0.16942137 -0.26010412 0.16456915 -0.4635386 0.12871349 0.21956031
-0.57522905 -0.5161697 -0.70196706 0.20912889 0.51456404 -0.56238604 0.100426346 0.32728052
0.4044605 -0.07737308 0.42859033 -0.11765778 -0.12604165 0.005773577 0.33720395 -0.040048182
0.11564335 -0.1550298 -0.065231346 -0.20265482 -0.36303738 -0.07378933 -0.05979634 0.1879172
0.13160536 -0.41024575 -0.51004153 0.008207348 0.1394852 0.17791852 0.09838623 0.27002037
-0.1839255 0.6957136 -0.77176285 0.62149394 0.31366098 -0.14731917 -0.22202314 0.24168032
-0.08833716 -0.0040594437 -0.31227887 0.1679037 -0.015947377 -0.13003302 0.02772329 -0.044761255
0.13592044 0.028817695 -0.19298077 -0.40883532 -0.11629957 -0.016420916 0.19140926 -0.01877585
0.056774274 0.040407367 0.43103322 -0.057410263 0.2753229 0.27491745 -0.033628758 -0.03485538
-0.22419384 0.015870374 0.4708077 0.0860198 0.14640306 0.16694745 0.24426341 -0.118585356
-0.16471978 0.06560914 0.15950252 0.110200055 -0.23985875 -0.32082143 0.32574403 0.46827492
-0.21490435 0.26121882 0.41207644 0.28418553 -0.087213986 -0.053362064 0.116903864 0.14952365
0.2083785 0.42455098 0.15885924 0.43660715 -0.2853047 -0.029476043 -0.46096084 -0.1308761
-0.15759608 -0.015449486 0.20534311 0.39655474 0.2955059 -0.20805629 -0.73283845 -0.27595586
-0.24937075 -0.75904757 0.17305854 0.014936078 0.48255247 -0.7759571 0.98037285 0.032289732
-0.21345836 -0.011174183 -0.18351594 -0.3416732 -0.41702265 -0.04500775 0.18560003 -0.14058179
-0.2220465 -0.35164824 -0.31644455 -0.10240807 -0.4492441 -0.030288955 0.286649 0.33445477
-0.45995745 0.18222769 -0.4068451 -0.2640738 -0.8163231 -0.4205304 -0.0019974622 -0.46504387
0.87414616 -0.12666757 -0.2218289 0.27056682 0.5140324 0.084555164 0.9150128 -0.4894219
0.4568463 0.008567138 0.036152918 -0.25905067 -0.14385307 0.033243332 0.035962664 1.001434
-0.13066822 0.055528697 -0.23319972 0.2951656 0.18157828 -0.068893805 -0.022723803 0.41737777
-0.049053133 -0.052823476 -0.10685539 0.10801108 0.1741784 0.22591881 0.22705151 0.29522654
-0.020897025 -0.10200989 0.06995735 -0.3546173 -0.13214198 0.10367007 -0.010184397 -0.311345
0.15043068 -0.014171813 0.080795676 -0.10302119 0.10120826 0.23895353 -0.05657588 -0.38008833
00000000: 7219 0f3e 1144 00bd 2242 b03e 525c bf3e
00000010: a365 51bd 97e3 8fbe 347e ad3e 530b 65be
00000020: 01c9 a33c cc0f 78bd 5864 c13d b604 853e
00000030: e01f 2d3f 5c11 fd3d 4b51 d63e ee43 2f3e
00000040: 6580 8e3d 5c7d 543e ba48 31be f38d 643d
00000050: 4060 2e3e 868e 36be 1ba2 243e da5a cc3e
00000060: c1d3 803d 452a c0bd a75b bb3d f876 44be
00000070: fabf d03e 0a4f 77be 1211 113d 8fd0 d2be
00000080: f6a8 b13e bf0e a33e 8025 a93c 3650 ecbd
00000090: 14d6 a33d f610 343d 17d8 34be 26e4 09bd
000000a0: 61eb 393f 5ad2 d3bc 18da c0bd 3c1d 7cbc
000000b0: 496e 94be 3b76 11bf 396c bebe aded 653e
000000c0: 4b7a 723d ce9e 283f a857 03be 9500 cd3e
000000d0: 8b73 4abf 0396 4e3e 76e4 b73d d8c0 f53e
000000e0: 3148 ccbe ffad b13e 9a58 14be 415d e5be
000000f0: 0ed8 63be b114 bb3e 78be dbbe fd1a b23e
00000100: 13d0 e33e 82c9 a83d cc7c 2dbe 5e2c 85be
00000110: d184 283e ee54 edbe 78cd 033e 6bd4 603e
00000120: 3642 13bf b323 04bf 1db4 33bf e225 563e
00000130: 78ba 033f 88f8 0fbf 54ac cd3d 5091 a73e
00000140: 7215 cf3e c775 9ebd 3170 db3e 90f6 f0bd
00000150: 1011 01be 4630 bd3b ffa5 ac3e 9009 24bd
00000160: 6cd6 ec3d 22c0 1ebe 0398 85bd bf84 4fbe
00000170: 09e0 b9be dc1e 97bd 02ed 74bd 5e6d 403e
00000180: 8ec3 063e bb0b d2be 1592 02bf 1d78 063c
00000190: 35d5 0e3e 4630 363e b87e c93d 1c40 8a3e
000001a0: f756 3cbe 491a 323f 4092 45bf 3a1a 1f3f
000001b0: 2c98 a03e d6da 16be 095a 63be 0c7b 773e
000001c0: 1dea b4bd 1505 85bb 04e3 9fbe f3ee 2b3e
000001d0: 13a4 82bc 6027 05be f41b e33c 9457 37bd
000001e0: ba2e 0b3e 1613 ec3c c09c 45be dd52 d1be
000001f0: 782e eebd 2885 86bc ca00 443e d0cf 99bc
00000200: 248c 683d 3282 253d 63b0 dc3e 0627 6bbd
00000210: 20f7 8c3e fbc1 8c3e 4fbe 09bd 84c4 0ebd
00000220: 1293 65be 9602 823c b50d f13e 262b b03d
00000230: afea 153e 46f4 2a3e 3020 7a3e e1dc f2bd
00000240: 4dac 28be 165e 863d a154 233e 91b0 e13d
00000250: 889d 75be b542 a4be ecc7 a63e bbc1 ef3e
00000260: e30f 5cbe 79be 853e affb d23e c480 913e
00000270: 3f9d b2bd 2e92 5abd 4b6b ef3d ba1c 193e
00000280: 2c61 553e bf5e d93e ffab 223e f98a df3e
00000290: 7513 92be be77 f1bc 0f03 ecbe 6204 06be
000002a0: de60 21be d71f 7dbc 7745 523e 3909 cb3e
000002b0: 8d4c 973e b50c 55be 4d9b 3bbf 164a 8dbe
000002c0: 0c5b 7fbe f150 42bf 4236 313e 74b6 743c
000002d0: 1e11 f73e 20a5 46bf b7f9 7a3f 3d42 043d
000002e0: d494 5abe ec13 37bc 9aeb 3bbe caef aebe
000002f0: fe83 d5be 0c5a 38bd ef0d 3e3e acf4 0fbe
00000300: 2860 63be 3d0b b4be 0505 a2be 52bb d1bd
00000310: 5303 e6be 8b20 f8bc a8c3 923e a83d ab3e
00000320: 8b7f ebbe e599 3a3e 004e d0be ae34 87be
00000330: 8dfa 50bf c34f d7be dbe7 02bb 3b1a eebe
00000340: 0bc8 5f3f 25b5 01be 1d27 63be bc87 8a3e
00000350: a197 033f 422b ad3d 473e 6a3f 8295 fabe
00000360: c2e7 e93e 2e5d 0c3c 1515 143d 4aa2 84be
00000370: 384e 13be 292a 083d 964d 133d fd2e 803f
00000380: e4cd 05be 0f72 633d e8cb 6ebe f21f 973e
00000390: a8ef 393e 3218 8dbd 4527 babc 8ab2 d53e
000003a0: f0eb 48bd 6e5d 58bd 00d7 dabd ea34 dd3d
000003b0: d35b 323e 4357 673e 3180 683e ef27 973e
000003c0: 3d30 abbc 90ea d0bd cd45 8f3d 6690 b5be
000003d0: 3a50 07be f950 d43d 75dc 26bc 9d68 9fbe
000003e0: 800a 1a3e e430 68bc 3478 a53d c6fc d2bd
000003f0: 4746 cf3d 3cb0 743e 1cbc 67bd f09a c2be

bias_ih_l0 f4 [75]
0.029155359 -0.12670511 0.4700715 0.26627323 0.27738804 0.18130712 0.44352904 -0.17467362
-0.14473803 -0.14127678 -0.07117761 -0.083290786 0.11034585 0.3527609 0.04897623 -0.0049317796
-0.17879976 -0.11168238 0.44228616 -0.023772588 -0.19053316 -0.037106838 -0.06929526 -0.0675124
0.47387472 -0.30176875 -0.09459146 0.45424244 -0.11053069 -0.2801281 0.090558045 0.13872391
-0.32841846 -0.017612819 -0.1040462 -0.07972061 -0.21820323 0.41621548 -0.094335295 0.22890279
-0.09486176 -0.09153253 -0.64591783 0.040207047 -0.075389534 -0.34618863 -0.28022563 -0.08258855
0.5841094 -0.20940705 -0.042687714 0.052667875 -0.0028493672 0.024084352 0.1307566 0.16729747
-0.17558376 0.2040529 -0.13008645 -0.055845995 0.031691253 0.19294424 -0.22658418 0.016589355
0.17120506 -0.11537833 -0.09124206 -0.13126014 0.13364932 -0.15131336 -0.002655779 -0.06532109
-0.13939436 -0.02594173 0.011287155
00000000: 38d7 ee3c fcbe 01be 36ad f03e f754 883e
00000010: ce05 8e3e 93a8 393e 3d16 e33e a4dd 32be
00000020: 3536 14be dcaa 10be 91c5 91bd 5c94 aabd
00000030: 01fd e13d 149d b43e 4d9b 483d c49a a1bb
00000040: 4917 37be bbb9 e4bd 5573 e23e bbbe c2bc
00000050: 201b 43be 57fd 17bd acea 8dbd f143 8abd
00000060: b59f f23e 6f81 9abe 2bb9 c1bd 7792 e83e
00000070: ea5d e2bd f36c 8fbe 7f76 b93d a40d 0e3e
00000080: 7726 a8be c248 90bc 2d16 d5bd 8f44 a3bd
00000090: ab70 5fbe 321a d53e dd32 c1bd 7e65 6a3e
000000a0: e246 c2bd 6875 bbbd df5a 25bf 25b0 243d
000000b0: d465 9abd a33f b1be bc79 8fbe 3024 a9bd
000000c0: 3288 153f cd6e 56be 50d9 2ebd 45ba 573d
000000d0: 73bc 3abb 8c4c c53c 0fe5 053e 0750 2b3e
000000e0: 3bcc 33be 3ef3 503e 6235 05be c5be 64bd
000000f0: b0ce 013d 2d93 453e af05 68be 66e6 873c
00000100: 6150 2f3e 794b ecbd 1edd babd 0f69 06be
00000110: 5edb 083e e4f1 1abe 940c 2ebb 10c7 85bd
00000120: 65bd 0ebe c083 d4bc c2ed 383c

bias_hh_l0 f4 [75]
0.15216209 -0.09893542 0.26084012 0.23695688 0.19157913 0.011347311 0.3920684 0.024618331
-0.0023798095 0.09251666 -0.17683367 0.004832177 0.15736422 0.21714559 0.12637806 -0.08489069
-0.2655343 -0.16472778 0.16488104 0.10586966 0.02642051 -0.10732259 0.13754877 0.0027420241
0.17890133 -0.31889123 -0.22123122 0.492052 0.25801712 -0.14343508 0.12396346 0.0702581
-0.56059414 0.15131108 -0.17596869 -0.097797096 -0.30627015 0.51901144 -0.30547902 0.06018993
-0.090423696 -0.3605634 -0.606772 0.043311924 -0.31368986 -0.050696395 -0.025536757 -0.17288363
0.7205282 -0.18385023 0.032275643 0.08343435 -0.14075005 -0.13253325 0.12617472 -0.03412413
0.110065416 -0.16123411 -0.029418893 -0.08263548 0.017118273 -0.036775753 0.066878654 0.097259596
-0.03457389 0.08948138 -0.11637743 -0.12159773 0.1735691 -0.0965045 0.18360302 0.19611034
-0.11221554 0.0044761053 0.19733779
00000000: 61d0 1b3e a79e cabd d68c 853e d3a4 723e
00000010: 522d 443e 12ea 393c 30bd c83e 62ac c93c
00000020: 94f6 1bbb 6079 bd3d e313 35be 3d57 9e3b
00000030: 1624 213e 6a5b 5e3e 4069 013e 2cdb adbd
00000040: 1df4 87be 66ae 28be 93d6 283e 31d2 d83d
00000050: d36f d83c f2cb dbbd 96d9 0c3e 88b3 333b
00000060: e931 373e b645 a3be 708a 62be 3dee fb3e
00000070: d21a 843e a5e0 12be 8ee0 fd3d 7be3 8f3d
00000080: 1983 0fbf 4bf1 1a3e 2331 34be d849 c8bd
00000090: 71cf 9cbe efdd 043f bf67 9cbe b789 763d
000000a0: 0f30 b9bd c49b b8be 6955 1bbf d867 313d
000000b0: f59b a0be 06a7 4fbd 7632 d1bc 6808 31be
000000c0: 8974 383f 3c43 3cbe 7733 043d a1df aa3d
000000d0: c820 10be ccb6 07be f233 013e bec5 0bbd
000000e0: fa69 e13d 8e1a 25be e4ff f0bc ca3c a9bd
000000f0: 9f3b 8c3c 2ca2 16bd adf7 883d 0a30 c73d
00000100: 5a9d 0dbd 0442 b73d 4a57 eebd 3b08 f9bd
00000110: 19bc 313e 27a4 c5bd 6e02 3c3e 26d1 483e
00000120: 43d1 e5bd 4bac 923b eb12 4a3e

weight f4 [1, 25]
-0.2792392 -0.10056319 -0.0021706668 0.025512613 -0.37643397 0.041821424 0.08074129 0.19570293
-0.16357304 -0.17813717 -0.30414435 -0.12555377 -0.14348118 -0.121012285 0.22587508 0.1756477
0.3685375 -0.06202333 0.0837546 -0.26560354 -0.13648862 -0.2684022 -0.31747857 0.06661662
0.16731448
00000000: 71f8 8ebe 13f4 cdbd bf41 0ebb d4ff d03c
00000010: f4bb c0be f14c 2b3d b05b a53d 5966 483e
00000020: b17f 27be 9769 36be cfb8 9bbe 2b91 00be
00000030: bbec 12be 4ad5 f7bd cc4b 673e fedc 333e
00000040: f2b0 bc3e 2d0c 7ebd 8887 ab3d 30fd 87be
00000050: acc3 0bbe 036c 89be 8d8c a2be 4b6e 883d
00000060: 7d54 2b3e
