model.pt (torch, 6580 bytes, 5 tensors)

weight_ih_l0 f4 [25, 1]
0.5062273 -0.42076105 0.22870545 0.08059901 -0.5275269 0.097150825 0.28865856 0.3670596
-0.13296813 0.25721636 0.18923455 -0.03745313 0.055857323 0.19455063 0.28319547 0.23012573
-0.15836647 -0.36049145 -0.0036779526 0.053006794 0.32003653 0.08211442 0.24440795 -0.28867725
0.33328703
00000000: 1d98 013f fe6d d7be c331 6a3e 1811 a53d
00000010: 010c 07bf 03f7 c63d 0ecb 933e 3cef bb3e
00000020: cc28 08be ddb1 833e b4c6 413e 7468 19bd
00000030: a6ca 643d 4838 473e fffe 903e 14a6 6b3e
00000040: d22a 22be 5692 b8be ce09 71bb a71d 593d
00000050: d4db a33e 9b2b a83d 1446 7a3e 81cd 93be
00000060: 99a4 aa3e

weight_hh_l0 f4 [25, 25]
0.40187675 -0.14565763 0.1583878 -0.026124714 0.18436335 -0.11740359 0.2745765 0.033667583
-0.17241892 0.3425915 0.032007463 0.0554841 0.062705815 0.015119674 0.068075486 -0.2721407
0.060321957 -0.2534906 -0.18316768 0.015698278 0.106796294 -0.29216045 -0.12356116 -0.2639634
-0.17105323 0.11648252 -0.1754021 0.11651193 -0.17863923 -0.15134163 -0.08980566 0.007191158
-0.10291281 -0.10520508 0.1919645 0.072611764 0.12158547 -0.04205337 0.114472136 0.01670305
-0.20676221 0.22156791 -0.03226447 0.10391664 0.011151991 -0.13860133 0.17006367 -0.092819534
0.15186495 -0.17512032 -0.101242065 0.106230564 -0.15227093 -0.02099234 0.020665856 -0.048713423
0.117909856 -0.13402511 0.007866659 -0.0033669462 0.22707315 -0.054102335 -0.09278266 -0.2880542
0.1411968 -0.15613413 0.07505258 -0.07008497 -0.12267291 0.2635812 0.15526064 0.024170069
0.1290014 -0.027200244 0.3784693 0.029904021 -0.013923021 0.012390321 0.022283591 0.023446437
-0.03476879 0.000410593 -0.17954686 0.10924905 -0.049957164 -0.07150469 0.07484998 -0.23177125
0.056786288 -0.16917932 -0.24106726 -0.052980162 0.29452172 0.37824658 0.03330548 0.07817048
-0.14840065 -0.16669814 -0.1620647 -0.1317402 0.12271368 0.434066 -0.11178331 0.12635498
0.26357085 -0.20719658 0.06519456 0.06111479 0.1886536 -0.0060851295 -0.077709444 -0.016172595
0.12702292 -0.21065216 -0.18301108 -0.27848434 0.11020562 0.30423138 -0.026937697 -0.1621707
-0.035763603 -0.07652802 -0.12625267 0.10170546 -0.22571555 -0.17007126 -0.00013057399 -0.14010328
-0.12633462 -0.26880333 -0.013730755 -0.12255754 -0.036825888 -0.028298773 -0.09015135 -0.19428112
-0.29041275 -0.18259908 -0.00352807 -0.25401944 0.12610792 0.008189139 0.11472548 -0.002296109
0.1550141 0.069821596 -0.29261664 -0.21620847 -0.014551994 -0.12740546 -0.051243458 0.045584314
-0.0069250576 0.17287755 -0.16118622 0.071432225 -0.10715032 -0.09382721 -0.03799887 0.1634281
-0.07310701 0.12961534 0.013373981 -0.07480293 0.12993003 0.21917221 -0.20482783 0.07015429
0.13418534 -0.045700766 0.23276688 -0.073728204 -0.14136799 0.025403105 -0.0846776 -0.1606676
0.18057068 -0.21838567 -0.11178814 -0.04136353 0.0860802 0.12446394 -0.29977655 -0.084492825
-0.20123862 -0.017634872 -0.16289467 -0.1416715 0.09898463 -0.099400714 0.14474292 -0.18039411
0.0864976 0.064155124 -0.09002463 -0.11462496 -0.12756129 -0.0675807 0.34930283 -0.054294202
-0.1272688 0.17708127 -0.0069819493 0.15748605 -0.22055036 0.038093884 0.11018442 0.10919444
-0.09084386 0.14730583 -0.083890885 0.09242568 -0.07086211 -0.045811344 -0.10726478 -0.008142816
-0.08854622 0.1980208 0.09818003 0.034377914 0.20683086 -0.09190814 -0.06302305 -0.30538756
-0.18426472 0.19926155 -0.077697024 0.025303474 0.26266575 0.04689514 -0.25070977 -0.13745566
-0.14953288 -0.12439032 0.033652455 0.0052519203 -0.08071043 -0.09939809 0.02537301 -0.025232356
-0.16879429 -0.06631377 0.031593718 -0.12390785 0.24161893 -0.25861087 -0.061640598 -0.19773835
0.052312046 -0.13045633 0.05839733 -0.054228343 0.042495403 0.08693049 0.1197883 -0.05082224
00000000: cac2 cd3e 4627 15be 6930 223e 7f03 d6bc
00000010: bfc9 3c3e 4b71 f0bd 4a95 8c3e 05e7 093d
00000020: 968e 30be 2768 af3e 421a 033d 4c43 633d
00000030: e86b 803d 82b8 773c 296b 8b3d 0756 8bbe
00000040: 2814 773d 85c9 81be 4f90 3bbe ad99 803c
00000050: 04b8 da3d 0e96 95be a20d fdbd 3626 87be
00000060: 9428 2fbe 638e ee3d 9c9c 33be cf9d ee3d
00000070: 34ed 36be 4df9 1abe 08ec b7bd cea3 eb3b
00000080: f4c3 d2bd c375 d7bd 5892 443e 7ab5 943d
00000090: ce01 f93d 2840 2cbd 5e70 ea3d d6d4 883c
000000a0: 79b9 53be b3e2 623e c027 04bd 3fd2 d43d
000000b0: d7b6 363c 82ed 0dbe 2c25 2e3e 2b18 bebd
000000c0: 7c82 1b3e be52 33be 0058 cfbd 698f d93d
000000d0: e9ec 1bbe 21f8 abbc 714b a93c ba87 47bd
000000e0: b97a f13d e13d 09be 29e3 003c fca7 5cbb
000000f0: dd85 683e 699a 5dbd d604 bebd d77b 93be
00000100: e595 103e a0e1 1fbe 2bb5 993d b588 8fbd
00000110: ef3b fbbd 1df4 863e a5fc 1e3e 4f00 c63c
00000120: f118 043e 0cd3 debc bac6 c13e 47f9 f43c
00000130: 621d 64bc c600 4b3c 148c b63c be12 c03c
00000140: b869 0ebd dc44 d739 22db 37be f7bd df3d
00000150: e29f 4cbd 0d71 92bd f24a 993d 7155 6dbe
00000160: bd98 683d 583d 2dbe 56da 76be ba01 59bd
00000170: 8dcb 963e 89a9 c13e 546b 083d d817 a03d
00000180: 57f6 17be ebb2 2abe 4af4 25be e7e6 06be
00000190: 4f51 fb3d e63d de3e a6ee e4bd 3363 013e
000001a0: c2f2 863e 572b 54be ba84 853d 8153 7a3d
000001b0: 692e 413e c465 c7bb 2126 9fbd 647c 84bc
000001c0: 4c12 023e 33b5 57be 4267 3bbe 8095 8ebe
000001d0: 7cb3 e13d 37c4 9b3e 72ac dcbc 1310 26be
000001e0: db7c 12bd b9ba 9cbd 6148 01be f44a d03d
000001f0: fa21 67be 2927 2ebe b0ea 08b9 3c77 0fbe
00000200: dd5d 01be 97a0 89be f6f6 60bc 73ff fabd
00000210: bed6 16bd d4d2 e7bc 45a1 b8bd a1f1 46be
00000220: fbb0 94be 41fb 3abe 3137 67bb d60e 82be
00000230: 6f22 013e bd2b 063c 31f5 ea3d 517a 16bb
00000240: 04bc 1e3e a0fe 8e3d d9d1 95be c165 5dbe
00000250: 7d6b 6ebc 9476 02be a9e4 51bd 9eb6 3a3d
00000260: 98eb e2bb d006 313e 000e 25be 0f4b 923d
00000270: a171 dbbd 7b28 c0bd b4a4 1bbd b259 273e
00000280: 21b9 95bd e2b9 043e 8b1e 5b3c 4732 99bd
00000290: 610c 053e ae6e 603e 63be 51be 0dad 8f3d
000002a0: e267 093e ba30 3bbd 715a 6e3e d0fe 96bd
000002b0: c5c2 10be 2c1a d03c 736b adbd 0c86 24be
000002c0: 85e7 383e 7ea0 5fbe 2ef1 e4bd ce6c 29bd
000002d0: d14a b03d f3e6 fe3d 507c 99be 930a adbd
000002e0: 7f11 4ebe 0277 90bc dccd 26be 5512 11be
000002f0: 74b8 ca3d 9a92 cbbd 7d37 143e 3cb9 38be
00000300: a725 b13d c363 833d d55e b8bd 7ec0 eabd
00000310: 6d9f 02be c067 8abd d2d7 b23e 9963 5ebd
00000320: c152 02be cb54 353e d6c8 e4bb 0644 213e
00000330: f4d7 61be 5508 1c3d 5fa8 e13d 56a1 df3d
00000340: 580c babd 57d7 163e fcce abbd ad49 bd3d
00000350: 2720 91bd ada4 3bbd a3ad dbbd 7269 05bc
00000360: b857 b5bd f7c5 4a3e 9d12 c93d dbcf 0c3d
00000370: 78cb 533e 563a bcbd 3b12 81bd c25b 9cbe
00000380: e4af 3cbe 380b 4c3e 9e1f 9fbd 3b49 cf3c
00000390: 207c 863e 1e15 403d 085d 80be 2dc1 0cbe
000003a0: 261f 19be 5ac0 febd 28d7 093d 4d18 ac3b
000003b0: 834b a5bd 3a91 cbbd 0fdb cf3c 16b4 cebc
000003c0: 69d8 2cbe 84cf 87bd 6a68 013d 66c3 fdbd
000003d0: f46a 773e a568 84be da7a 7cbd ec7b 4abe
000003e0: 2845 563d 5896 05be 0a32 6f3d 8a1e 5ebd
000003f0: a90f 2e3d 9d08 b23d 9153 f53d fb2a 50bd

bias_ih_l0 f4 [25]
-0.047543358 -0.012985739 -0.08830314 0.15993136 -0.02236539 -0.07108881 0.14905968 0.013086427
-0.102271445 0.030035933 0.013530274 -0.06577669 -0.09493383 0.019694157 -0.17976725 -0.026710477
0.17545362 0.011855275 -0.04949656 0.070708066 -0.09932039 0.13470328 0.115063146 -0.015436574
-0.13612553
00000000: d3bc 42bd 23c2 54bc 47d8 b4bd 0cc5 233e
00000010: 9f37 b7bc 0397 91bd 1aa3 183e 7468 563c
00000020: b173 d1bd eb0d f63c 15ae 5d3c eeb5 86bd
00000030: ab6c c2bd a455 a13c e814 38be eecf dabc
00000040: 1daa 333e a13c 423c e8bc 4abd 64cf 903d
00000050: 7d68 cbbd a8ef 093e 3aa6 eb3d afe9 7cbc
00000060: 7e64 0bbe

bias_hh_l0 f4 [25]
-0.143941 -0.07174861 0.042328224 0.035404332 -0.15578336 -0.02900408 -0.200891 -0.025395848
0.07626682 0.042024445 0.032254472 0.07638182 0.022838388 0.029543491 0.16414137 -0.079415925
-0.081213586 -0.13259822 0.019854162 0.039221376 -0.11661447 0.050970837 0.040911503 -0.083737016
0.17394263
00000000: 4565 13be eff0 92bd 5c60 2d3d 2204 113d
00000010: ac85 1fbe f799 edbc 5fb6 4dbe f40a d0bc
00000020: c731 9c3d d321 2c3d 441d 043d 126e 9c3d
00000030: 9217 bb3c 3105 f23c ad14 283e d1a4 a2bd
00000040: 4f53 a6bd d4c7 07be 32a5 a23c 98a6 203d
00000050: 91d3 eebd ccc6 503d d292 273d 507e abbd
00000060: 041e 323e

weight f4 [1, 25]
0.29842132 -0.19629678 0.30966133 -0.123796575 -0.33620226 -0.13139166 0.21103433 0.19754799
-0.1351954 0.1336939 -0.032548103 0.051767807 0.19381222 0.061851483 0.18922858 -0.013971787
0.13264759 -0.25427872 0.054044355 -0.12361119 0.05560215 0.3088647 0.17464542 -0.0675147
0.20431882
00000000: aeca 983e 0602 49be ee8b 9e3e 0f89 fdbd
00000010: b422 acbe 898b 06be 6219 583e 054a 4a3e
00000020: aa70 0abe 0ee7 083e 2951 05bd 7b0a 543d
00000030: b676 463e fb57 7d3d 23c5 413e ece9 64bc
00000040: c5d4 073e d230 82be 9d5d 5d3d dd27 fdbd
00000050: 14bf 633d 8423 9e3e 40d6 323e 2645 8abd
00000060: f438 513e
