model.pt (torch, 6580 bytes, 5 tensors)

weight_ih_l0 f4 [25, 1]
00000000: f069 ba3e 59d4 333e 4a42 d03e 3442 d03e
00000010: 4d98 cc3d b603 833d d472 2b3e df7f 273e
00000020: 2024 85bd 76d3 b33e ddc6 68be 55b2 373e
00000030: 2403 383e ced0 8fbe 9f6a 233d 7edd 6bbd
00000040: 9f3d 973e b894 d7be dcff 4fbd 7edd cfbd
00000050: c0e8 883e 2da0 293e c1cf 5abe caf7 95be
00000060: 09e4 e3be
0.3640895 0.17561473 0.40675575 0.4067551 0.099899866 0.06397192 0.16743022 0.16357373
-0.06501031 0.3512227 -0.2273211 0.17939122 0.17969948 -0.28088993 0.039896604 -0.05758428
0.295392 -0.4210565 -0.050781116 -0.10149668 0.26740074 0.16565008 -0.21368314 -0.2929061
-0.44509915

weight_hh_l0 f4 [25, 25]
00000000: bdac 24be 3044 d73d b611 763e a8cc 13be
00000010: cb4b 603c 26b3 1a3e 6b3e babd 1cd3 29be
00000020: ecad 76bd 673d 04bd 2b14 f73d a56d 7c3d
00000030: 281d 113e 3ac3 e73c 597d 0dbe 5847 f8bc
00000040: dd45 423d 3110 afbd 6226 b0bd d44c 3fbe
00000050: 4e59 84bd 26b5 9b3d 41f0 47be 21cd 8dbd
00000060: 3af1 08be a1b3 133e f152 de3e cd78 5c3c
00000070: b8ce 16bd a6e9 26be 567e 95bc 3368 703e
00000080: 8050 173e d3b4 21be 6321 49be 6069 733e
00000090: afe3 963d d366 73bb b7c7 2dbd d8d2 1f3e
000000a0: e8a0 5a3e 12e0 81bb b9c0 163e 0010 d735
000000b0: 9e2b 25bd 5766 1fbe 6237 053d 17da f4bd
000000c0: cea5 19be d254 15be 9a51 133d 3015 833e
000000d0: 1346 43bd a92a e8bc 6b32 e53d bfbf 863c
000000e0: 4047 993d f6a9 eb3d df8f c5bc 9e5f 233c
000000f0: 2e75 3d3e 2df6 3bbe 34e7 61be ef8f 5b3e
00000100: 0ab0 903d 870e c4bb 6763 2d3e 83f6 98bd
00000110: 2eb2 2ebe 77f0 db3d 68cf 013e 311e b53d
00000120: 261e 123e 5388 35be 345b aebd 011d 4e3d
00000130: 59e5 81bd 88d6 00bb 8a94 a93e 5027 993d
00000140: 14ee 213d fd00 1f3e 69fb 6bbe 9b6f 743e
00000150: 0755 363e 6500 03be 1a5b 793d 87c3 fdbd
00000160: 0e81 5d3e c5ae 5c3d 94e2 62bd 74ab 01be
00000170: 943e 57be 1466 ba3e 904f c1bd 0179 023e
00000180: f77d 88be 9a35 623e 66bf 1f3c f648 97bd
00000190: 4f30 e2bd 8ca1 14be 48c2 b8bd d781 38bd
000001a0: 323a 85bd 2052 66bd dde8 60be 416d 39be
000001b0: 04f1 c3bd 2328 d3bd 0422 b13d 04a4 63be
000001c0: 6725 7cbd 5333 26be 94f5 e03d accf 9d3d
000001d0: cccc febd 3121 07bd 1ada c5bc 750a 313c
000001e0: 2660 fd3d 4895 813d 9d84 6a3e f0ab 2b3e
000001f0: 62d2 8c3d dc36 793e 7e97 34bc e5dd f53d
00000200: 7bae 32bd c2d8 423e 69c8 c4be 270f 523e
00000210: b307 e53d 7adc 553e 40d5 be3c 5ca3 983d
00000220: f700 8ebd 5e89 1e3e 109d af3c fd25 8c3d
00000230: 5490 04bd 49bc 0abd eb01 c13d afa7 f03d
00000240: c4f2 23be c7e0 b83d bc8f 873c 6ce3 0ebe
00000250: 2bcf 1c3d ae52 a6bd c14d 12be 848f 40be
00000260: d17b a4be 84dd c83c 2cea 99bd 7850 acbd
00000270: 6e50 6f3d 532e f53b 4c12 4abe 7b6d 26be
00000280: e852 d03d a1ed 74bd f9d6 c63d dabd 86be
00000290: 77a8 72be 3c75 7bbe c0a1 d73d 1877 973e
000002a0: 70fb 4b3e 6e70 a63d 937d 373e 9ba0 ef3d
000002b0: c300 773e 1a96 5a3e 8375 2bbe 228c ec3d
000002c0: 7438 453e be9b ea3c 3247 24be ae80 88bc
000002d0: 80ba 333d eb6c 0ebe 9c16 e9bd 4c47 623d
000002e0: 1722 683d 5d5d 6f3d 4e53 6fbd c9fd 5abe
000002f0: d397 803d 84af 633d e023 aa3d 2571 23bd
00000300: da0f cc3d d425 8bbd 8a03 6abe d4c4 87be
00000310: 6171 28bc ddc8 2b3d 13ad 78be bff9 5dbe
00000320: 8081 a93d 9c9b 04be 76fc 18be a2df c73c
00000330: 2049 51bd 3f90 953d 9956 26be 7859 e63c
00000340: 9bfa 34be 5221 c2bd 2a33 7dbe 4d69 11be
00000350: 3b77 3cbe e868 b73c 5c3c 3dbe b2cc 1abc
00000360: d843 81be 3eac 183e 28b5 d33d d92e 053e
00000370: d610 1c3d 8617 42be 006e 863e 34cc c639
00000380: 479b 84bd 0448 e43d c8de 1d3e fd84 df3d
00000390: bee2 133e 22d6 413e 741c d5bd 470d 8f3d
000003a0: 153b 1dbe 5849 34bd 542c 05be 5754 c33c
000003b0: 3906 c73d fb9b 26be 243c f4bd 318e 743b
000003c0: f774 26bd c823 003e 5681 cbbc 7ea2 a1bd
000003d0: fd14 2c3e 99c8 0b3e f20e f13d 2861 d23d
000003e0: f44c cf3d 2d56 21bd d041 8c3b 911c 563d
000003f0: 5089 073e c490 be3d 09cf 253d 016b 5d3e
-0.1608152 0.105110526 0.24030194 -0.14433539 0.013689945 0.15107402 -0.090939365 -0.16584438
-0.06022446 -0.03228512 0.120643936 0.061628003 0.14171278 0.028291333 -0.13817348 -0.030307457
0.047429908 -0.0854801 -0.08601071 -0.18681651 -0.06462346 0.07602911 -0.19525243 -0.06923891
-0.1337327 0.14423992 0.43422654 0.0134565355 -0.036818236 -0.16300067 -0.018248718 0.23477249
0.14776802 -0.15791635 -0.19641642 0.23770666 0.07367646 -0.0037140145 -0.04242679 0.15607774
0.21350443 -0.003963479 0.14721955 1.6023405e-06 -0.0403248 -0.15566383 0.03252352 -0.1195566
-0.15004656 -0.14583138 0.035966493 0.25602102 -0.04767425 -0.028340654 0.11191257 0.016448854
0.07484293 0.11507027 -0.024116455 0.009971527 0.18501732 -0.18355627 -0.22060853 0.21441625
0.07064827 -0.005983177 0.1693245 -0.074688934 -0.17060158 0.107392244 0.12676775 0.08843649
0.14269313 -0.17727785 -0.08513489 0.05032063 -0.06342573 -0.001965912 0.3312114 0.074782014
0.03953369 0.15527721 -0.23045124 0.23870699 0.17805873 -0.12793119 0.060877897 -0.123908095
0.21631262 0.05387761 -0.055391863 -0.1266306 -0.21019965 0.36406004 -0.094390035 0.12741472
-0.26658604 0.2209076 0.009750223 -0.07386963 -0.110443704 -0.1451475 -0.09021431 -0.0450457
-0.065052405 -0.056230664 -0.2196383 -0.18108083 -0.095674545 -0.1031039 0.08649066 -0.22230536
-0.061559107 -0.16230516 0.1098434 0.07705626 -0.12441406 -0.03299064 -0.02415185 0.010805716
0.123718545 0.06327301 0.2290215 0.16764808 0.06876065 0.24337333 -0.011022447 0.12005214
-0.04362343 0.19027999 -0.3843415 0.20513593 0.11183109 0.20884886 0.023295045 0.07453033
-0.06933778 0.15482089 0.021437198 0.06843183 -0.032364205 -0.03387097 0.09424194 0.11750733
-0.16010576 0.09027248 0.01654803 -0.13953942 0.03828351 -0.08121239 -0.14287473 -0.18804747
-0.32125714 0.02451969 -0.07515368 -0.08413786 0.058426313 0.007482329 -0.19733542 -0.16252701
0.10172063 -0.059796933 0.097089715 -0.2631672 -0.23697077 -0.2455644 0.10528898 0.2958305
0.19920135 0.08126913 0.17918997 0.11700555 0.24121384 0.21346322 -0.16744046 0.11550166
0.19259816 0.028638717 -0.16042784 -0.016662922 0.043879032 -0.13908736 -0.113812655 0.055243775
0.056673136 0.058438648 -0.058429055 -0.21385874 0.06278958 0.055587307 0.08307624 -0.039902825
0.09963961 -0.067943245 -0.22852913 -0.26517355 -0.010280938 0.041939605 -0.24284773 -0.21677302
0.08276653 -0.12949985 -0.14940056 0.024398629 -0.051095128 0.073029034 -0.16243972 0.028118834
-0.17673723 -0.094790116 -0.24726549 -0.14200325 -0.18404858 0.02238889 -0.18480057 -0.009448217
-0.25247073 0.14909455 0.10337287 0.13006152 0.038101994 -0.18954286 0.26255798 0.00037917646
-0.06474929 0.111465484 0.15417016 0.109140374 0.14441964 0.18929341 -0.10405818 0.06984954
-0.1535457 -0.04401526 -0.13005191 0.023843927 0.09717984 -0.1627044 -0.119255334 0.0037316198
-0.04063889 0.1251365 -0.024841946 -0.07892321 0.16804881 0.1365074 0.11770429 0.10272437
0.101220995 -0.039388824 0.0042803064 0.052273337 0.13235974 0.093049556 0.040480647 0.2162285

bias_ih_l0 f4 [25]
00000000: b5ca 633d 91d5 213e 5561 063e f594 023e
00000010: 5b92 34be cdf2 61bd 00c1 993d 5343 103e
00000020: 27de a43d 17e6 173c 15a2 57be 2a31 3b3e
00000030: afca b2bd 5ebd f23a 14bd 913d 1ac5 a5bd
00000040: da8b a63c c06d 523d 3abf 84bd 873c 783d
00000050: 6e92 c63d dfe2 ce3d 5d6d e2bd 715c df3d
00000060: 60a0 76bc
0.05561324 0.15804125 0.13123067 0.12752135 -0.17633955 -0.055163193 0.07507515 0.14088182
0.08050185 0.009271166 -0.21057923 0.18280473 -0.08730065 0.0018519571 0.07116142 -0.08094235
0.020330358 0.051374197 -0.06481786 0.0606046 0.09695898 0.10101866 -0.11056016 0.10906304
-0.015052885

bias_hh_l0 f4 [25]
00000000: 2732 e9bc 6b23 3cbe 20f6 ccbc 393f 3bbe
00000010: 558f ab3d 7bd3 573d 228a 71bd 0f6d 2ebd
00000020: 2370 41bd 7fd8 d93d 15e4 293e 9ba2 853d
00000030: 54ce fe3d 12f9 f03c e969 293d 53db 3abe
00000040: 2837 a5bd 2b3f 003e 3fc4 afbd fb36 c23d
00000050: 88e9 f53d e619 883c 8563 6f3d 2d02 5fbe
00000060: 9721 c13b
-0.028466297 -0.18372886 -0.025019705 -0.18285836 0.08376948 0.052691918 -0.058969624 -0.042584475
-0.047226083 0.106369965 0.16590913 0.06525155 0.12441698 0.029415641 0.04136077 -0.18247728
-0.08067161 0.12524097 -0.08582353 0.09483143 0.12007433 0.016613912 0.05844452 -0.21778174
0.005893897

weight f4 [1, 25]
00000000: 2a04 a53e 847b 663e a1a9 b43e be20 8b3e
00000010: 3e1c 64bd d470 df3d 0a85 90bc 0663 873e
00000020: 209e 033d 4e5c 8b3e 9696 34be 4676 2d3e
00000030: fa5b 963d 299c 963c 6a88 fdbd 8518 fdbd
00000040: 9dbf 723d 3ced 4bbe 6517 d0ba c81a 063d
00000050: 8f70 c23c 0cab 5cba 54ca e3bd d4f0 5dbe
00000060: 1e46 5abe
0.3222974 0.22508055 0.35285667 0.27173418 -0.055690996 0.10910192 -0.017641563 0.26442736
0.03213322 0.2721886 -0.17635569 0.16939649 0.07341762 0.01838501 -0.123795345 -0.12358192
0.059264768 -0.19914716 -0.0015876113 0.032740384 0.023735313 -0.0008417822 -0.111225754 -0.216739
-0.2131581
