labo 2/model.pt (torch, 645629 bytes, 20 tensors)

weight f4 [2125, 20]
0	0x3dc6cb22	0.09706713
1	0xbf356556	-0.7085775
2	0xbfc76324	-1.557713
3	0x3d60bb4f	0.05486613
4	0x40238306	2.554872
5	0xbfd4be7a	-1.6620629
6	0x40246c21	2.5690997
7	0x3fa7f0f6	1.312041
8	0x3eba4b2a	0.3638547
9	0x3f988596	1.1915767
10	0x3fbe6ddc	1.4877276
11	0x3ddd24b5	0.10798017
12	0xbe7b4d43	-0.24541192
13	0xbf747083	-0.9548418
14	0x3fbd0a76	1.4768817
15	0x3ed896b7	0.42302486
16	0xbf5c43fd	-0.8604124
17	0xbf9b31ee	-1.2124612
18	0x3fab3316	1.3374965
19	0xbfb721da	-1.4307206
20	0xbdf6baa9	-0.12047321
21	0x3fc2c247	1.5215539
22	0xbf177480	-0.5916214
23	0x40109f12	2.259709
24	0x3fd3b3c0	1.653923
25	0x3e9b7b37	0.30367443
26	0xbdaaa1a9	-0.083316155
27	0x3e846d7b	0.25864777
28	0x4003b066	2.0576415
29	0xbfadec5f	-1.358776
30	0x3ea48ce5	0.32138744
31	0xbf221e80	-0.6332779
32	0x3ec63166	0.38709563
33	0xbe141afd	-0.1446342
34	0xbf964cb4	-1.1742158
35	0xbf30ddb7	-0.6908831
36	0x3ec00a63	0.37507924
37	0x3f190742	0.597767
38	0x3e8fb03a	0.28064138
39	0x3f11f7fd	0.57019025
40	0xbf3deef9	-0.7419277
41	0x3fda9d00	1.7079163
42	0xbf5498eb	-0.83045834
43	0xbfd61f2a	-1.672826
44	0x3b9988ec	0.004685512
45	0x3d9b8555	0.075937904
46	0xbf651353	-0.8948261
47	0x3fa848b8	1.3147192
48	0x3f53e450	0.8277025
49	0xbf06fc34	-0.5272858
50	0xbe92cf9f	-0.28674027
51	0xbfcd76fe	-1.6051939
52	0xbf9c5cdc	-1.2215838
53	0xbee4b8be	-0.44672197
54	0x3fa73d8a	1.3065655
55	0xbf6eb46a	-0.9324404
56	0xbd6e6360	-0.05820024
57	0x3e59df1c	0.21276516
58	0xc004e964	-2.076745
59	0xbf09710c	-0.5368812
60	0xbe515246	-0.20441541
61	0xbfe322ac	-1.7744956
62	0x3f48c075	0.78418666
63	0x3fe23c0a	1.7674572
64	0x3f95a601	1.1691285
65	0xbf474caf	-0.77851385
66	0x3ed1e5d6	0.40995663
67	0x4020fd21	2.5154498
68	0xbfca4713	-1.580294
69	0x3f4ef476	0.8084177
70	0x3f68b061	0.9089413
71	0x401db286	2.4640212
72	0x3f157d4c	0.5839431
73	0xbfcb8f1c	-1.5903049
74	0xbe2b3f3a	-0.16723338
75	0x3f6fc6f5	0.9366296
76	0xbe694f75	-0.22784217
77	0xbfd4fe64	-1.6640134
78	0x40688df0	3.6336632
79	0x3f1f200c	0.62158275
80	0x3e513584	0.20430571
81	0x3f35d26a	0.7102419
82	0xbf85b176	-1.0444782
83	0x3e2dbc48	0.16966355
84	0xbfef30b1	-1.8686734
85	0x3f35bba3	0.70989436
86	0x3f108a10	0.56460667
87	0x3f8865a1	1.0656015
88	0x3f87b44b	1.0601896
89	0xbf906a00	-1.1282349
90	0xbb8f6cf4	-0.004377002
91	0xbfba082d	-1.4533745
92	0x3fb9f364	1.4527402
93	0x40045e33	2.0682495
94	0xc00083fb	-2.0080554
95	0x3f06b2bb	0.5261647
96	0x3ca07fdc	0.019592218
97	0x3f6eedd6	0.9333166
98	0x3eb77cd4	0.35837424
99	0xbf0cb4e6	-0.5496353
100	0xbfe40af2	-1.781584
101	0x3ebd0a1f	0.36921784
102	0xbf1c6d1d	-0.61103994
103	0x3ebd4da6	0.36973304
104	0xbec03a42	-0.37544447
105	0xbdcb824b	-0.09936961
106	0x3eb49720	0.3527155
107	0x3ec8176c	0.3908037
108	0x3f6e0a4b	0.92984456
109	0xbf592312	-0.8481914
110	0xbe6a71e6	-0.22895011
111	0x3f7e53a8	0.993464
112	0xbe1b5235	-0.15168078
113	0xbf6f3448	-0.9343915
114	0x3f77c8f8	0.9679103
115	0xbf736baa	-0.9508616
116	0x3f4c2411	0.7974253
117	0xbf9caade	-1.2239645
118	0xc0099ae4	-2.1500788
119	0xbe50a597	-0.20375668
120	0x3f412536	0.75447404
121	0xbf96df8f	-1.1786975
122	0x40356118	2.8340511
123	0x40263709	2.597109
124	0x3f2e18b6	0.68006456
125	0xbf3d5a1a	-0.7396561
126	0xbf4f59c7	-0.80996364
127	0x3f16c1f7	0.58889717
128	0x3f5f057c	0.87117743
129	0x3f6f9c89	0.9359823
130	0x3f877227	1.0581712
131	0xbf780e13	-0.96896476
132	0x3fc66e61	1.5502435
133	0xbf1b1464	-0.6057799
134	0x3f09a7b1	0.537715
135	0x3fad426a	1.3535893
136	0x3e220f50	0.15826154
137	0xc00a8149	-2.164141
138	0x3c8054ab	0.015665373
139	0x3fb30b53	1.3987831
140	0x3f2dbb3b	0.67863816
141	0x3e098152	0.13428238
142	0xbf6f00b8	-0.9336047
143	0x3f48a8eb	0.7838275
144	0x3ea96f56	0.33092755
145	0xc008c055	-2.136739
146	0x3f3c7ea3	0.7363073
147	0xbfdbcf15	-1.7172571
148	0xbd872ae6	-0.06599979
149	0x3f5d2fa5	0.86400825
150	0x3ffdd1ca	1.9829648
151	0xbfa4726d	-1.284742
152	0xbd98a500	-0.07453346
153	0x3f7b7649	0.98227364
154	0xbfa4a860	-1.2863884
155	0x3e349e61	0.17638542
156	0xbcbfefac	-0.023429714
157	0xc01899de	-2.3843913
158	0x3f227a2a	0.6346766
159	0x3fb7d361	1.4361383
160	0x3f08473a	0.53233683
161	0x401426b6	2.3148627
162	0xbf6e2499	-0.93024594
163	0xbfa779e5	-1.3084074
164	0x3ff1303f	1.8842849
165	0xbfdf2316	-1.7432582
166	0xbf144b2e	-0.57927215
167	0x3fec4ec6	1.846154
168	0x3caa3e1e	0.020781573
169	0x3faa6916	1.331332
170	0x3ff4577b	1.9089197
171	0xbf3a852e	-0.72859466
172	0xbfc8d35d	-1.5689503
173	0x3fdc6955	1.7219645
174	0xbebaed75	-0.3650929
175	0xbf8f8ad3	-1.1214241
176	0xbf8d7c8c	-1.1053634
177	0xbf35cc57	-0.7101492
178	0x3fbc0578	1.4689169
179	0xbf5202e1	-0.8203564
180	0x3f453714	0.7703717
181	0x3d33780c	0.043815657
182	0xbf80cbbb	-1.0062174
183	0xbe6886d8	-0.22707689
184	0x3f1bc018	0.60839987
185	0xbec59bbe	-0.38595384
186	0xbe81e710	-0.253716
187	0x3fc236e9	1.5173007
188	0xbf98c48b	-1.193498
189	0x3e629966	0.2212883
190	0x3d981ea3	0.074277185
191	0xbf0ce1e3	-0.55032176
192	0x3ef55114	0.4791342
193	0xbf928527	-1.1446885
194	0x3fd0b50e	1.6305254
195	0xbac29377	-0.0014844973
196	0xc00599d6	-2.0875144
197	0xbd238804	-0.039924636
198	0xbfb48506	-1.4103096
199	0x3fd9e39e	1.7022588
200	0xbf078186	-0.5293201
201	0xbf304c20	-0.6886616
202	0xbf3fda61	-0.74942595
203	0x3f051c6a	0.5199648
204	0xbe8fb954	-0.28071082
205	0xbfa32312	-1.2745078
206	0x3eab1dd9	0.3342121
207	0x3cf1f616	0.029536288
208	0x3eb14690	0.34624147
209	0xc01a3133	-2.409253
210	0xbece47f5	-0.40289274
211	0xbebfe9ad	-0.37482968
212	0x3f12fcab	0.5741679
213	0xbf0e711c	-0.5564134
214	0xbfb5b309	-1.4195262
215	0xc0202295	-2.5021107
216	0xbf9e991c	-1.2390475
217	0x3f481b0d	0.78166276
218	0xbfbf609a	-1.4951355
219	0x3f82e167	1.0225037
220	0xbe86729f	-0.26259324
221	0xbf3a9775	-0.72887355
222	0x3eb7f26b	0.35927138
223	0xbfc86d81	-1.5658418
224	0x3f6a8eda	0.91624224
225	0x3f3820aa	0.7192484
226	0xbfbc0117	-1.4687833
227	0x3e845529	0.25846222
228	0xbf45a569	-0.7720552
229	0x3f32da92	0.6986476
230	0xbf4b98e9	-0.795302
231	0xc0491b14	-3.1422777
232	0xbf8261bd	-1.0186077
233	0x3f5a0370	0.85161495
234	0x3f6702f1	0.90238863
235	0x3ffad196	1.959521
236	0xbf7de646	-0.99179494
237	0x3f7ee1d9	0.99563366
238	0x3da685fa	0.08131023
239	0x3de3ca3d	0.11122558
240	0xbfd3e01c	-1.6552768
241	0x3f642afc	0.8912809
242	0x3f306392	0.6890193
243	0xbf8bb81c	-1.0915561
244	0x3e99391e	0.2992639
245	0xbe837658	-0.25676227
246	0xbeae6b8c	-0.34066427
247	0x3e31456e	0.17311642
248	0xbf01e985	-0.5074695
249	0xbe9012d0	-0.28139353
250	0x3f0e8a4b	0.5567977
251	0xbf754ea1	-0.95823103
252	0xbf94e1c1	-1.1631395
253	0x3e868a98	0.26277614
254	0xbee84b84	-0.45370114
255	0xbf4c7ec5	-0.79880935

weight f4 [1370, 20]
0	0xbf943e1a	-1.1581452
1	0x3d9dc1fd	0.07703016
2	0xbdf9695a	-0.12178297
3	0xbfe97633	-1.8239197
4	0xbc64692b	-0.01394109
5	0xbf950f86	-1.1645362
6	0xbeae4bac	-0.34042108
7	0xbc646de4	-0.013942216
8	0x3f3b105c	0.7307184
9	0xbe97c350	-0.296412
10	0xbecb5a68	-0.39717412
11	0x3eb6743a	0.3563555
12	0xbe4ec425	-0.2019201
13	0xbe32ff63	-0.17480235
14	0xbcfdad95	-0.03096656
15	0x3ea90b52	0.3301645
16	0xc0048734	-2.0707521
17	0x3ec8e34c	0.39235914
18	0xbf9dedb3	-1.2338165
19	0xbec90fdd	-0.39269915
20	0x3f5e84a5	0.8692115
21	0xbf00bf81	-0.5029221
22	0xbec1342c	-0.37735116
23	0xbf569acb	-0.83829945
24	0xbf1918d7	-0.5980353
25	0xbf8286c0	-1.0197372
26	0x3af00ee0	0.001831498
27	0xbf2d5771	-0.6771155
28	0xbf02ef09	-0.5114599
29	0x3e8d8054	0.2763697
30	0x3fc3148b	1.5240644
31	0x3f146989	0.57973534
32	0xbe2ff02a	-0.17181459
33	0x3ee75cd0	0.45187998
34	0xbfc42182	-1.5322726
35	0x3e2e3c70	0.17015243
36	0xbefaec2c	-0.4900831
37	0xbc807088	-0.01567866
38	0x3f0c0d7d	0.5470808
39	0x3fc4a29a	1.5362122
40	0x3fa3b753	1.2790321
41	0xbd736327	-0.05942073
42	0x3f901363	1.1255916
43	0xbf47abf5	-0.7799676
44	0x406a9272	3.6651883
45	0xbf99b597	-1.2008542
46	0xbe6e7f97	-0.23290859
47	0x3f1c9b4d	0.6117447
48	0xbef04294	-0.46925795
49	0x3f2a49b9	0.6651874
50	0xbdd3ef31	-0.103483565
51	0xbd2f8549	-0.04285172
52	0xc001d698	-2.0287228
53	0x3ffeb382	1.9898531
54	0xbf6ae670	-0.9175787
55	0x3ee8ed19	0.4549339
56	0xbed55152	-0.41663605
57	0x3faed05c	1.3657336
58	0x3fb952e4	1.4478421
59	0x3e808c7f	0.2510719
60	0x3f9d80e6	1.2304962
61	0xbf2d6dcc	-0.6774566
62	0xbe32ebcb	-0.1747276
63	0x3e84ab14	0.25911772
64	0xbe8eb418	-0.27871776
65	0xbede7250	-0.4344659
66	0x3e802dd0	0.25034952
67	0xbf23518f	-0.63796324
68	0xbf7aa442	-0.9790689
69	0xbd251d90	-0.040311396
70	0x3dde15a2	0.1084397
71	0xbf023368	-0.5085969
72	0xbf5c0aad	-0.8595379
73	0xbfbbe4f2	-1.4679244
74	0xbf27b7b4	-0.65514684
75	0xbf9ea9b9	-1.2395545
76	0x3f96d5a9	1.1783954
77	0x3f306ba0	0.6891422
78	0xbe9b9be5	-0.30392376
79	0xbf0b9cfa	-0.545364
80	0xbf5dd21f	-0.86648744
81	0xbf8f82b1	-1.1211759
82	0xbe5c2766	-0.21499404
83	0x3fcb01de	1.5859945
84	0xbf859b45	-1.043801
85	0xbf11b1a5	-0.5691169
86	0xc00811ec	-2.1260939
87	0xbf2f5b2e	-0.68498504
88	0x3de8d80f	0.11369335
89	0x3f4109fb	0.75405854
90	0xbecb3ed7	-0.3969638
91	0xbf7ea34f	-0.9946794
92	0xbf858055	-1.0429789
93	0xbfd22e6b	-1.6420416
94	0x3f0f8389	0.5606008
95	0x400d9cfb	2.2127063
96	0x3e1188f8	0.14212406
97	0x3f45282a	0.7701441
98	0xbfe5a99f	-1.7942389
99	0x3f215298	0.63016653
100	0x3f897e75	1.0741717
101	0xbeb23c5f	-0.34811684
102	0xbfb55b31	-1.4168454
103	0xc04b3aa7	-3.1754549
104	0x3f389ab0	0.72111034
105	0x3fd243ba	1.6426919
106	0x3f92abbb	1.1458658
107	0x3fb0a19c	1.3799319
108	0xbfc89004	-1.566895
109	0x3e51fe4e	0.20507166
110	0x3dabcf7a	0.083891824
111	0xc012671a	-2.2875428
112	0x3f861a79	1.0476829
113	0x3f91b1c5	1.1382376
114	0xbf0efdbd	-0.55855924
115	0xbfd964a0	-1.6983833
116	0xc034066c	-2.812892
117	0x4036880a	2.8520532
118	0xbf0634d3	-0.52424353
119	0xbff95af4	-1.9480882
120	0xbfaef297	-1.3667783
121	0x3f968f12	1.1762412
122	0x400093ff	2.009033
123	0xbe485c64	-0.19566494
124	0xbf1616b0	-0.5862837
125	0x3f629edc	0.8852365
126	0xbe9800b5	-0.2968804
127	0x3d93670a	0.071973875
128	0x3ea435d4	0.32072318
129	0xbf2605c2	-0.64852536
130	0x3f4bcc17	0.7960829
131	0x3f9420bf	1.1572493
132	0x3fc0c8ab	1.5061239
133	0x3c50b1c8	0.012737699
134	0xbddf59a4	-0.109057695
135	0x3f9acfa8	1.2094622
136	0x3fa3217f	1.2744597
137	0xbf0aa49f	-0.5415744
138	0x3f6c7f19	0.92381436
139	0xbeb226df	-0.3479528
140	0xbf962e10	-1.1732807
141	0xbf4aa3f2	-0.7915641
142	0x3f4dd5e9	0.80404526
143	0x3ebf5c13	0.37374935
144	0xbd5b1371	-0.053485338
145	0x3f0b2e69	0.5436769
146	0x3e90639d	0.28201
147	0xbf1cc0c7	-0.61231655
148	0xc0296291	-2.646641
149	0x3fe1cbda	1.7640336
150	0xbfb75732	-1.4323485
151	0xbf8e3a9d	-1.1111637
152	0xbf301999	-0.6878906
153	0xbe91aad5	-0.28450647
154	0x3d8dc24c	0.06921825
155	0xbf05cb61	-0.52263457
156	0x3fce49eb	1.6116308
157	0xbfa4905e	-1.2856557
158	0x3ea48f6d	0.32140675
159	0x4015ae49	2.3387625
160	0x3f0dfd22	0.55464375
161	0x3eda89e8	0.4268334
162	0xbfd4b033	-1.6616272
163	0xbee2bbe5	-0.44283977
164	0xbf0d39c4	-0.5516627
165	0xbe3c4008	-0.18383801
166	0x3ee1620c	0.44020116
167	0x3faea869	1.3645145
168	0xc01dfe8b	-2.468661
169	0xbe36c61f	-0.17849015
170	0xbfad4f8e	-1.3539903
171	0xbf0140c8	-0.50489473
172	0xbf36c419	-0.7139297
173	0xbf3554af	-0.7083234
174	0xbe4bfe27	-0.1992117
175	0xbe85fe88	-0.26170754
176	0xbf7d28be	-0.9889029
177	0x3c045dfc	0.008079048
178	0x3f9603d1	1.1719915
179	0xbf1e05db	-0.61727685
180	0xbfd488bc	-1.6604228
181	0x3fd78d9d	1.6840092
182	0x3fa74943	1.3069233
183	0x3f32b327	0.69804615
184	0x402844c4	2.6291971
185	0x3ca704c7	0.02038802
186	0x3d16ffaa	0.036864914
187	0x3f4b2df7	0.7936701
188	0xbf232c51	-0.63739496
189	0x3e822bab	0.2542394
190	0xbee64b32	-0.44979244
191	0xbedcd06c	-0.43127763
192	0x3cc86c10	0.02446559
193	0x3e97c2a7	0.29640695
194	0x3f39ac30	0.7252836
195	0x3ff43e7d	1.908157
196	0xbe65d2a5	-0.22443636
197	0xbf390f82	-0.7228929
198	0x3f6a0733	0.91417235
199	0xbdd0af47	-0.101896815
200	0x3ea5d50e	0.3238911
201	0xbfb7118f	-1.4302233
202	0xbf953e89	-1.1659709
203	0xbf2904eb	-0.6602313
204	0x3f4b6052	0.7944385
205	0xbe42611a	-0.18982354
206	0xbfc4dbed	-1.5379616
207	0x3ea884fc	0.3291396
208	0x3fd624f0	1.6730022
209	0x3f32c498	0.6983123
210	0x3f831a93	1.0242485
211	0x3dec8a43	0.11549809
212	0xbe866142	-0.26246077
213	0x401c1602	2.4388433
214	0xbf8addc0	-1.0848923
215	0x3e8af14c	0.2713722
216	0x3f2a6a10	0.6656809
217	0xbf116cac	-0.56806445
218	0x3fcecc6b	1.6156133
219	0x3eacad70	0.33726072
220	0xbfd97cc0	-1.6991196
221	0x3eaa3e28	0.33250546
222	0x3faa0ee7	1.3285798
223	0xbea1da90	-0.31612062
224	0x3fe70b96	1.8050411
225	0x3baafa49	0.0052178246
226	0xbe875bf6	-0.26437348
227	0x3d214db5	0.039380748
228	0x3e701a44	0.2344752
229	0xc0274ac3	-2.613938
230	0x3eda5508	0.42643
231	0xbe74a38c	-0.23890513
232	0x4014b517	2.3235528
233	0x3e0f9ebd	0.14025398
234	0xbee21c2d	-0.4416212
235	0xbf8cfa14	-1.1013818
236	0xbccad9d9	-0.024762081
237	0x3f7bc8e0	0.98353386
238	0xbfafbe20	-1.3729897
239	0x3dbecc67	0.093163304
240	0x40189b4f	2.3844793
241	0xc033ed3f	-2.8113554
242	0xbda6007b	-0.081055604
243	0x3e28c1e3	0.16480212
244	0x3f902da0	1.1263924
245	0xc013f3d6	-2.3117576
246	0xbdabc196	-0.08386533
247	0x3f5ab4d4	0.8543217
248	0x3fe48e89	1.7855998
249	0x4006a176	2.1036048
250	0x3f374742	0.71593106
251	0x3e23cf2f	0.15997003
252	0x402d03e9	2.7033637
253	0x3f563126	0.83668745
254	0xbdd44551	-0.103647836
255	0x3df7cbf3	0.12099447

weight_ih_l0 f4 [60, 20]
0	0xbc5604da	-0.01306268
1	0x3f131bbe	0.57464206
2	0xbfb5a510	-1.4190998
3	0x3edd9bd8	0.43282962
4	0xbe3c4e3d	-0.1838922
5	0xbd8817d3	-0.06645169
6	0x3ef0f37a	0.47060758
7	0x3f6e3ebe	0.93064487
8	0xbe36242a	-0.17787233
9	0xbe417197	-0.18890987
10	0xbe9a86e3	-0.30181035
11	0xbdf726ba	-0.120679334
12	0xbf026471	-0.5093451
13	0xbed0a76b	-0.4075273
14	0xbe8f426b	-0.2798036
15	0x3e878b5e	0.26473516
16	0xbef47119	-0.47742537
17	0xbfae146a	-1.359998
18	0xbef3b8b0	-0.47601843
19	0x3f96fc95	1.1795832
20	0xbf9ceb64	-1.2259336
21	0x3e8eba6c	0.27876604
22	0xbf7a1466	-0.97687376
23	0xbf611482	-0.8792192
24	0x3f0d163b	0.55112046
25	0xbf196dbb	-0.5993306
26	0xbf149580	-0.5804062
27	0xbcee9426	-0.029123377
28	0x3f634e35	0.8879121
29	0xbf2441e2	-0.6416303
30	0xbe36311d	-0.17792173
31	0xbfa5bac2	-1.2947619
32	0xbf6709fd	-0.90249616
33	0x3e7310f1	0.23736931
34	0x3eb34db3	0.35020217
35	0xbf0a847b	-0.541084
36	0xbe8692c9	-0.26283863
37	0x3f3f999a	0.7484375
38	0xbebf07c1	-0.37310603
39	0x3f578211	0.8418284
40	0x3e89cd90	0.26914644
41	0x3f582235	0.84427196
42	0xbe5590e3	-0.20856051
43	0xbf66e819	-0.901979
44	0xbf0ad677	-0.542335
45	0xbf143ece	-0.5790833
46	0x3f1c6d80	0.61104584
47	0xbd8ccd26	-0.068750665
48	0xbf763134	-0.9616883
49	0xbf7ce75b	-0.9879052
50	0x3e9bc0c5	0.3042051
51	0xbf9e1fa2	-1.2353404
52	0x3cc7de6a	0.024398047
53	0x4001d54a	2.0286431
54	0x3d8a9d95	0.06768338
55	0xbf572b3c	-0.84050345
56	0x3edb358b	0.42814288
57	0x3ea2174c	0.316584
58	0x3f425fc1	0.7592736
59	0xbf87cbe7	-1.0609101
60	0xbf7fe515	-0.99958926
61	0x3f817e17	1.0116605
62	0xbf19cd18	-0.60078573
63	0xbeb76b47	-0.35824034
64	0xbd986910	-0.07441914
65	0x3f97724f	1.1831759
66	0x3d679cc3	0.056545984
67	0x3ffa2735	1.9543215
68	0x3e445b62	0.19175485
69	0x3c989ea4	0.018630333
70	0x3f4173d9	0.75567394
71	0x3e8e4fb2	0.27795178
72	0xbe85bbbc	-0.26119792
73	0x3dded504	0.10880473
74	0xbfb5aa1d	-1.419254
75	0xbf0d9c3d	-0.55316526
76	0xbeaf4b9a	-0.34237367
77	0xbe73a84f	-0.23794673
78	0x3fb60c01	1.4222413
79	0xbe66afa1	-0.22527935
80	0xbf72dd4c	-0.9486892
81	0x3dd3bc57	0.10338657
82	0xbf069b44	-0.52580667
83	0x3f84d7a0	1.0378304
84	0xbf92761b	-1.1442293
85	0x3f5a02f4	0.85160756
86	0x3fc26c4f	1.5189303
87	0xbf33586e	-0.7005681
88	0x3ef1168a	0.47087508
89	0xbef4f934	-0.47846377
90	0x3fa73fbe	1.3066328
91	0x3e97b608	0.29631066
92	0x3e8cbafc	0.27486408
93	0xbf75e6dc	-0.9605539
94	0xbf6e62e0	-0.9311962
95	0x3f2c231b	0.67241067
96	0x3eb364e6	0.35037917
97	0xbf467bc1	-0.77532583
98	0x3e749889	0.23886313
99	0xbe5a9d45	-0.21349056
100	0xbf81fac5	-1.0154654
101	0x3f402507	0.750565
102	0xbee97312	-0.45595604
103	0x3f364711	0.7120219
104	0x3dbc1db5	0.09185354
105	0x3e093f39	0.13403024
106	0xbf260a01	-0.64859015
107	0x3fafcd59	1.3734542
108	0x3ddcd2bc	0.10782382
109	0xbeef44b6	-0.4673211
110	0xbd2649c0	-0.040597677
111	0xbf45a57c	-0.77205634
112	0x3fa78e45	1.3090292
113	0xbe92f968	-0.28705907
114	0x3f1090fa	0.56471217
115	0xbfb50e38	-1.4144964
116	0xbe97ba05	-0.2963411
117	0xbf2d8ff0	-0.67797756
118	0x3e3d94a0	0.18513727
119	0xbee11dd4	-0.4396807
120	0xbf2a5948	-0.6654248
121	0x3fce45ca	1.6115048
122	0xbe2eb887	-0.17062579
123	0xbfc9e956	-1.5774333
124	0x3f28d35c	0.6594751
125	0x3edbfd99	0.42966917
126	0x3edf996b	0.43671736
127	0xbe9d1e3a	-0.30687124
128	0x3ead1bcb	0.33810267
129	0x3e98178c	0.29705465
130	0xbe03553f	-0.12825488
131	0x3e39998c	0.1812498
132	0x3eb4d0cd	0.35315552
133	0xbf0349f2	-0.51284707
134	0x3ef6f5f4	0.48234522
135	0xbf926e99	-1.1440002
136	0x3f8a92b3	1.0826019
137	0xbd918230	-0.071049094
138	0xbe0afa1f	-0.13571976
139	0x3f50e4bf	0.8159904
140	0xbe99e2fd	-0.3005599
141	0x3e120957	0.14261375
142	0xbf48fa47	-0.7850689
143	0x3f4a4ac2	0.7902032
144	0xbf1a4bf4	-0.60272145
145	0xbe9ef695	-0.31047502
146	0xbe2f8a72	-0.17142656
147	0x3ecf5ff0	0.40502882
148	0xbbe7fbdc	-0.0070795845
149	0xbf09a0dd	-0.5376108
150	0xbf48834e	-0.78325355
151	0xbf438ff9	-0.7639156
152	0xbfc721bb	-1.5557169
153	0xbf6328d1	-0.88734156
154	0xbec4864c	-0.3838371
155	0xbf34bc67	-0.7059998
156	0xbe44df61	-0.19225837
157	0x3d947d38	0.07250446
158	0x3f8a0e13	1.0785545
159	0x3e9eceda	0.3101719
160	0xbffa2156	-1.9541423
161	0x3e0c5a38	0.1370629
162	0xbf3ab078	-0.7292552
163	0xbec44bd0	-0.3833909
164	0x3e6904da	0.22755757
165	0xbfc6f161	-1.5542413
166	0xbec65bfd	-0.38742056
167	0x3f6b5ae7	0.9193558
168	0x3e8a3264	0.2699157
169	0xbecf6ea0	-0.40514088
170	0xbe8b5849	-0.27215794
171	0xbb99fe4c	-0.004699504
172	0xbf943787	-1.1579446
173	0x3e9a8af4	0.30184138
174	0xbdbaf4b9	-0.091287084
175	0x3f0a425d	0.5400751
176	0xbee256c9	-0.44206837
177	0x3e365fdf	0.1781001
178	0xbde77ff9	-0.11303706
179	0xbe9618d5	-0.2931582
180	0xbef02376	-0.46902055
181	0xbf52f725	-0.8240836
182	0x3e9cabcc	0.3059982
183	0x3f75b966	0.9598602
184	0x3f7adb75	0.97991115
185	0xbeef021b	-0.46681294
186	0x3f907e3e	1.1288526
187	0x3f9ec993	1.2405266
188	0x3f2d4e3c	0.676975
189	0x3e9f4df4	0.3111416
190	0x3f66acef	0.90107626
191	0xbfc74280	-1.5567169
192	0xbe6857b4	-0.22689706
193	0xbf45e214	-0.7729809
194	0xbd7995e6	-0.06093397
195	0xbeab0653	-0.33403262
196	0xbfac72bf	-1.3472518
197	0x3ec9ae03	0.39390573
198	0x3db1a621	0.08674265
199	0x3ea0ab2f	0.31380603
200	0xbeb545ae	-0.35404724
201	0xbe8eecdf	-0.27915093
202	0xbf0bfee3	-0.546858
203	0x3ebcec72	0.36899143
204	0x3fa1bd0d	1.2635819
205	0xbf1fa324	-0.6235831
206	0x3e198558	0.14992273
207	0xbec2f3cc	-0.38076627
208	0xbf9fd88f	-1.2487963
209	0x3f062df9	0.524139
210	0xbe640324	-0.22266823
211	0x3f0efe0b	0.5585639
212	0xbe424b44	-0.18974024
213	0x40026723	2.037545
214	0xbfb62e55	-1.423289
215	0xbee9a0c6	-0.45630473
216	0xbee3a8f0	-0.44464827
217	0x3f4dd1fd	0.8039854
218	0xbeda228d	-0.42604485
219	0x3d78f4c8	0.060780317
220	0x3d4a7e61	0.04943693
221	0xbdd88aac	-0.105733246
222	0x3f24e76d	0.6441563
223	0xbe80f81d	-0.25189295
224	0x3f0f38a1	0.55945784
225	0xbd668100	-0.056275368
226	0x3ef6f739	0.4823549
227	0x3fc76209	1.5576793
228	0x3eccbea4	0.39989197
229	0x3ea1e9bb	0.31623635
230	0xbfb7c1f5	-1.4356066
231	0x3f2a39ab	0.66494244
232	0x3eadfbc7	0.33981153
233	0xbe1d140d	-0.1533968
234	0x3edc61c8	0.4304335
235	0xbeb0f5f1	-0.34562638
236	0x3e8dd688	0.27702737
237	0xbee206a8	-0.44145703
238	0xbecc2907	-0.3987505
239	0xbf89b17d	-1.075729
240	0x3f9f049f	1.2423285
241	0x3f5212ab	0.82059735
242	0xbf94a648	-1.1613245
243	0xbf486abf	-0.7828788
244	0x3f1a9da6	0.603968
245	0xbd3795b4	-0.044820502
246	0x3f65ade2	0.8971845
247	0xbd545b6d	-0.051845003
248	0xbeb75d34	-0.35813296
249	0xbf974792	-1.1818717
250	0xbeb6e4e7	-0.35721514
251	0x3f405ece	0.7514466
252	0x3ed0f413	0.40811214
253	0xbd4b779f	-0.049674626
254	0x3f0194af	0.506175
255	0xbf3cc74b	-0.73741597

weight_hh_l0 f4 [60, 20]
0	0x3ec12a2e	0.37727493
1	0xbf8a5c5c	-1.0809436
2	0x3ef5db08	0.4801867
3	0x3ee4e96c	0.44709337
4	0xbea41fa8	-0.32055402
5	0x3f0f54ee	0.5598897
6	0xbeb3346e	-0.35000938
7	0x3e01ce86	0.12676439
8	0xbfa243e1	-1.2676965
9	0xba989429	-0.0011640835
10	0xbeb74fed	-0.35803166
11	0xbf993b94	-1.1971307
12	0x3ecc5217	0.3990638
13	0xbef51613	-0.47868404
14	0xbdfba40b	-0.12287148
15	0x3f85fb9b	1.0467409
16	0xbea9e473	-0.33182105
17	0x3dc35506	0.09537701
18	0xbf7d20d7	-0.98878235
19	0xbebd2b48	-0.36947083
20	0xbeb018ee	-0.3439402
21	0xbe620e49	-0.22075762
22	0xbe287b14	-0.164532
23	0xbe555327	-0.20832501
24	0xbf85e979	-1.0461875
25	0xbdd48c37	-0.10378306
26	0x3e1dbf3d	0.15404983
27	0x3f986fb5	1.190909
28	0x3ebc333e	0.36757845
29	0x3df13ef7	0.11779588
30	0xbfbf815e	-1.4961355
31	0xbf49402a	-0.7861353
32	0x3dd8d0bc	0.10586688
33	0x3f682471	0.90680605
34	0x3fa5d56b	1.2955755
35	0x3f932b82	1.1497653
36	0x3ec9c507	0.39408132
37	0x3f184862	0.5948545
38	0x3f0a3864	0.53992295
39	0x3e94fd81	0.29099658
40	0x3f3b6cc1	0.7321282
41	0x3eac828c	0.3369335
42	0x3f12579a	0.5716492
43	0x3f09891b	0.5372483
44	0x3f396948	0.7242627
45	0xbd538d32	-0.051648326
46	0xbd6db1da	-0.05803094
47	0xbf88c604	-1.068543
48	0x3e3bfa70	0.18357253
49	0xbf0955fd	-0.5364683
50	0x3f568fe6	0.8381332
51	0x3f4d0a78	0.800941
52	0xbeb0cfd9	-0.34533575
53	0xbfa0ac5a	-1.2552598
54	0x3e1fc37f	0.1560192
55	0xbf748dc4	-0.9552882
56	0xbf343150	-0.70387745
57	0xbf5b3168	-0.8562226
58	0x3e451ec7	0.19250022
59	0xbf04b64a	-0.5184065
60	0x3e956acd	0.29183045
61	0xbdbbb64a	-0.09165628
62	0x3f59374c	0.8485
63	0x3dfaf90b	0.122545324
64	0xbf74e1b6	-0.9565691
65	0x3ef8170d	0.48455086
66	0x3ec11b0f	0.37715957
67	0x3ee6be58	0.45067096
68	0x3d3b7fc3	0.04577614
69	0x3f8c4c6b	1.0960821
70	0xbf0c6121	-0.54835707
71	0xbdb22568	-0.08698541
72	0xbf20ab74	-0.62761617
73	0x3fb92e55	1.4467264
74	0x3dc18a94	0.0945026
75	0x3ea73670	0.3265872
76	0x3f5291ee	0.8225392
77	0xbe138347	-0.14405547
78	0x3d822a21	0.06355692
79	0xbe4fdb36	-0.20298466
80	0x3f21a7f6	0.63146913
81	0x3eea864f	0.45805594
82	0xbcd38807	-0.025821699
83	0x3f0aaaa6	0.5416664
84	0x3f4c8efc	0.79905677
85	0xbf0393e8	-0.5139756
86	0xbf205c16	-0.6264051
87	0xbe9ebdae	-0.3100409
88	0xbf0bd733	-0.5462524
89	0x3d546763	0.05185641
90	0x3e563ccb	0.20921628
91	0x3f3cba50	0.7372179
92	0x3f8aa72d	1.0832268
93	0x3e8cec9b	0.27524266
94	0xbeaeb78a	-0.34124404
95	0xbf19282a	-0.5982691
96	0xbef9ff18	-0.48827434
97	0x3f411ac5	0.7543147
98	0xbfa86b8d	-1.3157822
99	0x3f5bc17e	0.8584212
100	0xbec0208e	-0.37524837
101	0x3f8b6eeb	1.0893224
102	0x3ee7d33c	0.45278347
103	0x3f087468	0.5330262
104	0xbf7a8a23	-0.9786703
105	0x3b896b54	0.0041937027
106	0x3f7976ff	0.974472
107	0x3ec7a447	0.3899252
108	0xbeb5023c	-0.35353267
109	0x3eca5bb9	0.39523104
110	0x3ef84fd4	0.48498404
111	0x3e966507	0.29373953
112	0xbf105145	-0.5637401
113	0x3f3ced31	0.73799425
114	0x3f8ecbad	1.1155907
115	0x3e92c447	0.28665373
116	0x3e90fff0	0.28320265
117	0x3f9618d6	1.1726329
118	0x3fc7e47d	1.5616604
119	0x3e81455d	0.25248232
120	0xbeadc7fe	-0.33941644
121	0xbf047853	-0.517461
122	0x3e41282a	0.18862978
123	0xbf0b78a7	-0.54480976
124	0x3f411b19	0.7543197
125	0x3d69969b	0.057028394
126	0xbd7c3ded	-0.061582495
127	0x3f66208e	0.89893425
128	0xbd8f45a2	-0.06995703
129	0xbe082aa9	-0.13297524
130	0x3f8d2fa2	1.1030161
131	0x3fe993ec	1.8248267
132	0xbdf4559a	-0.1193039
133	0xbe9caa85	-0.30598846
134	0xbe855435	-0.26040807
135	0xbeb2a054	-0.34887946
136	0xbec911f9	-0.39271525
137	0x3eb34cb9	0.35019472
138	0xbf34bee6	-0.7060379
139	0x3e3c1003	0.18365483
140	0xbf136b01	-0.5758515
141	0xbcf0e044	-0.029403813
142	0xbe9bab11	-0.3040395
143	0x3f52ae9d	0.8229769
144	0xbdbc2ac3	-0.09187844
145	0x3dfe511a	0.12417813
146	0xbd37d795	-0.04488333
147	0x3f2e2afd	0.68034345
148	0xbf8b1e99	-1.0868713
149	0xbda1dce9	-0.079034634
150	0x3e1f8cbc	0.1558103
151	0x3fede794	1.8586297
152	0x3f1fcd78	0.62422895
153	0xbf7e2ff4	-0.9929192
154	0x3d2795c2	0.040914305
155	0x3dfb37ba	0.122664884
156	0xbf72b55c	-0.9480798
157	0xbef085ef	-0.46977183
158	0xbf5ce8da	-0.86292803
159	0x3f7f67ec	0.9976795
160	0xbd6f129d	-0.05836736
161	0xbc9c0066	-0.019043159
162	0x3fd0cf16	1.6313198
163	0x3ea8a32e	0.32936996
164	0xbd11c287	-0.035585906
165	0xbe9acdda	-0.30235177
166	0xbe5ef69d	-0.21773763
167	0x3f36777c	0.7127607
168	0x3e836725	0.2566463
169	0xbf6fbee7	-0.9365067
170	0xbf9e748f	-1.2379321
171	0x3e369b16	0.17832598
172	0x3e703759	0.23458613
173	0x3ec8c24b	0.39210734
174	0xbf39ae36	-0.7253145
175	0x3f139c45	0.57660323
176	0xbccc0451	-0.024904402
177	0xbdb597e6	-0.08866863
178	0x3e8ff677	0.28117725
179	0x3fc0dfe2	1.5068324
180	0xbf14c4b8	-0.5811267
181	0xbe63fdfa	-0.22264853
182	0x3f132679	0.5748058
183	0xbe1ca9fb	-0.15299217
184	0xbe12d7e6	-0.14340171
185	0x3f4cc1ae	0.7998303
186	0x3ee49c09	0.44650295
187	0xbd6b21fb	-0.057405453
188	0xbed0c706	-0.40776843
189	0x3d06a268	0.032869726
190	0xbf866c59	-1.0501815
191	0xbfabbcf4	-1.3417039
192	0xbe91af12	-0.2845388
193	0x3e9dd741	0.30828288
194	0x3f7b4286	0.9814838
195	0x3f0086cf	0.502057
196	0x3e324234	0.17408067
197	0xbf02226c	-0.50833774
198	0x3eaf0d77	0.3418996
199	0x3f03b0e3	0.5144178
200	0xbe823cdc	-0.25437057
201	0xbe6c5ac1	-0.23081495
202	0xbec11062	-0.37707812
203	0x3f1404e3	0.57819957
204	0xbeceaeea	-0.40367824
205	0x3f2b2b5a	0.66863024
206	0xbdc54762	-0.09632756
207	0x3f272c95	0.653024
208	0x3ec0c16a	0.37647563
209	0xbe6dfa22	-0.2323995
210	0xbf25de2e	-0.64792144
211	0xbef38205	-0.47560135
212	0xbe92a377	-0.2864034
213	0xbec78f09	-0.38976315
214	0xbeaccfb7	-0.33752224
215	0xbc82c780	-0.01596427
216	0x3e6a0073	0.22851734
217	0xbeb58130	-0.35450125
218	0xbd1a010d	-0.03759866
219	0xbe28f36b	-0.16499107
220	0x3e185dd4	0.14879543
221	0x3e9f48d2	0.31110245
222	0x3f1cbbf4	0.61224294
223	0x3e5f183a	0.21786585
224	0x3f5f8204	0.87307763
225	0x3f881ea8	1.0634356
226	0xbf08192f	-0.5316343
227	0x3e1c5b14	0.15269119
228	0xbec11595	-0.37711778
229	0x3ce2bf5d	0.02767914
230	0x3f85b850	1.0446873
231	0x3fc04d9e	1.5023687
232	0x3f7cc25a	0.98734057
233	0x3ea06b05	0.3133165
234	0xbf855f95	-1.0419794
235	0xbed2bcc4	-0.41159642
236	0xbf4f9f1c	-0.81102157
237	0xbee73d87	-0.4516413
238	0xbfbc9f41	-1.47361
239	0xbebbf9a3	-0.36713895
240	0xbe156fa8	-0.14593375
241	0x3e8b8c40	0.2725544
242	0x3f59b936	0.85048234
243	0x3e989d4b	0.29807505
244	0xbe603178	-0.21893871
245	0x3f1efccd	0.62104493
246	0xbdbf9266	-0.09354095
247	0x3f4c31ee	0.79763687
248	0xbfc820bd	-1.5634991
249	0x3eee9c93	0.46603832
250	0xbef445c8	-0.4770949
251	0xbe6de3a4	-0.2323137
252	0x3f4c3da8	0.7978158
253	0xbe484c27	-0.195603
254	0x3e8bdace	0.27315372
255	0xbe9a5a65	-0.3014709

bias_ih_l0 f4 [60]
0	0xbe4a45d9	-0.19753207
1	0x3e876595	0.26444688
2	0xbc9cb238	-0.01912795
3	0xbefa8e37	-0.48936626
4	0xbecb4a11	-0.39704946
5	0x3e871764	0.26385033
6	0x3efe0f4d	0.4962105
7	0x3e1dee32	0.15422896
8	0xbe0988b2	-0.13431051
9	0x3dee56b1	0.11637629
10	0x3e230b15	0.15922196
11	0x3e61f40d	0.22065754
12	0x3dd7f20d	0.105442144
13	0x3f056aa9	0.52115875
14	0xbf10c8b9	-0.5655628
15	0xbf01e917	-0.5074629
16	0x3ee90e09	0.4551852
17	0xbe46a754	-0.19399768
18	0x3d04fc9b	0.032467466
19	0x3f060688	0.52353716
20	0x3e8b5351	0.27212003
21	0xbed1cdcc	-0.40977323
22	0x3c7d651e	0.015466003
23	0x3dd24d48	0.102686465
24	0xbf55592b	-0.83339185
25	0xbe2dbd81	-0.16966821
26	0x3d76db0b	0.06026749
27	0x3f1bc6a9	0.60850006
28	0xbf6dc7aa	-0.9288279
29	0xbf3ffad6	-0.7499212
30	0xbfa8163a	-1.3131783
31	0x3ecc10b3	0.3985649
32	0xbf011b35	-0.5043214
33	0x3ea819b3	0.32832107
34	0xbf3828c8	-0.7193723
35	0xbcbf2ee4	-0.023337789
36	0xbf483961	-0.78212553
37	0xbd99878d	-0.074965574
38	0x3eb82370	0.35964537
39	0xbf09a4a5	-0.5376685
40	0xbe2d2b92	-0.16911152
41	0xbea7a29f	-0.32741258
42	0x3edb919e	0.42884535
43	0x3e832ed3	0.25621662
44	0x3e1c1197	0.15241085
45	0x3c0288d3	0.007967192
46	0x3ecae2a2	0.39626032
47	0x3e89c624	0.26908982
48	0x3ed1aa21	0.4095011
49	0xbe968f06	-0.29405993
50	0xbee09ee2	-0.43871218
51	0x3e7d4472	0.24733141
52	0xbed9a3f7	-0.42507908
53	0xbd73c869	-0.059517298
54	0xbcdf602d	-0.02726754
55	0x3ed25371	0.41079286
56	0xbec5cfb8	-0.3863504
57	0xbea234f7	-0.31681034
58	0x3b77605e	0.0037746648
59	0x3ecf4608	0.40483117

bias_hh_l0 f4 [60]
0	0x3ceb9d5f	0.028761564
1	0x3e13e5ef	0.14443181
2	0x3e225233	0.15851669
3	0xbf0b5452	-0.5442554
4	0xbf3735dc	-0.7156656
5	0x3e9f1dad	0.31077328
6	0x3e88db78	0.2672994
7	0x39af4490	0.00033429684
8	0xbe917898	-0.28412318
9	0xbd828021	-0.06372095
10	0xbe432252	-0.19056061
11	0x3e4f6cdf	0.20256375
12	0x3e2a3bd6	0.16624388
13	0x3efc6494	0.49295485
14	0xbed654c7	-0.41861555
15	0xbf5fd3e2	-0.8743268
16	0x3f167efb	0.58787507
17	0xbdf559fb	-0.11980053
18	0x3dcd80d7	0.1003434
19	0x3f4ea7ea	0.80724967
20	0x3f1e9717	0.61949295
21	0xbd9137b1	-0.070907004
22	0xbc024d60	-0.007953018
23	0xbde4086f	-0.11134421
24	0xbf42ac91	-0.76044565
25	0xbdaee33d	-0.08539436
26	0xbde6dd07	-0.11272626
27	0x3f05b83d	0.5223425
28	0xbf9d2751	-1.2277623
29	0xbf3d7caa	-0.7401835
30	0xbfb6adb9	-1.4271766
31	0x3ec2871e	0.3799371
32	0xbf3e3648	-0.74301577
33	0x3dce1506	0.10062604
34	0xbed17cd8	-0.4091556
35	0xbeae85bc	-0.34086406
36	0xbf57acd4	-0.8424809
37	0x3dde84bd	0.108651616
38	0x3ed4312b	0.41443762
39	0xbf0dd17d	-0.5539778
40	0xbeffe805	-0.49981704
41	0xbe8bb867	-0.27289125
42	0x3ea89199	0.32923582
43	0x3f014bfd	0.50506574
44	0x3f333d48	0.7001538
45	0x3ef178ed	0.47162572
46	0x3ede11e5	0.43373027
47	0x3eeab78d	0.45843163
48	0x3ec581ba	0.38575536
49	0xbecb328e	-0.39687008
50	0xbdb4c856	-0.088272735
51	0x3ef79af2	0.483604
52	0xbeab49ad	-0.33454648
53	0xbf1c0a67	-0.6095337
54	0x3eb2eb5b	0.34945187
55	0xbe77870e	-0.24172613
56	0xbf16d259	-0.58914715
57	0xbf165eef	-0.5873861
58	0xbe04597b	-0.12924759
59	0x3f0d7d8b	0.5526969

weight_ih_l1 f4 [60, 20]
0	0x3d61e21e	0.055147283
1	0xbebc0f19	-0.3673027
2	0x3e48967c	0.19588655
3	0x3fff9bb2	1.996939
4	0x3f549bec	0.8305042
5	0xbf344983	-0.7042467
6	0xbd6ddb14	-0.058070257
7	0xbf2d485b	-0.6768853
8	0x3d0fd780	0.035117626
9	0xbf904ba2	-1.1273081
10	0x3f6b6b47	0.9196057
11	0xbe518a3b	-0.20462887
12	0xbe59d53a	-0.21272746
13	0xbf225b73	-0.6342079
14	0x3f443b9c	0.76653457
15	0xbeda9842	-0.42694288
16	0xbef0df28	-0.47045255
17	0x3e18628a	0.1488134
18	0x3f1dffdc	0.61718535
19	0xbf164cf1	-0.58711153
20	0xbe024332	-0.12720945
21	0xbdcfea59	-0.1015212
22	0xbdf79fb2	-0.12091006
23	0xbe21aa9b	-0.15787737
24	0x3f4a656e	0.7906102
25	0xbf85c476	-1.045058
26	0xbe29dfcd	-0.1658928
27	0xbf043c21	-0.5165425
28	0x3f108fbe	0.56469333
29	0x3e535a92	0.20640019
30	0xbf49d2df	-0.7883739
31	0xbfdf8fba	-1.7465737
32	0xbf0daecc	-0.55344844
33	0x3e595337	0.2122315
34	0xbf070a84	-0.5275042
35	0x3f3fde78	0.74948835
36	0x3e1b9b66	0.15195999
37	0xbf544c14	-0.82928586
38	0x3fa8c5ab	1.3185323
39	0xbd278319	-0.04089651
40	0x3e0d8bfa	0.13822928
41	0x3f4f9c5a	0.8109795
42	0xbe929203	-0.28627023
43	0x3fd126b8	1.6339941
44	0x3ebd3f89	0.36962536
45	0xbdd20d3c	-0.102564305
46	0xbe9567dd	-0.29180804
47	0x3d4f2fc6	0.05058267
48	0x3e93aacc	0.28841245
49	0xbf2f1651	-0.6839343
50	0x3f395b9d	0.72405416
51	0x3f3f9705	0.7483981
52	0x3f3ae82a	0.73010504
53	0xbe50d1bf	-0.20392512
54	0x3e8188b4	0.2529961
55	0x3fc6ca16	1.5530422
56	0xbf49ccc7	-0.7882809
57	0xbe0fb839	-0.14035119
58	0xbf3ddde2	-0.7416669
59	0x3eba69da	0.36408883
60	0xbe2aeac6	-0.16691121
61	0xbeac808a	-0.33691818
62	0x3ecc09f6	0.3985135
63	0xbe94de72	-0.29075962
64	0x3fa0166a	1.250684
65	0xbed8f21a	-0.4237221
66	0x3f5e84b0	0.86921215
67	0x3ec7a1a7	0.38990518
68	0xbe2140bb	-0.15747349
69	0xbfa58c98	-1.2933531
70	0xbf725716	-0.9466413
71	0x3e8dc65c	0.276904
72	0xbf3871a0	-0.7204838
73	0xbeac55c8	-0.33659196
74	0xbf0250c6	-0.509045
75	0xbf73b24e	-0.95193946
76	0xbfc4a8ca	-1.536401
77	0xbf72d875	-0.9486154
78	0x3e05e0e2	0.13074067
79	0xbe40332a	-0.18769518
80	0xbf33b15a	-0.7019249
81	0x3f00476b	0.50108975
82	0xbf7324bd	-0.94977933
83	0xbfc9b0ec	-1.5757117
84	0x3e63fd71	0.22264649
85	0xbef509e2	-0.47859102
86	0xbd8f8993	-0.07008662
87	0x3f904638	1.1271429
88	0x3e0b263f	0.13588808
89	0xbf412890	-0.7545252
90	0xbc657c89	-0.014006742
91	0x3e4e45cc	0.20143813
92	0x3e8c6bf8	0.27426124
93	0x3fc483cd	1.5352722
94	0x3f5eec07	0.870789
95	0x3e830434	0.25589144
96	0xbf448263	-0.76761454
97	0x3dcbe381	0.09955502
98	0x3d32d1a5	0.043656964
99	0x3f52ac2f	0.8229398
100	0xbdb49285	-0.08817009
101	0xbf38fd56	-0.7226156
102	0xbe119ee8	-0.14220774
103	0x3f0c699f	0.54848665
104	0x3f1ba498	0.60798025
105	0xbf8c484d	-1.0959564
106	0xbe3df28b	-0.18549554
107	0xbefc3d2f	-0.4926543
108	0xbed8e84b	-0.42364725
109	0xbf103b62	-0.5634061
110	0x3f4f7bff	0.8104858
111	0xbec1e034	-0.37866366
112	0xbe26ddd7	-0.16295563
113	0x3f0a4bf9	0.54022175
114	0xbf9e1d5d	-1.2352711
115	0x3d7e5ae3	0.062098395
116	0xbf5f30b7	-0.8718371
117	0xbffcdd4e	-1.9755037
118	0xbfa87525	-1.316075
119	0x3ef8d2b6	0.4859826
120	0xbf3d09bb	-0.7384297
121	0x3f0310fb	0.51197785
122	0xbf0bc783	-0.54601306
123	0x3f08a715	0.53379947
124	0xbf26ff4c	-0.652333
125	0x3dd823d8	0.10553712
126	0x3dbcfddd	0.09228108
127	0x3def615a	0.1168849
128	0x3ed6e891	0.4197431
129	0x3f00cc70	0.50311947
130	0xbf6db277	-0.9285044
131	0x3f18ce31	0.59689623
132	0xbeeb8703	-0.46001443
133	0x3e78a591	0.24281909
134	0x3e982452	0.2971521
135	0x3f9a05ea	1.2033055
136	0xbe9a72fe	-0.30165857
137	0x3edb3038	0.42810225
138	0x3f247a08	0.64248705
139	0xbfa0c8ce	-1.2561281
140	0x3ec1291f	0.37726685
141	0x3f1ffd34	0.6249573
142	0x3e2eced2	0.17071083
143	0xbe18babc	-0.14914984
144	0x3ef5f89f	0.48041245
145	0xbf1c4c70	-0.61054134
146	0xbf057380	-0.52129364
147	0xbf4d1455	-0.8010915
148	0x3f8eba41	1.115059
149	0x3fac0568	1.343915
150	0x4005a4c8	2.0881824
151	0x3f57ebc6	0.84344137
152	0xbcbf1788	-0.02332665
153	0x3dd0db59	0.10198087
154	0x3e9a80e2	0.30176455
155	0xbf5e074f	-0.867299
156	0x3f6074f5	0.8767846
157	0x3f79b4b3	0.9754135
158	0x3e502764	0.20327526
159	0xbef77738	-0.48333144
160	0x3ede929e	0.43471235
161	0x3f44e1cc	0.7690704
162	0x3f9b088a	1.2111981
163	0xbeaf9a9f	-0.34297654
164	0x3eac7ca2	0.33688837
165	0x3f11c7c5	0.5694545
166	0xbf3c29ad	-0.7350109
167	0xbdf83123	-0.12118747
168	0x40053322	2.081246
169	0x3f65715b	0.8962609
170	0xbce2d8c4	-0.027691253
171	0x3f96cd77	1.1781453
172	0x3e8d8e11	0.2764745
173	0x3e9f6a94	0.31136
174	0x3df26c55	0.11837069
175	0x3e7db28e	0.24775144
176	0x3e347bae	0.17625305
177	0xbd8fc7fa	-0.070205644
178	0x3f50fe26	0.816378
179	0xbe7460d9	-0.2386507
180	0xbf5d7588	-0.86507463
181	0xbe947037	-0.28991863
182	0x3e7c39a2	0.2463136
183	0xbec6aa5a	-0.38801843
184	0xc00b1a28	-2.1734715
185	0xbda00964	-0.07814291
186	0x3f90dfa7	1.1318253
187	0x3ef322fb	0.47487625
188	0x3f0b85ff	0.54501337
189	0xbe2f401d	-0.17114301
190	0xbfa75702	-1.3073428
191	0xbe8554ec	-0.26041353
192	0x3e546db6	0.20744976
193	0x3f0d1338	0.5510745
194	0x3f8cb1f2	1.0991805
195	0x3fbd7229	1.4800464
196	0x3d99db5d	0.07512543
197	0xbfd2b0f0	-1.6460247
198	0x3cee58ae	0.02909502
199	0xbd90cbc5	-0.07070116
200	0x3f6c7e0e	0.92379844
201	0x3f8840f1	1.0644819
202	0xbe5512b5	-0.20807917
203	0x3f6d2e2f	0.92648596
204	0x3f3e1c74	0.74262166
205	0x3ef3593e	0.47529024
206	0x3e68eaf3	0.22745876
207	0xbe5a92f9	-0.21345128
208	0xbf14091b	-0.57826394
209	0xbf5db58e	-0.86605155
210	0xbf3565a4	-0.70858216
211	0x3f53fbf9	0.82806355
212	0x3e96d4c5	0.29459205
213	0xbf861d31	-1.0477659
214	0xbf2562ae	-0.646037
215	0x3e938f33	0.2882019
216	0xbe9796a1	-0.29607108
217	0xbec21772	-0.37908512
218	0xbf94143f	-1.1568679
219	0xbd27f941	-0.04100919
220	0xbe0742c2	-0.1320906
221	0xbf69364e	-0.9109849
222	0x3d73163a	0.05934737
223	0x3ee0a0fe	0.43872827
224	0x3f4a0691	0.7891627
225	0xbed5346d	-0.4164156
226	0x3e3e9b6f	0.1861398
227	0x3fa2a12b	1.2705435
228	0x3ea7c42d	0.32766858
229	0x3e00e1b5	0.125861
230	0xbd9803fe	-0.074226364
231	0x3f85515c	1.0415454
232	0x3ca4e6c6	0.020129573
233	0x3f4fce2b	0.8117396
234	0xbea19edc	-0.31566513
235	0xbf085184	-0.5324938
236	0xbf480f27	-0.7814812
237	0xbf5ab7af	-0.8543653
238	0x3e908831	0.28228906
239	0x3e9f0c85	0.3106424
240	0x3fdf2976	1.7434528
241	0x3dae5d36	0.08513872
242	0x3fa79578	1.3092489
243	0xbe8c6ed2	-0.274283
244	0xbeb0a69c	-0.34502113
245	0x3f97f9f2	1.1873152
246	0xbf04ffbe	-0.5195273
247	0x3f6bd398	0.9211974
248	0x3da0c18c	0.07849416
249	0xbfe2cfa5	-1.7719618
250	0x3e94c8f5	0.29059568
251	0x3f4494d7	0.7678961
252	0xbea26086	-0.31714267
253	0x3ed28301	0.41115573
254	0xbe05bc91	-0.13060214
255	0xbeb2d172	-0.3492542

weight_hh_l1 f4 [60, 20]
0	0x3f6fd5b1	0.9368544
1	0xbe7e52c8	-0.24836266
2	0xbf061d64	-0.52388597
3	0xbf2da44f	-0.6782884
4	0x3fa2d43b	1.2721018
5	0xbe6d4ffe	-0.23175046
6	0xbf8ea556	-1.1144207
7	0x3e7d9b67	0.24766313
8	0x3e2c923b	0.16852657
9	0xbc8df39a	-0.017328072
10	0x3f7f960c	0.9983833
11	0x3fc81010	1.5629902
12	0xbf6f8744	-0.93565774
13	0xbe74e3ac	-0.23914975
14	0xbea3aa7c	-0.31966007
15	0xbea9c302	-0.33156592
16	0xbe09737c	-0.1342296
17	0x3f8bf071	1.0932752
18	0x3d576987	0.052590873
19	0x3f292ce4	0.6608412
20	0xbe98c47d	-0.2983741
21	0xbf4a73d9	-0.7908302
22	0x3eda58e1	0.42645934
23	0x3e94db5d	0.2907361
24	0x3ecbe7b6	0.3982522
25	0x3e04fa7f	0.12986182
26	0x3eca2644	0.3948232
27	0xbd43d31e	-0.04780876
28	0x3edf3756	0.43596905
29	0x3e819d7b	0.2531546
30	0x3e908bee	0.28231758
31	0x3ec951fb	0.3932036
32	0x3db47368	0.088110745
33	0xbe195369	-0.14973225
34	0x3f2907ec	0.6602771
35	0x3df14b45	0.11781935
36	0x3ea3e062	0.32007128
37	0xbd32b95b	-0.0436338
38	0xbba26427	-0.0049557867
39	0x3cc8e987	0.024525417
40	0x3f0bac86	0.54560125
41	0x3f9725ea	1.1808445
42	0xbf974380	-1.1817474
43	0xbf093505	-0.53596526
44	0x3f5904d9	0.8477302
45	0xbf5674b8	-0.8377185
46	0x3f58299f	0.8443851
47	0x3f5b99bc	0.85781455
48	0x3e0384c8	0.12843621
49	0x3e8ab672	0.2709232
50	0x3ea6dc9f	0.32590196
51	0x3f13af47	0.57689327
52	0x3f3db67a	0.7410656
53	0xbe3fb9e0	-0.1872325
54	0xbed3d640	-0.41374397
55	0xbe959521	-0.2921534
56	0x3eb263fb	0.34841904
57	0x3eff950d	0.49918404
58	0x3e475fa6	0.1947008
59	0x3f827333	1.0191406
60	0x3df5699a	0.119830325
61	0x3dc556ca	0.09635694
62	0x3e8e0417	0.27737495
63	0xbf92fd46	-1.1483543
64	0x3f8fe1d3	1.1240791
65	0xbe1f618d	-0.15564556
66	0xbeb0c5fb	-0.34526047
67	0xbec6dcdc	-0.38840377
68	0x3e77f90a	0.24216095
69	0x3e9e799a	0.3095215
70	0xbe0c8348	-0.13721955
71	0x3f06b79d	0.5262392
72	0xbf86e5f8	-1.0538931
73	0x3eca8902	0.39557654
74	0xbe5e1c5c	-0.21690506
75	0x3eb29525	0.34879413
76	0xbe5695c3	-0.20955567
77	0x3eedc7a6	0.46441382
78	0x3e5791f8	0.21051776
79	0x3d400765	0.046882052
80	0x3eab2f84	0.3343469
81	0xbf7fb09e	-0.9987887
82	0xbe246d83	-0.160574
83	0x3ebc14ae	0.36734527
84	0x3ece6edb	0.4031895
85	0xbe54d97b	-0.20786087
86	0x3f391855	0.7230275
87	0x3f3a442e	0.72760284
88	0x3d58cfbd	0.05293249
89	0xbcf92eb5	-0.03041778
90	0x3f468ce6	0.77558744
91	0xbe064641	-0.13112737
92	0x3e386931	0.18008877
93	0x3d8bdd04	0.06829265
94	0x3f494f75	0.78636867
95	0x3e7d7b03	0.24753956
96	0xbf7adcb5	-0.9799302
97	0x3f3e56b0	0.74351025
98	0x3ea41131	0.32044366
99	0xbe4d63c0	-0.20057583
100	0xbf8e73d1	-1.1129094
101	0xbead714b	-0.33875498
102	0x3f2c4199	0.67287594
103	0xbe0f5c03	-0.13999943
104	0xbf4699e2	-0.77578557
105	0xbfffa7b2	-1.9973052
106	0xbf4ab4e2	-0.79182255
107	0xbf226588	-0.63436174
108	0xbf02f8fa	-0.5116116
109	0xbf04cf92	-0.5187923
110	0xbed878e1	-0.42279723
111	0x3eb60879	0.3555334
112	0xbd974cee	-0.0738772
113	0xbe6ef3c4	-0.23335177
114	0x3e7443f7	0.23854052
115	0xbd85d247	-0.06534248
116	0xbea5096d	-0.32233754
117	0x3e625cb9	0.22105683
118	0xbf0f1bd2	-0.55901825
119	0xbf116608	-0.5679631
120	0x3f285f93	0.65770835
121	0xbe0271d2	-0.12738732
122	0xbf3dddf8	-0.7416682
123	0xbe854608	-0.26029992
124	0xbef38641	-0.47563365
125	0x3da611db	0.081088744
126	0xbfb4fc7c	-1.4139552
127	0x3e8a7a22	0.27046305
128	0xbe922948	-0.2854712
129	0x3f348cc9	0.7052732
130	0x3f0812b4	0.5315354
131	0x3d2b77c5	0.041862268
132	0x3ef905e6	0.48637313
133	0x3e87bd1e	0.26511472
134	0x3deb1f21	0.11480547
135	0x3ea8c61d	0.32963648
136	0xbc8b73ac	-0.01702293
137	0x3ee9966a	0.4562257
138	0xbeb42de9	-0.35191277
139	0x3e0654b7	0.13118254
140	0x3e9bf7a1	0.30462363
141	0x3d3e2fae	0.04643219
142	0xbe6b0c74	-0.22953969
143	0xbf2306e7	-0.6368241
144	0x3f1199bb	0.568752
145	0x3f6783a3	0.90435237
146	0xbf9a39e9	-1.2048923
147	0x3f80b7db	1.0056108
148	0x3d6fc6c5	0.05853917
149	0xbf37f848	-0.7186322
150	0x3f295e61	0.66159636
151	0x3f1beaa2	0.60904896
152	0x3f7736ef	0.96568197
153	0xbecd4131	-0.400888
154	0x3f425f6b	0.75926846
155	0x3dc9d369	0.098547764
156	0x3f1b0198	0.60549307
157	0xbea2d644	-0.31804097
158	0x3e1eed6f	0.15520261
159	0x3f3b658e	0.73201835
160	0x3d543c5d	0.05181538
161	0xbe67cd8e	-0.22637007
162	0x3d1dff1b	0.038573366
163	0xbe538706	-0.20656976
164	0x3ec76326	0.38942832
165	0xbed177d0	-0.40911722
166	0xbe97c78c	-0.2964443
167	0x3ec12821	0.37725928
168	0xbfa6edb7	-1.3041295
169	0xbe8c033f	-0.27346227
170	0xbef0ef87	-0.47057745
171	0xbedbdf8a	-0.42943984
172	0x3ce9d86d	0.028545583
173	0x3f10ddf0	0.5658865
174	0xbe4660f9	-0.1937293
175	0x3e2bd429	0.16780151
176	0x3ecea8ab	0.40363058
177	0x3f17bcec	0.59272647
178	0xbd371b87	-0.044703986
179	0x3e430183	0.19043545
180	0x3eddf8a1	0.4335375
181	0xbe78ead1	-0.24308325
182	0xbf3330f3	-0.69996566
183	0xbe782fbf	-0.24236964
184	0xbf03868f	-0.51377195
185	0xbc6cb0e9	-0.014446476
186	0xbdec26f1	-0.11530865
187	0x3e2448db	0.16043417
188	0x3ea244f8	0.31693244
189	0xbfe1dce8	-1.764554
190	0x3efdfe86	0.49608248
191	0xbdf0764a	-0.11741312
192	0x3dd2b409	0.10288245
193	0xbf734ad6	-0.95036066
194	0x3ea4a48b	0.32156786
195	0x3ebcf09f	0.3690233
196	0xbf4fca2f	-0.8116788
197	0x3e44b5bd	0.19209953
198	0x3f067423	0.5252096
199	0x3dcbf3ca	0.099586084
200	0x3efd8d23	0.4952174
201	0x3f1a2c92	0.6022426
202	0xbebc1d0e	-0.36740917
203	0x3f10832f	0.5645017
204	0x3f6f3fb4	0.9345658
205	0xbf71c00d	-0.9443367
206	0x3da879ee	0.08226381
207	0x3f8b95a4	1.0905042
208	0xbe99d6e5	-0.30046764
209	0x3e870f82	0.2637902
210	0x3fbd1c81	1.4774324
211	0x3f6c88d7	0.923963
212	0xbeab1ad8	-0.33418918
213	0x3e6e46ed	0.23269244
214	0xbeb2a437	-0.3489091
215	0xbf2944ee	-0.66120803
216	0xbe70cee7	-0.23516427
217	0x3edd38ff	0.43207547
218	0xbf0501b4	-0.51955724
219	0x3f5ecbd3	0.8702976
220	0x3f0440bc	0.51661277
221	0xbd683f97	-0.05670127
222	0xbf6af5fc	-0.9178159
223	0xbc6ec114	-0.014572401
224	0x3e6c1cae	0.23057815
225	0xbf917f8c	-1.1367049
226	0xbeb220b4	-0.34790576
227	0x3f40e0ad	0.7534283
228	0x3eeeb919	0.46625593
229	0xbd8d1cbb	-0.068902455
230	0x3f9e3ea7	1.236287
231	0xbe113e03	-0.14183812
232	0x3f89ecca	1.0775387
233	0x3ec18d66	0.3780319
234	0x3f3b834c	0.7324722
235	0xbf264a24	-0.6495688
236	0x3f207ac8	0.6268735
237	0x3f356d66	0.70870054
238	0x3f61b7a5	0.88170844
239	0x3f0932e8	0.535933
240	0xbf4c2e73	-0.79758376
241	0x3ed42128	0.41431546
242	0x3e72cb07	0.23710261
243	0xbe7f4d8c	-0.24931926
244	0xbe9716d1	-0.29509595
245	0x3ea2a08b	0.3176311
246	0xbe259e87	-0.16173755
247	0x3f23379c	0.6375673
248	0x3f27fea5	0.6562293
249	0xbeb062e5	-0.3445045
250	0x3efe3e4a	0.49656898
251	0x3ef3f9b2	0.4765144
252	0x40339a94	2.8063097
253	0xbe6b1025	-0.22955377
254	0x3e4b1e75	0.19835837
255	0xbbdaa187	-0.0066720876

bias_ih_l1 f4 [60]
0	0x3f0cadf0	0.5495291
1	0x3d789dd8	0.060697407
2	0x3efbe28a	0.49196273
3	0x3ee916ea	0.45525295
4	0x3f1413f8	0.5784297
5	0xbd913ade	-0.07091306
6	0x3f01b5d9	0.506681
7	0x3ddbe243	0.107365154
8	0x3e855a24	0.26045334
9	0x3dc3dfcf	0.095641725
10	0x3ede2c01	0.43392947
11	0x3f1dac2a	0.61590827
12	0x3ee7c466	0.45267028
13	0x3d08ee5d	0.033430446
14	0x3ee4d5e8	0.44694448
15	0x3e5f6899	0.21817245
16	0xbe54e1cc	-0.2078926
17	0x3f4255ac	0.75911975
18	0x3f1f3b09	0.62199455
19	0x3f443b3e	0.76652896
20	0x3ee9c2ad	0.45656338
21	0xbf583276	-0.84452
22	0x3d882f79	0.0664968
23	0xbe3f601d	-0.18689008
24	0xbf115b7e	-0.5678023
25	0x3e81292f	0.25226733
26	0xbee30bc0	-0.44344902
27	0xbee499cd	-0.4464859
28	0xbfba31a8	-1.4546404
29	0xbf1c78ff	-0.61122125
30	0x3da547e0	0.0807035
31	0xbef94c04	-0.48690808
32	0x3e13ba20	0.1442647
33	0xbd92f720	-0.071760416
34	0xbf323755	-0.6961568
35	0xbe2e453b	-0.17018597
36	0xbf26cb81	-0.6515427
37	0xbd10568a	-0.03523878
38	0xbebf40dc	-0.3735417
39	0xbc01ea44	-0.007929388
40	0x3f341fec	0.7036121
41	0x3da9ad7b	0.08285042
42	0xbf26c01f	-0.65136904
43	0xbec450ee	-0.38342994
44	0x3ebe880f	0.3721318
45	0x3e0c66af	0.13711046
46	0xbeafce57	-0.34337112
47	0x3f079d2e	0.5297421
48	0xbcaa241b	-0.02076917
49	0x3e8070a6	0.25085944
50	0x3f1d9787	0.6155934
51	0x3f128137	0.57228416
52	0x3f093e12	0.53610337
53	0x3ee579f9	0.4481962
54	0xbf4d036b	-0.8008334
55	0xbec9db9d	-0.39425364
56	0x3ddfc7ed	0.10926805
57	0x3f19c428	0.60064936
58	0x3eaa09dc	0.33210647
59	0x3f09da87	0.5384907

bias_hh_l1 f4 [60]
0	0x3f2b23bf	0.6685142
1	0x3e366bfc	0.1781463
2	0x3f23eeb6	0.6403612
3	0x3ecfa47b	0.40555176
4	0x3f23d2f2	0.6399375
5	0x3e16cf6f	0.14727567
6	0x3f001d0e	0.50044334
7	0xbcb205be	-0.021731254
8	0xbd9ebf14	-0.07751289
9	0x3e86835e	0.262721
10	0x3e8b2754	0.27178442
11	0x3f10bbcc	0.56536555
12	0x3eb21c84	0.3478738
13	0x3eab1105	0.33411422
14	0x3e5f2156	0.2179006
15	0x3ea47962	0.32123858
16	0xbe109d89	-0.14122595
17	0x3f0d1fb8	0.55126524
18	0x3e8dc911	0.27692464
19	0x3f46ddbd	0.77682096
20	0x3ee89fd9	0.45434454
21	0xbf8b7e8e	-1.0897996
22	0xbe51e670	-0.20498061
23	0x3d9c93b8	0.076453626
24	0xbf067398	-0.5252013
25	0x3ea17172	0.31531864
26	0xbe2a010e	-0.16601965
27	0xbed7b616	-0.42131108
28	0xbfb9e18d	-1.4521958
29	0xbf0cfa07	-0.5506901
30	0x3ef52925	0.47882953
31	0xbf16cc70	-0.58905697
32	0x3db7c9dc	0.089740485
33	0xbd87b8a9	-0.06627018
34	0xbf1decb5	-0.6168931
35	0xbe153a0d	-0.14572926
36	0xbf0620fc	-0.5239408
37	0xbeb1e72c	-0.34746683
38	0xbebea99f	-0.37238786
39	0xbeabc466	-0.33548278
40	0x3f2fcdbf	0.6867332
41	0xbdd6aa23	-0.1048167
42	0xbf2c7507	-0.6736607
43	0xbec153e4	-0.37759316
44	0x3f102eb8	0.5632129
45	0xbe9c9492	-0.305821
46	0xbf4db39f	-0.80352205
47	0x3f2b1ca0	0.66840553
48	0xbecd2461	-0.40066817
49	0x3c849877	0.016185982
50	0x3f4bb75e	0.7957667
51	0x3f1c92f2	0.6116172
52	0x3f56d210	0.8391428
53	0x3f457721	0.771349
54	0xbe9cab73	-0.30599555
55	0xbf4af194	-0.7927487
56	0x3db496b8	0.0881781
57	0x3f4587ba	0.7716023
58	0x3e3f08c9	0.18655695
59	0x3f63902c	0.88891864
