Problematique/model.pt (torch, 48184 bytes, 21 tensors)

weight f4 [27, 19]
-0.2702673 -0.35858282 0.0099278465 0.271091 1.1166605 0.15045533 -0.21192783 -0.17481506
-1.1640953 0.039744582 -0.32134628 -0.16249101 -0.03574056 0.19716097 -0.47615284 -0.39414605
0.53778684 1.1765867 0.15734088 -0.612125 0.06866162 0.62217844 0.14440773 -0.47171202
0.7760861 -0.24263923 1.373348 0.18377244 -0.18725002 0.08477367 -0.14916629 -0.091899194
-0.37601283 -0.15763207 -0.23627968 0.23718265 0.25770277 0.94296545 -0.39482206 -0.23594223
0.36023602 -0.1247155 -0.7708525 1.1287606 -0.07111115 0.14457509 -0.37538552 0.43494755
0.03343493 0.4311485 0.83539325 1.1678861 0.769672 0.006053096 -0.07771892 -1.0296675
-0.41935956 0.13218111 0.110870786 0.61972684 -0.27035198 -0.12852167 0.662371 -0.24314544
-0.30724928 0.1747292 0.43465987 0.2644179 0.26886457 -0.67660284 -0.7337139 -0.32254666
-0.42839712 -0.51385194 -0.21773128 -0.34660867 0.07146696 0.4922096 0.0854561 0.07765612
-0.6445573 -0.158879 0.025124382 0.887604 -0.25740832 0.96699375 -0.25197756 0.2815778
-0.26208952 0.8078726 -1.2165091 -0.28115276 -0.2561939 -0.3603364 -0.6571406 -0.04224033
-0.20791237 0.6437987 -0.38935435 0.07989492 -0.45548344 0.2780843 0.02682447 0.78455734
0.42156154 0.7345409 -1.163008 0.019100249 0.2587697 -0.17416617 -1.0953015 0.092002
1.0425049 -0.43231404 -1.021104 0.24899042 0.53286403 0.022954876 0.45258763 0.04600071
0.5873096 0.47941402 0.20132792 0.057458833 0.097705856 0.5307557 -0.020152118 -0.038412992
-0.08158614 0.6214316 0.21914566 0.9157838 -0.9263705 0.19514161 0.18137114 -0.09448301
-0.25487566 0.14097656 -0.4473731 -0.018560313 0.049886573 0.41812438 0.37948197 0.060295805
1.4154752 0.3949021 0.43525535 -0.025018843 -0.40918234 -0.38317445 0.78254175 0.6298509
1.0182366 -0.0033795892 -0.34202647 -0.23266245 -0.03057411 0.083545655 1.5382224 0.14276603
-0.3038653 -0.069264166 -0.027494762 0.062872194 0.057791166 -0.1961536 -0.10218021 0.4982277
0.52738786 0.012968361 -0.13715473 0.14667182 0.13186444 -0.23148604 0.6526889 -0.61972165
0.33711606 -0.10621299 -0.85289776 0.524944 -0.16756354 0.1979656 -0.14514351 0.59116757
0.15330952 0.1694711 -0.85348004 -0.14887168 0.71789366 -0.42703998 -0.43488467 -0.33907872
0.48093697 0.72474295 0.54872733 -0.5181111 1.2526578 0.40943906 -0.09883443 0.28894544
0.16689551 0.025115112 -0.900988 0.81295204 -0.63360906 -0.36953935 0.01640183 -0.99623024
0.27097678 0.48778623 0.49722788 -1.3402151 0.40645924 -0.1841966 -0.53692055 0.0955909
0.702559 0.3752631 0.0626301 0.25689572 -0.15817511 0.15982336 -0.63272846 0.5177705
-0.37323493 0.093101576 0.40271866 0.022868436 0.41461787 1.1564016 0.8377545 -0.4797781
0.40871844 0.3880888 1.0132358 -0.41801357 0.94293964 0.26088455 -0.44524014 -0.8667046
-0.122657366 0.094588876 0.28923467 -0.40295714 -1.0824819 -0.5236307 0.24433276 1.2232982
-0.13673139 0.63914895 0.15032126 0.34501263 0.06345163 -0.010331116 0.32453632 -0.72445
00000000: 7a60 8abe 2b98 b7be 68a8 223c 71cc 8a3e
00000010: bbee 8e3f f610 1a3e 9c03 59be b802 33be
00000020: 1301 95bf 37cb 223d 8087 a4be 0b64 26be
00000030: b264 12bd 91e4 493e 4eca f3be 83cd c9be
00000040: 66ac 093f 659a 963f f81d 213e 39b4 1cbf
00000050: 779e 8c3d 1647 1f3f 9fdf 133e 3d84 f1be
00000060: 94ad 463f 6b76 78be dec9 af3f d82e 3c3e
00000070: 78be 3fbe d19d ad3d 0cbf 18be a535 bcbd
00000080: c184 c0be 4d6a 21be 4df3 71be 02e0 723e
00000090: 9ef1 833e 2f66 713f 1e26 cabe d79a 71be
000000a0: db70 b83e d76a ffbd 9756 45bf 3a7b 903f
000000b0: b9a2 91bd 7e0b 143e 8832 c0be 72b1 de3e
000000c0: 11f3 083d 7fbf dc3e 55dc 553f 4b7d 953f
000000d0: 3909 453f 0d59 c63b 192b 9fbd 25cc 83bf
000000e0: 4cb6 d6be 7c5a 073e 3910 e33d 6ba6 1e3f
000000f0: 936b 8abe 2f9b 03be 2591 293f 1efb 78be
00000100: c74f 9dbe 36ec 323e bd8b de3e c861 873e
00000110: 9ea8 893e d835 2dbf add4 3bbf d624 a5be
00000120: de56 dbbe cd8b 03bf f3f4 5ebe b176 b1be
00000130: 455d 923d e602 fc3e 9c03 af3d 2c0a 9f3d
00000140: b501 25bf 2db1 22be a6d1 cd3c 043a 633f
00000150: 06cb 83be e78c 773f 3403 81be f72a 903e
00000160: 9930 86be bdd0 4e3f 92b6 9bbf 41f3 8fbe
00000170: d92b 83be 037e b8be 5e3a 28bf 3204 2dbd
00000180: fbe6 54be fecf 243f 7459 c7be f39f a33d
00000190: 2035 e9be 1161 8e3e febe db3c c0d8 483f
000001a0: ead6 d73e df0a 3c3f 72dd 94bf 2078 9c3c
000001b0: 767d 843e 9e58 32be d732 8cbf 8b6b bc3d
000001c0: cd70 853f 4458 ddbe 89b3 82bf 58f7 7e3e
000001d0: c769 083f dd0b bc3c 91b9 e73e 3e6b 3c3d
000001e0: ec59 163f c175 f53e e828 4e3e f459 6b3d
000001f0: 021a c83d 9bdf 073f 0e16 a5bc f156 1dbd
00000200: a216 a7bd 2416 1f3f b867 603e cf70 6a3f
00000210: 9e26 6dbf 34d3 473e 5bb9 393e 4f80 c1bd
00000220: 107f 82be 295c 103e 160e e5be cc0b 98bc
00000230: dd55 4c3d 6614 d63e 764b c23e bcf8 763d
00000240: 4b2e b53f 9c30 ca3e cad9 de3e 51f4 ccbc
00000250: 5980 d1be 712f c4be a854 483f e93d 213f
00000260: 9455 823f 197c 5dbb 181e afbe 113f 6ebe
00000270: 8e76 fabc fc19 ab3d 79e4 c43f 4231 123e
00000280: 3c94 9bbe 5fda 8dbd b23c e1bc 23c3 803d
00000290: 6eb6 6c3d 7ddc 48be dc43 d1bd b317 ff3e
000002a0: e402 073f 4079 543c 4a72 0cbe 2331 163e
000002b0: 7907 073e ad0a 6dbe 9f16 273f 14a6 1ebf
000002c0: 7a9a ac3e 3286 d9bd 8257 5abf bb62 063f
000002d0: c795 2bbe 7fb7 4a3e 80a0 14be c256 173f
000002e0: 2cfd 1c3e d589 2d3e ab7d 5abf d171 18be
000002f0: e1c7 373f fca4 dabe 34a9 debe ba9b adbe
00000300: 5f3d f63e c188 393f 6579 0c3f eea2 04bf
00000310: 1757 a03f ffa1 d13e b569 cabd a8f0 933e
00000320: a8e6 2a3e 35be cd3c 26a7 66bf a01d 503f
00000330: 3434 22bf 4334 bdbe 215d 863c f208 7fbf
00000340: 78bd 8a3e 1ebf f93e a794 fe3e 2b8c abbf
00000350: 6d1b d03e 099e 3cbe a073 09bf 29c5 c33d
00000360: e8da 333f 7c22 c03e 3644 803d d687 833e
00000370: a8f8 21be bca8 233e 7efa 21bf 9c8c 043f
00000380: a618 bfbe 0aac be3d 2431 ce3e 9656 bb3c
00000390: cb48 d43e f804 943f 1477 563f 7aa5 f5be
000003a0: 8b43 d13e 93b3 c63e b6b1 813f e005 d6be
000003b0: 7e64 713f a992 853e 84f6 e3be 5ae0 5dbf
000003c0: c933 fbbd d0b7 c13d 9116 943e 6650 cebe
000003d0: c48e 8abf a90c 06bf 5e32 7a3e 0995 9c3f
000003e0: 5003 0cbe 449f 233f d1ed 193e 7fa5 b03e
000003f0: eef2 813d d743 29bc a029 a63e 8e75 39bf

weight_ih_l0 f4 [57, 19]
-0.7777323 -0.050682474 -0.16616148 0.3094316 -0.47550344 -0.239104 -0.9157542 0.45452243
-0.657634 -0.21663184 0.36110646 0.13147 0.831918 -0.20452805 0.6628492 -0.22060725
0.31555697 -0.428767 0.36880946 0.28641406 -0.17766629 0.061295483 0.35322475 -0.17708348
-0.04320102 0.05772419 -0.11559125 0.283968 0.13489515 0.16875674 -0.27174488 -0.37568793
-0.22976032 0.14223082 -0.16665591 0.5593493 0.3493111 0.2958128 0.59733427 1.44984
-0.76913846 0.21314767 0.99689984 1.4309441 0.18456765 -0.10351809 -0.29954174 -0.46214145
-0.30612627 0.4452732 -0.10964716 0.43905377 -0.13430004 0.46900874 -0.8066707 1.1565896
-0.56998146 -0.27274516 -0.07274095 -0.3819019 0.60629004 -0.0052981814 -0.5667142 0.026750648
-0.11154086 -0.44364798 0.2014958 0.123912476 -0.21291071 0.23655099 -0.07308798 0.17879844
-0.3962812 0.13772988 0.11261987 0.09494371 -0.21826623 -0.07730657 0.31311384 -0.5732648
-0.042620726 0.49472588 -0.17870706 0.1668488 0.70684713 0.67350334 0.13073014 -0.1415453
-0.21051972 0.108512715 -0.13786408 -0.0009726258 -0.19866386 -0.396581 -0.14045046 -0.19184493
0.12482186 -0.17182536 0.054558083 -0.06800758 -0.005949964 0.12787157 0.20051168 -0.58123463
0.2630761 -0.30893177 0.017253224 0.15372352 -0.16278228 0.25590172 0.025200652 0.03364841
-0.08213104 0.3023315 -0.23701502 -0.34457192 0.4324935 -0.4927315 0.6304426 -0.12315274
0.14038894 -0.11049916 -0.7091911 0.15830648 -0.13729557 -0.5649087 -0.014624519 0.06889452
-0.35431135 0.20911644 0.12571023 0.34703743 0.48328406 0.1112115 0.3881973 -0.46922085
0.9984802 -0.04445387 -0.39859116 -0.16313392 -0.036637157 -0.9067547 -0.288155 0.30694926
0.24747996 -0.05879812 0.079405785 -0.1507281 -0.56628484 0.5058016 0.14815082 0.89225537
0.18447885 1.1787629 -1.3195293 0.5313129 0.012292747 0.31846192 -0.47089523 -0.008460895
0.02415058 -0.32269156 -0.26617727 0.83728874 0.5059578 -0.60771036 0.39334822 -0.15873283
0.21346712 -0.07305929 -0.06599561 0.405546 -0.22556129 0.39398134 -0.28922147 0.46673283
-0.2679693 0.04078134 -0.3223048 -1.0013719 0.16082282 -0.17868198 -0.27988923 0.038412843
0.6279953 -0.75297177 0.038099278 -0.109106585 0.44838887 0.14081305 0.5896784 1.370856
-0.22907102 -0.19289258 0.77608067 1.1367197 0.37935993 -0.1762511 0.105601534 0.3831837
-0.39284423 0.09107575 -0.5655702 0.4216981 -0.22182705 0.24286434 -0.8099451 0.8609208
-0.6134075 -0.12298247 0.32926005 -0.36921236 1.0814192 -0.17459358 -0.36962363 -0.45925552
0.11913032 -1.2505176 -0.2948907 0.3165034 0.26097566 0.069188334 -0.18720353 -0.2117086
-0.27051723 0.40770182 0.74211645 0.19739302 0.33106554 -0.6046806 0.87595767 -0.7791179
0.2770582 0.36449456 0.3052793 0.40646285 1.1009696 0.55758387 -0.31062084 0.13846609
-0.47204036 -0.25194186 -0.2317412 0.3070927 -0.41591653 0.2466582 -0.04870416 -0.7170216
0.17439216 -0.052715838 0.43307278 -0.49094552 -0.06038045 -0.5168705 0.17173953 -0.66743463
00000000: 7719 47bf 6d98 4fbd 3c26 2abe d26d 9e3e
00000010: 3075 f3be aed7 74be de6e 6abf 2ab7 e83e
00000020: b45a 28bf bdd4 5dbe f2e2 b83e 12a0 063e
00000030: 94f8 543f cd6f 51be 7cb0 293f dee6 61be
00000040: af90 a13e 5987 dbbe 98d4 bc3e dda4 923e
00000050: 27ee 35be f910 7b3d e0d9 b43e 5f55 35be
00000060: 8ef3 30bd 3370 6c3d 1bbb ecbd 4164 913e
00000070: f421 0a3e 91ce 2c3e 2522 8bbe 2b5a c0be
00000080: 4a46 6bbe f5a4 113e d9a7 2abe 8431 0f3f
00000090: e8d8 b23e c674 973e e6ea 183f 5b94 b93f
000000a0: 42e6 44bf 6243 5a3e d434 7f3f 2d29 b73f
000000b0: 4dff 3c3e 4b01 d4bd 895d 99be ce9d ecbe
000000c0: 95bc 9cbe d9fa e33e b18e e0bd a8cb e03e
000000d0: f385 09be ea21 f03e f981 4ebf 210b 943f
000000e0: 4eea 11bf 41a5 8bbe 35f9 94bd a588 c3be
000000f0: d335 1b3f 5e9c adbb 2f14 11bf 2d24 db3c
00000100: 896f e4bd d425 e3be ea54 4e3e d3c5 fd3d
00000110: 4405 5abe 6c3a 723e 27af 95bd f016 373e
00000120: 5fe5 cabe 1009 0d3e 3fa5 e63d d971 c23d
00000130: 2f81 5fbe e852 9ebd 7550 a03e 7bc1 12bf
00000140: 1293 2ebd b64c fd3e fcfe 36be 69da 2a3e
00000150: eff3 343f b76a 2c3f 1fde 053e 40f1 10be
00000160: 7b92 57be ea3b de3d 3e2c 0dbe d0f7 7eba
00000170: 8a6e 4bbe aa0c cbbe 3fd2 0fbe ff72 44be
00000180: 9aa2 ff3d fdf2 2fbe 4c78 5f3d 8f47 8bbd
00000190: eaf7 c2bb c4f0 023e ef52 4d3e cbcb 14bf
000001a0: e9b1 863e 4e2c 9ebe a256 8d3c b369 1d3e
000001b0: 66b0 26be 8d05 833e 9971 ce3c ead2 093d
000001c0: 5234 a8bd 32cb 9a3e 11b4 72be bb6b b0be
000001d0: ca6f dd3e 4e47 fcbe b064 213f 8137 fcbd
000001e0: 1ec2 0f3e 624d e2bd 8c8d 35bf 181b 223e
000001f0: 3697 0cbe db9d 10bf ae9b 6fbc 9218 8d3d
00000200: 4c68 b5be 9f22 563e 2fba 003e e4ae b13e
00000210: 0271 f73e dbc2 e33d ccc1 c63e b73d f0be
00000220: 669c 7f3f 4315 36bd 2414 ccbe 940c 27be
00000230: d810 16bd 1321 68bf 0d89 93be 7428 9d3e
00000240: 636b 7d3e 4cd6 70bd 809f a23d 7858 1abe
00000250: 0bf8 10bf 377c 013f d9b4 173e d96a 643f
00000260: 06e8 3c3e b4e1 963f 56e6 a8bf 1f04 083f
00000270: 8567 493c 710d a33e 2e19 f1be 919f 0abc
00000280: 70d7 c53c d437 a5be 6348 88be 8e58 563f
00000290: 7386 013f e892 1bbf f064 c93e dc8a 22be
000002a0: 2097 5a3e 1ca0 95bd b528 87bd baa3 cf3e
000002b0: 8af9 66be ecb7 c93e d614 94be 9bf7 ee3e
000002c0: 4633 89be 560a 273d 2205 a5be f42c 80bf
000002d0: bdae 243e 69f8 36be a44d 8fbe c956 1d3d
000002e0: 4dc4 203f c2c2 40bf fd0d 1c3d 4673 dfbd
000002f0: 3a93 e53e 4c31 103e 2af5 163f 3678 af3f
00000300: 9891 6abe a285 45be 39ad 463f 0880 913f
00000310: 773b c23e 2b7b 34be 9e45 d83d a730 c43e
00000320: e122 c9be ec85 ba3d 35c9 10bf d0e8 d73e
00000330: a126 63be 6eb1 783e 9058 4fbf 4e65 5c3f
00000340: 4608 1dbf 3cde fbbd c694 a83e 6709 bdbe
00000350: f26b 8a3f a9c8 32be 4f3f bdbe 8a23 ebbe
00000360: 99fa f33d f610 a0bf eafb 96be bc0c a23e
00000370: 9a9e 853e 9db2 8d3d 48b2 3fbe 24ca 58be
00000380: 3c81 8abe 4bbe d03e 58fb 3d3f 6521 4a3e
00000390: 6c81 a93e 59cc 1abf c33e 603f 4574 47bf
000003a0: 93da 8d3e 089f ba3e 924d 9c3e e61b d03e
000003b0: 92ec 8c3f d1bd 0e3f b209 9fbe 0eca 0d3e
000003c0: 46af f1be 86fe 80be 914d 6dbe 413b 9d3e
000003d0: 03f3 d4be f893 7c3e 037e 47bd ba8e 37bf
000003e0: dc93 323e 90ec 57bd b7bb dd3e 365d fbbe
000003f0: 7e51 77bd a051 04bf 7ddc 2f3e ffdc 2abf

weight_hh_l0 f4 [57, 19]
-1.4897808 -0.65668046 0.6800608 1.1985587 -1.4072272 0.29267457 -0.60436445 -0.3601273
-0.05777046 1.1358932 -0.6293401 0.95939296 0.49001616 -0.8300842 -1.0775043 -0.13210909
-1.7130605 1.538692 0.01223496 -0.3859702 0.2669343 0.7150254 -1.2585456 -1.5315005
-0.13449703 -0.24179117 0.94259256 0.05343817 0.25763056 0.37819767 -0.8052828 -0.19363312
-1.0288463 -1.8274318 -1.2736542 1.1822722 0.63962924 1.0883418 1.4517882 2.1763308
1.5847046 0.0936991 1.380058 -0.12655427 -3.1976483 -0.72620684 -0.16156705 0.57188267
0.7482377 -0.35352075 0.21969911 -0.37450796 0.5031481 0.25344247 0.56572163 0.77632564
-0.7497835 -0.46307606 0.37736836 -0.5685993 -1.6242319 -0.34757486 -1.6136361 -0.82584435
-0.85309297 0.16368458 0.3957507 1.2360975 -0.6905738 -1.0646147 0.020874018 0.899867
0.72858924 -1.1371616 0.13823144 -1.5863179 -0.15004411 -0.4465103 -1.076643 0.18879636
0.44344997 0.5342445 -0.085162066 -1.4440777 -0.7462678 -0.24657728 0.41449708 -0.74161315
1.0024222 -0.4331952 -0.4407899 0.23268454 -0.2077517 -1.5834271 -1.1819162 -0.7319036
-0.23946911 0.2002755 0.5206471 0.12669499 0.18339296 -0.20937349 0.8210004 0.33461666
-0.70936906 0.12783192 0.5987171 -1.4482106 1.6651452 1.1167352 -0.46392837 0.2976523
0.24129103 -0.80577546 -0.4447259 -0.5048039 0.6268525 1.2334672 -0.4107494 0.052722182
-0.23706156 0.028169353 0.14604293 -0.18626827 -0.23943536 -0.53191 -1.1185436 0.55749625
-0.6845534 0.8743617 -0.30141 -0.20231734 -0.53014004 1.1289438 0.25347853 -0.90897757
-0.09805646 -0.8122185 -0.26541442 -0.9764267 -0.9396676 -0.72244835 0.8422999 -0.053633377
0.96586496 0.1947185 -0.58198357 -0.7608792 -1.1406935 0.39555594 -1.1034269 -1.2931978
-0.055325136 1.9775999 0.38664478 -0.21102494 1.4059366 -0.51260793 0.60346115 -1.3724837
-0.5339656 0.61351913 -0.6511061 -1.0740919 -0.970159 -0.36874336 1.462659 -1.2550639
0.73415357 -0.9046135 -0.18814252 -0.34378058 0.24713637 1.2437806 -0.19600499 1.9612924
-0.7693851 0.2867858 0.97225535 -1.505299 0.37215647 0.20302008 0.76968944 0.3791078
-0.22444433 -1.3550642 1.7941567 -0.12859128 -0.44721773 -0.24614339 2.499798 0.09606468
0.18865341 -0.85382533 0.034991477 1.0499932 -0.52952194 -0.9722339 0.7080177 1.9872043
-1.1419165 0.2850402 -0.21278356 0.5842374 0.90954655 1.0287449 -0.15086427 0.46309388
-1.5224538 -1.2395166 0.494 -1.0336548 -0.4182767 -0.25054613 -1.0328947 -0.26742125
0.020801233 -0.6531339 0.16359763 -1.1264491 0.18960823 -0.07430668 -1.2910764 0.6336031
0.2701982 0.18498844 -0.52007204 -0.1553358 -0.6326283 0.14218883 -0.8974434 -0.46182597
0.8546879 -0.06500859 0.7160496 -1.456962 -0.47266343 0.9919215 -0.096246645 1.7949201
-0.29619363 0.5158613 0.31293112 0.48564133 0.65533817 0.5405102 -0.3002238 -0.65792114
0.35723153 -0.7023469 -1.0788356 1.0644376 0.15492406 -1.1322252 -0.44511658 -1.9226329
00000000: 23b1 bebf 361c 28bf 7718 2e3f 5f6a 993f
00000010: 0520 b4bf 71d9 953e a1b7 1abf 9b62 b8be
00000020: b8a0 6cbd f364 913f 6f1c 21bf c79a 753f
00000030: 66e3 fa3e 6680 54bf a9eb 89bf 9b47 07be
00000040: 9145 dbbf dcf3 c43f 2475 483c e39d c5be
00000050: 9dab 883e e80b 373f 0618 a1bf 3508 c4bf
00000060: 97b9 09be 1b98 77be bf4d 713f fce1 5a3d
00000070: 27e8 833e 20a3 c13e 0327 4ebf c347 46be
00000080: 3cb1 83bf 49e9 e9bf 1a07 a3bf b254 973f
00000090: bebe 233f c94e 8b3f 32d4 b93f 0149 0b40
000000a0: 9ad7 ca3f 50e5 bf3d bea5 b03f 7197 01be
000000b0: 45a6 4cc0 b1e8 39bf d571 25be e766 123f
000000c0: 828c 3f3f ac00 b5be cef8 603e 82bf bfbe
000000d0: 50ce 003f 36c3 813e 22d3 103f 47bd 463f
000000e0: d0f1 3fbf 4e18 edbe 6d36 c13e b98f 11bf
000000f0: d5e6 cfbf 55f5 b1be a18b cebf 896a 53bf
00000100: 4d64 5abf ee9c 273e d69f ca3e 7138 9e3f
00000110: 72c9 30bf 4b45 88bf fdff aa3c af5d 663f
00000120: d384 3a3f 838e 91bf 8b8c 0d3e 770c cbbf
00000130: 2aa5 19be ff9c e4be 70cf 89bf d553 413e
00000140: e00b e33e 3fc4 083f 7369 aebd 8ad7 b8bf
00000150: 680b 3fbf c17e 7cbe f638 d43e 5cda 3dbf
00000160: 5f4f 803f c3cb ddbe 37af e1be db44 6e3e
00000170: ddbc 54be bdad cabf 0849 97bf 095e 3bbf
00000180: 6437 75be 0515 4d3e 2149 053f 55bc 013e
00000190: 5dcb 3b3e 0166 56be 152d 523f e052 ab3e
000001a0: 3699 35bf 5fe6 023e 8645 193f f75e b9bf
000001b0: 7a23 d53f 2ef1 8e3f 0588 edbe e265 983e
000001c0: ff14 773e 4d47 4ebf 1db3 e3be d43a 01bf
000001d0: 6879 203f 41e2 9d3f bf4d d2be 37f3 573d
000001e0: 44c0 72be 6ac3 e63c 478c 153e 1cbd 3ebe
000001f0: 8b2e 75be 412b 08bf 702c 8fbf 13b8 0e3f
00000200: e43e 2fbf 2bd6 5f3f 6952 9abe 472c 4fbe
00000210: 42b7 07bf 3b81 903f f0c7 813e c1b2 68bf
00000220: d3d1 c8bd 8ded 4fbf 66e4 87be 1af7 79bf
00000230: 0e8e 70bf 60f2 38bf f7a0 573f acae 5bbd
00000240: ed42 773f 4964 473e e0fc 14bf fbc8 42bf
00000250: 3f02 92bf 4f86 ca3e 183d 8dbf 8187 a5bf
00000260: 9c9c 62bd fe21 fd3f 4ef6 c53e ec16 58be
00000270: bbf5 b33f 463a 03bf 6e7c 1a3f 8cad afbf
00000280: f8b1 08bf 970f 1d3f e4ae 26bf d87b 89bf
00000290: 575c 78bf eecb bcbe 6938 bb3f efa5 a0bf
000002a0: 7df1 3b3f c094 67bf 6fa8 40be 0204 b0be
000002b0: 5111 7d3e 3434 9f3f 88b5 48be a10b fb3f
000002c0: 6cf6 44bf 97d5 923e bae5 783f a3ad c0bf
000002d0: 4b8b be3e 7fe4 4f3e 5e0a 453f 6b1a c23e
000002e0: bcd4 65be be72 adbf eda6 e53f 6fad 03be
000002f0: b9f9 e4be 030d 7cbe b1fc 1f40 8fbd c43d
00000300: 5c2e 413e 4c94 5abf 3953 0f3d 2d66 863f
00000310: c08e 07bf 52e4 78bf a640 353f b65c fe3f
00000320: 522a 92bf caf0 913e efe3 59be 9590 153f
00000330: 0bd8 683f eaad 833f 2a7c 1abe a41a ed3e
00000340: c4df c2bf 7ba8 9ebf 91ed fc3e cd4e 84bf
00000350: 5d28 d6be 9547 80be e535 84bf 70eb 88be
00000360: 5967 aa3c c933 27bf 2386 273e 7c2f 90bf
00000370: a928 423e 1a2e 98bd fe41 a5bf d033 223f
00000380: 6b57 8a3e 9c6d 3d3e 7123 05bf 5910 1fbe
00000390: eef3 21bf f399 113e dabe 65bf 7474 ecbe
000003a0: d4cc 5a3f 3923 85bd 074f 373f bb7d babf
000003b0: f100 f2be 91ee 7d3f f61c c5bd f1bf e53f
000003c0: b1a6 97be 7c0f 043f 8238 a03e fba5 f83e
000003d0: 3ec4 273f e05e 0a3f efb6 99be 856d 28bf
000003e0: 0de7 b63e 02cd 33bf 4917 8abf 7e3f 883f
000003f0: 6aa4 1e3e c1ec 90bf 52e6 e3be d618 f6bf

bias_ih_l0 f4 [57]
-0.5265476 -0.07829553 1.0575746 0.033578563 -0.263189 -0.07409585 0.63313115 -0.055432677
0.01495462 0.5227464 0.44519493 -0.103019 0.053622134 -0.29043934 0.39554384 -0.6650119
0.87864774 0.40080437 1.2941045 0.24654894 -0.2528844 0.29987925 1.0339271 1.0022634
0.86245894 1.011475 0.03436712 0.38080233 -0.45381135 0.0026539583 0.59083456 1.4556612
0.92202866 0.9954433 0.64147854 -0.11520376 0.83847696 0.9042915 0.13530141 -0.64754957
0.2934071 0.7639868 -0.2208391 0.4317599 0.111439385 -0.0151265785 0.36471075 -0.18120687
-0.115567446 0.084231295 -0.11035214 -0.3190668 -0.056045216 0.1535547 -1.0985111 0.58416194
-0.049489938
00000000: d3cb 06bf 6859 a0bd 9b5e 873f ad89 093d
00000010: b5c0 86be 91bf 97bd e214 223f 600d 63bd
00000020: 3904 753c b5d2 053f 97f0 e33e a0fb d2bd
00000030: e2a2 5b3d 77b4 94be b984 ca3e 383e 2abf
00000040: 0fef 603f 3b36 cd3e 37a5 a53f 5377 7c3e
00000050: 107a 81be c689 993e b957 843f 2b4a 803f
00000060: 1cca 5c3f 0378 813f 8ac4 0c3d 86f8 c23e
00000070: f659 e8be 08ee 2d3b ef40 173f 1b53 ba3f
00000080: 120a 6c3f 5fd5 7e3f f037 243f f3ef ebbd
00000090: 6da6 563f a67f 673f 748c 0a3e cfc5 25bf
000000a0: 7539 963e a494 433f a523 62be a20f dd3e
000000b0: 553a e43d 78d5 77bc 5ebb ba3e 4b8e 39be
000000c0: a0ae ecbd 7581 ac3d 4e00 e2bd b95c a3be
000000d0: ab8f 65bd 713d 1d3e 039c 8cbf a38b 153f
000000e0: f6b5 4abd

bias_hh_l0 f4 [57]
-0.45913056 -0.11058856 0.8171252 -0.19082873 0.0644134 -0.014813056 0.8972034 -0.13276486
-0.3121054 0.78609586 0.6888673 -0.355741 0.106032275 -0.26445732 0.45224315 -0.46219054
0.9929297 0.6041695 1.2343223 0.27102652 -0.32906428 0.48728326 0.84745026 1.1410472
0.98646116 1.2744014 -0.026562005 0.45234272 -0.29583374 0.23124637 0.4139132 1.4829819
1.1096622 0.84097457 0.59080607 0.17740586 0.68766093 0.75610894 0.10510508 -0.4048181
-0.03263278 0.5094193 -0.11726429 0.42584875 0.15552682 -0.56966186 -0.22580026 -0.090711415
-0.94728196 -0.40157995 0.13421781 0.28605333 -0.16470745 0.30969295 -0.83890873 0.36173478
0.0063681095
00000000: 2913 ebbe 417c e2bd 1e2f 513f 9b68 43be
00000010: 2ceb 833d 76b2 72bc 1faf 653f 83f3 07be
00000020: 47cc 9fbe 943d 493f 9b59 303f af23 b6be
00000030: 7327 d93d f366 87be 6a8c e73e 3da4 ecbe
00000040: a430 7e3f daaa 1a3f 46fe 9d3f fdc3 8a3e
00000050: 1d7b a8be 317d f93e 80f2 583f d60d 923f
00000060: b888 7c3f 961f a33f 9098 d9bc 7799 e73e
00000070: 8577 97be d9cb 6c3e 6eec d33e 5ad2 bd3f
00000080: 6909 8e3f 1c4a 573f 113f 173f e2a9 353e
00000090: 8c0a 303f 5b90 413f 5541 d73d 5144 cfbe
000000a0: f3a9 05bd 4e69 023f 4328 f0bd d908 da3e
000000b0: 6c42 1f3e 5cd5 11bf 2f38 67be e8c6 b9bd
000000c0: 1281 72bf e39b cdbe 6570 093e 9575 923e
000000d0: 12a9 28be 1390 9e3e b9c2 56bf 4d35 b93e
000000e0: 93ab d03b

weight_ih_l0_reverse f4 [57, 19]
-0.30528224 0.33517027 0.059486147 -0.19105741 0.30289912 0.71415377 -0.05407413 0.023537075
-0.2524341 -0.18910421 0.01913521 0.36747098 -0.25815678 -0.1203976 -0.22149366 0.19729348
-0.10304196 0.38301253 -0.79132617 -0.17121859 -0.06341769 0.048284225 0.008917056 0.37143314
-0.5396643 -0.16094369 0.1536227 -0.375143 0.1904942 0.05282011 -0.06919653 0.3220108
-0.31863132 -0.612075 0.43090934 -0.0852986 0.30085492 0.440802 0.43924797 0.009860381
0.022686198 0.06979729 -0.065611504 -0.8060079 -0.01041635 0.015632961 -0.7900794 6.732019e-05
0.33282393 -0.010921398 0.04453197 0.27907792 -0.15440951 -0.088538304 -0.016153632 -0.05142905
0.34575123 -0.011752971 0.064339705 -0.5029667 0.0043212357 -0.3367709 0.32704166 -0.26788536
-0.018054489 0.25507146 -0.2943452 0.22702943 0.44902033 0.12430541 -0.124113366 0.20638312
-0.20682536 0.3865205 -0.059897214 -0.30385968 -0.504523 0.4012448 0.20053795 -0.24866094
0.057341162 0.3577425 0.5350421 -1.0434377 1.7685868 0.3873522 -0.039389484 0.09431103
-0.24604364 0.01120002 0.38247803 0.13231207 -0.32939434 -0.11691747 -0.65720177 0.33872494
0.24942377 0.311571 -0.6000588 0.5202561 0.15429322 0.1838351 0.10228908 -0.22356287
0.09299352 0.01776549 -0.076995336 0.13464816 -0.032767996 -0.3710239 0.2139322 -0.27260348
0.4447428 -0.23993465 0.13772072 -0.15247406 0.30670315 -0.05513707 0.59185916 -0.28708023
-0.1344729 -0.048196256 -0.75346166 -0.15889022 0.15615979 -0.2742675 -0.24608411 -0.88257545
-0.841301 -0.35405046 0.29547128 0.8417031 0.5462645 -0.0005116982 -0.34205025 -0.10795912
0.56450915 -0.21530683 -0.26524535 0.12527192 -0.08624329 -0.017230175 0.016603488 -0.010536956
-0.20636967 -0.12661359 -0.10462566 0.038586494 -0.05560533 0.120787546 -0.08322505 0.01949831
-0.008675547 -0.91887146 0.34449673 -0.28736413 0.13267739 -0.61946607 -0.1425655 -0.23043151
-0.81212634 -0.11031645 0.28110692 -0.37718323 0.24594079 0.1350861 -0.20461872 -0.16602592
-0.23279086 0.37115043 0.2460783 -0.013077907 -0.16157858 0.29536617 -0.5870089 0.092610165
0.2193051 0.03187042 -0.1726797 0.4421386 0.09484623 0.061978053 0.18576154 -0.36315146
-0.21064577 0.147906 0.2889017 -0.21431898 -0.18689318 -0.18193412 -0.2515403 0.40599677
0.43653277 0.29991394 0.63269216 -0.63878995 -0.20445509 0.6146737 -1.0057355 -0.10868497
-0.19468038 -0.20230696 -0.100186005 0.36427963 -0.6470893 -0.2877593 0.027905224 1.0784426
0.56508183 0.09471078 -0.64588666 0.5944935 -0.36323434 -0.04755937 -0.6718386 -0.10221346
-0.15242648 -0.22332907 0.13258891 -0.019502304 -0.12570058 -0.20761736 0.23469365 -0.38185725
-0.20984684 0.1587984 -0.0466817 0.19950007 -0.2040867 0.47919264 -0.40879336 0.36492443
-0.8185904 0.03925268 0.07867739 0.28433254 -0.22175041 0.07935908 -0.01876089 -0.013746954
0.13249767 -0.02293094 0.10874682 0.21986488 -0.18007492 0.3047031 -0.08003359 -0.019084204
-0.42315382 -0.4753599 0.27223256 -0.46301216 -0.416853 0.0558155 0.09541176 0.16692027
00000000: f44d 9cbe 709b ab3e bfa7 733d 8ea4 43be
00000010: 9815 9b3e c8d2 363f d67c 5dbd d3d0 c03c
00000020: 0b3f 81be 89a4 41be 72c1 9c3c 2825 bc3e
00000030: 202d 84be 0493 f6bd 3ccf 62be 4d07 4a3e
00000040: aa07 d3bd 381a c43e 5a94 4abf ed53 2fbe
00000050: 22e1 81bd aec5 453d d818 123c 7c2c be3e
00000060: 7127 0abf 6cce 24be 454f 1d3e be12 c0be
00000070: e910 433e e659 583d e9b6 8dbd 99de a43e
00000080: a523 a3be f2b0 1cbf 26a0 dc3e 08b1 aebd
00000090: a809 9a3e cdb0 e13e 1ce5 e03e 6f8d 213c
000000a0: 68d8 b93c e2f1 8e3d 535f 86bd 8956 4ebf
000000b0: 57a9 2abc b210 803c a542 4abf 402e 8d38
000000c0: e667 aa3e aaef 32bc 2867 363d 4de3 8e3e
000000d0: 871d 1ebe 9253 b5bd 9f54 84bc 44a7 52bd
000000e0: 4e06 b13e 898f 40bc 89c4 833d 6dc2 00bf
000000f0: 2799 8d3b 3c6d acbe 0172 a73e 4528 89be
00000100: 02e7 93bc ba98 823e 6ab4 96be 677a 683e
00000110: fee5 e53e d693 fe3d 262f febd 1956 533e
00000120: 07ca 53be 04e6 c53e c856 75bd 7f93 9bbe
00000130: 6b28 01bf f56f cd3e d259 4d3e f9a0 7ebe
00000140: 91de 6a3d 062a b73e 85f8 083f 5e8f 85bf
00000150: 0d61 e23f 0753 c63e de56 21bd 2426 c13d
00000160: ddf2 7bbe 4a80 373c 29d4 c33e d17c 073e
00000170: 60a6 a8be 6d72 efbd 603e 28bf 5b6d ad3e
00000180: f268 7f3e 3c86 9f3e 749d 19bf 812f 053f
00000190: 0bff 1d3e 453f 3c3e f07c d13d aaed 64be
000001a0: 6373 be3d ef88 913c bbaf 9dbd 35e1 093e
000001b0: bc37 06bd d8f6 bdbe 0b11 5b3e af92 8bbe
000001c0: 54b5 e33e 6eb1 75be a906 0d3e 2922 1cbe
000001d0: 3208 9d3e 69d7 61bd 1584 173f 2efc 92be
000001e0: 44b3 09be 7069 45bd dde2 40bf 1eb4 22be
000001f0: 5ae8 1f3e ca6c 8cbe 79fd 7bbe 77f0 61bf
00000200: 815f 57bf 1a46 b5be 0348 973e db79 573f
00000210: fed7 0b3f 7c23 06ba 3621 afbe ac19 ddbd
00000220: ac83 103f 6579 5cbe 3dce 87be 4847 003e
00000230: 52a0 b0bd 4c26 8dbc 0a04 883c 32a3 2cbc
00000240: 9252 53be fea6 01be fa45 d6bd df0c 1e3d
00000250: 6ac2 63bd 765f f73d e571 aabd ebba 9f3c
00000260: e223 0ebc 293b 6bbf e061 b03e 6421 93be
00000270: 95dc 073e 5495 1ebf b1fc 11be 3df6 6bbe
00000280: 83e7 4fbf 97ed e1bd 3fed 8f3e 291e c1be
00000290: e7d7 7b3e 0354 0a3e 9287 51be b302 2abe
000002a0: ba60 6ebe 6e07 be3e f3fb 7b3e b844 56bc
000002b0: db74 25be 3c3a 973e 3746 16bf 66aa bd3d
000002c0: 8491 603e 8f8a 023d f3d2 30be fe5f e23e
000002d0: bd3e c23d b3dc 7d3d 4638 3e3e fdee b9be
000002e0: 86b3 57be ac74 173e ecea 933e 6f76 5bbe
000002f0: ed60 3fbe f04c 3abe e4c9 80be cfde cf3e
00000300: 3981 df3e 528e 993e 1df8 213f bd87 23bf
00000310: ad5c 51be 415b 1d3f f1bb 80bf 3a96 debd
00000320: 4b5a 47be 8e29 4fbe 522e cdbd dc82 ba3e
00000330: a5a7 25bf 3055 93be 7f99 e43c 680a 8a3f
00000340: 34a9 103f baf7 c13d d458 25bf ba30 183f
00000350: daf9 b9be 9dcd 42bd 9dfd 2bbf 4a55 d1bd
00000360: b015 1cbe 60b0 64be 63c5 073e 4cc3 9fbc
00000370: a7b7 00be a599 54be 8853 703e cb82 c3be
00000380: 17e2 56be 0c9c 223e 4f35 3fbd bf49 4c3e
00000390: 1bfc 50be bd58 f53e 5d4d d1be 60d7 ba3e
000003a0: 248f 51bf 6bc7 203d 9d21 a13d 0994 913e
000003b0: 8a12 63be 0387 a23d 70b0 99bc e73a 61bc
000003c0: 78ad 073e abd9 bbbc a7b6 de3d 4224 613e
000003d0: 8f65 38be 0b02 9c3e a7e8 a3bd 7a56 9cbc
000003e0: 9ea7 d8be 5f62 f3be 1162 8b3e ee0f edbe
000003f0: c26d d5be cb9e 643d 3e67 c33d 26ed 2a3e

weight_hh_l0_reverse f4 [57, 19]
-0.63875836 -0.56683815 0.1126904 -0.57229733 0.8464461 -0.6750741 -0.30822855 0.375842
1.3926356 1.044917 0.9186541 0.4070261 0.40586638 1.1983256 0.14797384 0.71345484
-0.2515125 -1.2023175 0.47346586 -1.1510129 -0.16748211 0.30161455 -0.58282405 0.2938966
0.20311219 0.10335806 0.012495959 1.8710659 0.318471 -0.44973344 0.020603098 1.4652613
-0.55707073 -0.087585606 -0.5756891 -0.9394286 -1.2407115 0.108908385 0.34607932 -0.13433284
0.45199242 -0.7063738 -0.009321337 -1.6287831 1.0704539 1.2822263 0.25547943 0.23159848
0.31165212 -0.2830137 0.37914154 -1.5694628 0.39701807 0.18757182 -0.036015525 -0.054140553
1.5804547 0.45092916 -1.1783305 -0.65734166 0.34642124 0.45981106 0.50675577 -0.7751293
-0.11968551 -1.6814855 0.61283517 -0.4421 -0.25585422 -0.4134224 1.0139742 0.029872272
0.88802755 -0.5593438 -0.48943797 -0.69858146 1.3687899 0.30332837 -0.10142709 -0.62014675
0.9444728 0.703276 -0.7393618 0.49569425 -0.32763922 -0.46526003 -0.34378538 -0.6745069
1.179059 -1.7285266 -0.08345433 -0.35582235 0.5713175 -0.09994547 0.4598855 1.1837907
-0.48855346 -1.0444747 -0.14803953 -0.062130954 1.0264336 -1.088735 0.31175682 -0.3697388
-0.5892408 0.81439114 -0.8602793 0.26835838 0.13450842 0.6188908 -0.47485992 -0.4436914
-0.47090957 -0.12427038 -0.3144927 0.8850352 0.29278585 -0.47477964 -0.30360994 -1.0917406
0.3923954 -0.58088005 0.80474913 -0.097926416 -0.56457114 -1.3708328 -0.60372037 -0.36864674
-0.6567862 -1.1586765 0.55533564 -1.304118 1.4777973 -0.2541594 1.4134488 -0.5873585
-1.0650737 0.15616673 1.0493343 -0.31292322 -0.49420604 -0.2654703 -0.4675238 -0.12473259
-0.54199505 0.04176313 0.25381818 -0.39873776 -1.4790771 0.9380011 -1.0287871 0.54297554
-0.45246503 -0.038561795 -0.21933597 -0.70047694 0.34804082 -0.18851258 -0.049212195 -0.5111241
0.66105 -0.9283636 0.1669092 -0.3197065 0.44178963 -0.0053054495 -0.09474153 -0.61377347
0.18524234 0.47830662 -0.73837537 1.5249963 -0.56289434 0.7791573 0.09595663 0.53931576
0.0076814485 0.97464716 0.12916529 0.64472264 0.8649757 0.12632716 1.1801634 -0.008652001
-0.5577212 1.0703038 0.9629291 -0.19201086 -1.0886742 0.8411914 0.8881738 1.3304768
-0.8640718 0.58716714 0.85105443 1.2499973 -0.66627526 0.7610394 -0.07415351 -0.763117
-0.522042 0.0069464864 0.52943766 1.0042828 -0.82708794 -1.7192588 -0.2722037 -0.498266
-0.43619812 0.3945988 -0.16470775 -0.26564026 0.1487567 0.18416154 -0.20511472 -0.8205773
0.73063606 0.7271704 -0.06335031 -0.19853207 0.7642003 -0.03899256 -0.26540914 0.39106762
-0.21016255 -0.028082656 -0.5713683 0.044949304 0.090574965 0.7927485 0.55431795 0.9463234
-0.4036307 0.008313345 0.21435998 0.3744163 1.1222405 -0.29020625 -0.48799193 0.6041299
-0.6448842 1.5490938 0.66397697 -1.1993885 -1.8103238 -1.9702245 0.21949959 -0.4100844
0.42383176 0.17153694 -0.29956943 -0.29025245 1.7275257 -0.43317416 -0.4587047 0.6572565
00000000: ab85 23bf 4e1c 11bf 39ca e63d 1482 12bf
00000010: b1b0 583f a8d1 2cbf 22d0 9dbe 5d6e c03e
00000020: e241 b23f d7bf 853f ea2c 6b3f ba65 d03e
00000030: b8cd cf3e bc62 993f 7486 173e faa4 363f
00000040: 3fc6 80be 8ae5 99bf 1e6a f23e 6454 93bf
00000050: 6e80 2bbe 396d 9a3e f533 15bf 9d79 963e
00000060: a4fc 4f3e 64ad d33d dabb 4c3c 167f ef3f
00000070: a20e a33e 7643 e6be d4c7 a83c af8d bb3f
00000080: 309c 0ebf 1560 b3bd 5c60 13bf 657e 70bf
00000090: a2cf 9ebf 5c0b df3d 4f31 b13e 8c8e 09be
000000a0: 8d6b e73e ead4 34bf 85b8 18bc f77b d0bf
000000b0: a204 893f fe1f a43f 33ce 823e 2728 6d3e
000000c0: de90 9f3e 2ce7 90be d71e c23e 28e4 c8bf
000000d0: f445 cb3e d412 403e 0485 13bd 7cc2 5dbd
000000e0: 574c ca3f 30e0 e63e 89d3 96bf 8b47 28bf
000000f0: 205e b13e 5b6c eb3e bfba 013f e06e 46bf
00000100: ad1d f5bd eb3a d7bf c4e2 1c3f ee5a e2be
00000110: 53ff 82be 1aac d3be e8c9 813f b2b6 f43c
00000120: c655 633f 2831 0fbf 9d97 fabe 3cd6 32bf
00000130: 8234 af3f db4d 9b3e 02b9 cfbd f0c1 1ebf
00000140: f8c8 713f e509 343f d146 3dbf a3cb fd3e
00000150: 54c0 a7be 9036 eebe a304 b0be 7cac 2cbf
00000160: 68eb 963f 5c40 ddbf 1bea aabd 592e b6be
00000170: dd41 123f 36b0 ccbd 1d76 eb3e 7486 973f
00000180: ae23 fabe 59b1 85bf ad97 17be 077d 7ebd
00000190: 2d62 833f ab5b 8bbf 979e 9f3e 674e bdbe
000001a0: 7cd8 16bf f07b 503f 443b 5cbf 4566 893e
000001b0: 93bc 093e a16f 1e3f d720 f3be 852b e3be
000001c0: 0f1b f1be 7881 febd 3005 a1be ab91 623f
000001d0: 07e8 953e 5116 f3be c372 9bbe 28be 8bbf
000001e0: 0de8 c83e 8eb4 14bf 0a04 4e3f a58d c8bd
000001f0: bc87 10bf 7377 afbf 6b8d 1abf 44bf bcbe
00000200: 2423 28bf 834f 94bf 7a2a 0e3f 57ed a6bf
00000210: 7628 bd3f 2e21 82be e4eb b43f 205d 16bf
00000220: 5654 88bf 2cea 1f3e 9650 863f 7937 a0be
00000230: 9308 fdbe b9eb 87be 485f efbe cd73 ffbd
00000240: 30c0 0abf d10f 2b3d 75f4 813e 5b27 ccbe
00000250: 6652 bdbf d720 703f 4caf 83bf 7200 0b3f
00000260: 7fa9 e7be f9f2 1dbd 9c99 60be 7552 33bf
00000270: 6832 b23e 7109 41be ba92 49bd 07d9 02bf
00000280: 933a 293f 3da9 6dbf 3fea 2a3e 92b0 a3be
00000290: 4032 e23e 56d9 adbb d907 c2bd 4220 1dbf
000002a0: 2bb0 3d3e 9be4 f43e 2b06 3dbf 1433 c33f
000002b0: d819 10bf da76 473f e984 c43d 9910 0a3f
000002c0: a9b4 fb3b 7a82 793f e843 043e 8b0c 253f
000002d0: 0c6f 5d3f e85b 013e 980f 973f 1fc1 0dbc
000002e0: d1c6 0ebf b7ff 883f 8682 763f 7f9e 44be
000002f0: ad59 8bbf 5258 573f 5c5f 633f 104d aa3f
00000300: cf33 5dbf 9650 163f b4de 593f e9ff 9f3f
00000310: 0491 2abf 7ad3 423f ccdd 97bd a35b 43bf
00000320: 8ba4 05bf 5a9f e33b 3a89 073f 578c 803f
00000330: 09bc 53bf ac10 dcbf 495e 8bbe b91c ffbe
00000340: 5c55 dfbe db08 ca3e 26a9 28be 0002 88be
00000350: ad53 183e d894 3c3e 9809 52be 5b11 52bf
00000360: f70a 3b3f d727 3a3f cfbd 81bd fe4b 4bbe
00000370: a2a2 433f aab6 1fbd b5e3 87be 043a c83e
00000380: da34 57be 990d e6bc 3145 12bf c31c 383d
00000390: 5e7f b93d 91f1 4a3f c8e7 0d3f 4042 723f
000003a0: afa8 cebe b234 083c 2f81 5b3e 7eb3 bf3e
000003b0: 94a5 8f3f ea95 94be 14da f9be 42a8 1a3f
000003c0: 2217 25bf b548 c63f 65fa 293f 9085 99bf
000003d0: b1b8 e7bf 5130 fcbf 80c4 603e 95f6 d1be
000003e0: 7a00 d93e 61a7 2f3e 2a61 99be f89b 94be
000003f0: 901f dd3f 01c9 ddbe 58db eabe f641 283f

bias_ih_l0_reverse f4 [57]
0.80150485 0.72264904 -0.10075527 0.10438906 -0.17064825 0.76386774 0.65666544 -0.19548331
0.043366116 -0.09015664 0.75131863 0.44481677 -0.4244476 -0.83874685 0.42700812 -0.4597245
-0.40488395 0.6126064 -0.57636344 0.96219414 1.0051814 1.2020595 1.4121128 0.27111742
1.158242 1.3693929 1.4548143 0.67333907 0.42199713 1.0241178 0.3902323 1.1856712
0.4107708 0.05653618 0.62287116 0.59119964 0.70397735 0.7366801 0.019422038 0.047937855
0.1142678 0.049221262 -0.09078695 -0.06942618 0.5196033 -0.3592644 0.1849241 0.09449464
0.02026337 -0.18493125 0.12133734 0.00957147 0.019989278 0.04583764 -0.18447413 0.018490732
0.022474958
00000000: 6c2f 4d3f 87ff 383f c758 cebd eec9 d53d
00000010: 6abe 2ebe d68c 433f 3a1b 283f c72c 48be
00000020: aba0 313d 0ba4 b8bd 6b56 403f 06bf e33e
00000030: 3251 d9be 1db8 56bf cfa0 da3e 0261 ebbe
00000040: f34c cfbe c6d3 1c3f 8e8c 13bf 5b52 763f
00000050: c9a9 803f 16dd 993f 1dc0 b43f e7cf 8a3e
00000060: 4641 943f 4448 af3f 5b37 ba3f f35f 2c3f
00000070: 0210 d83e 4b16 833f 87cc c73e 13c4 973f
00000080: 8d50 d23e 7b92 673d 7c74 1f3f dc58 173f
00000090: dc37 343f 1197 3c3f f71a 9f3c 7c5a 443d
000000a0: 3c05 ea3d 3c9c 493d 82ee b9bd 502f 8ebd
000000b0: b904 053f 81f1 b7be be5c 3d3e 6886 c13d
000000c0: 5eff a53c 9e5e 3dbe b67f f83d a8d1 1c3c
000000d0: 8ec0 a33c 40c0 3b3d c9e6 3cbe e079 973c
000000e0: 671d b83c

bias_hh_l0_reverse f4 [57]
0.78679717 0.66257554 -0.21462318 -0.12599057 0.04589743 0.94707185 0.9021663 -0.4024089
0.355782 -0.09376404 1.0003631 0.050635178 -0.41784388 -0.91098946 0.18843815 -0.5009382
-0.08676562 0.46432176 -0.5395347 0.98232037 1.2670882 1.1931401 1.3068583 0.17849188
1.2592777 1.3349146 1.4324901 0.40632945 0.5362558 0.8245894 0.48860645 1.0774735
0.61437905 -0.14201641 0.4960474 0.6098542 0.8286939 0.728806 0.08611474 0.86502373
0.19023383 -0.10191239 0.030662768 0.22863537 0.3574969 0.23773041 -0.23105703 0.5618352
0.204107 0.2954957 -0.32138982 -0.3776438 -0.46066013 -0.017088035 -0.019045833 -0.30559498
-0.35642457
00000000: 8a6b 493f 8d9e 293f 2ec6 5bbe ac03 01be
00000010: f2fe 3b3d 4d73 723f 5ff4 663f 8a08 cebe
00000020: 0f29 b63e 5c07 c0bd e60b 803f d566 4f3d
00000030: a2ef d5be 9b36 69bf eef5 403e 7c3d 00bf
00000040: 2cb2 b1bd 95bb ed3e f21e 0abf 5979 7b3f
00000050: f22f a23f d1b8 983f 2247 a73f 93c6 363e
00000060: 0330 a13f 7bde aa3f d65b b73f 6a0a d03e
00000070: 0f48 093f 4a18 533f a02a fa3e a7ea 893f
00000080: f247 1d3f c06c 11be edf9 fd3e 681f 1c3f
00000090: 4925 543f 0893 3a3f ed5c b03d 3272 5d3f
000000a0: a8cc 423e 71b7 d0bd 7c30 fb3c 641f 6a3e
000000b0: d509 b73e 9a6f 733e 379a 6cbe 6fd4 0f3f
000000c0: 6d01 513e 364b 973e 358d a4be 875a c1be
000000d0: a5db ebbe 35fc 8bbc 0206 9cbc f276 9cbe
000000e0: 487d b6be

weight_ih_l0 f4 [57, 19]
-0.84580654 -0.2954931 -0.12306425 -0.3481305 0.006670314 -0.49990752 -0.18567921 0.26842687
-0.5372174 0.34489053 0.4193934 0.59394956 -0.6833872 0.19547157 -0.2708674 0.43922302
0.31081763 -0.72803736 0.20320395 -0.4586033 0.416326 0.585976 -0.022282904 -0.094198674
0.44510436 -0.112466045 -0.043455712 0.7642376 -0.05826921 -0.13759564 0.16089022 0.036645077
-0.3292403 0.34455222 -0.49328554 0.12447617 -0.09606951 0.28925043 -0.16480473 1.1911219
0.02263215 0.64774346 -0.5170418 -0.4447934 -0.13997127 -0.33135507 -0.105002604 0.27594978
1.38536 -1.8862638 -0.86399573 0.45439407 0.73633295 -0.61441565 0.24498694 -0.21288249
-0.94375026 0.27517438 0.4317929 0.061498307 -0.2792215 0.2425479 -0.67932683 0.38362235
0.18129328 0.0751231 -0.27839932 0.3363807 -0.16746685 0.30741936 -0.17244597 -0.3673602
-0.27744904 0.013717779 -0.29044297 -0.35160306 0.008281417 -0.51082724 -0.6079634 -0.80937374
0.0061950977 -0.09127592 0.07778468 0.7582639 -0.94159085 -0.25898796 0.04396563 0.22478448
-1.3817182 -0.17995164 -0.46142372 -0.23823972 0.43534482 -0.07125259 0.033695646 -0.21008052
-0.39572832 0.67682135 -0.9321792 0.85742193 0.42836955 -0.3343734 0.102936186 0.23612587
0.23367797 -0.5650509 0.17459841 0.50662434 -0.24358527 -0.3747589 -0.7948998 0.028657673
0.6267633 -0.13618152 0.07117647 0.4625822 0.23853062 -1.4184045 -0.52788424 0.044037797
0.57316893 0.8417981 -0.74892545 -0.25690645 1.0930369 -0.537865 0.20793429 -1.0800284
0.65388525 -0.6597331 -0.5075382 -0.027415048 -0.4834746 -0.843852 0.27624053 1.0218369
-0.28206208 1.0087683 -0.3902541 0.42990324 -0.31721956 -0.7458526 0.012661712 0.6141123
0.9375143 0.9827004 0.5040449 0.22227667 -0.73883533 1.3157294 -0.011653164 -0.114953384
-1.0427234 0.88528806 -0.5009222 0.5545046 1.3279986 -0.66261387 -0.5295705 0.26077586
0.1874912 0.59591943 -0.20689385 0.07652875 0.120094456 -0.23878875 0.20537144 0.025749514
-0.3586215 -0.34266147 0.04528258 -0.72387123 -0.026999453 0.74430954 -0.49834162 0.65209943
-1.1700398 0.2127379 0.54991657 -0.11541238 -0.4919744 0.14278753 -0.10385982 -0.45650494
-0.29748476 -0.02805765 0.77128214 0.86654705 0.5268869 -1.288622 -0.41455975 0.24879175
0.029514654 -0.8170172 -0.6030927 0.16228998 -0.91567063 0.30988955 0.5521578 0.1379962
0.54487956 0.06877625 -0.014967529 -0.44988465 0.29527715 -0.35399947 -0.14338994 -0.5285819
0.90858257 -0.43447664 0.13412687 0.4101791 0.9839503 -0.36219144 0.7897227 0.0629607
0.029887328 -0.011758199 -0.27846074 -0.14934745 -0.84206814 0.30892777 -0.030496905 -0.3509118
-1.1104947 0.21745329 0.67411005 0.4737838 -0.8940543 -0.5694137 0.27973992 1.3119097
1.1707386 -0.46369117 -0.24109861 1.6300727 0.08266436 -1.4513668 -0.48072115 1.0026518
-0.15141891 0.71549195 -0.07899241 -0.6416144 -1.0047166 1.4611099 -0.0932137 0.034243066
-0.2011225 -0.062994756 -0.2432478 -0.06943343 0.8527416 0.44501 0.5716169 -0.21695852
00000000: c786 58bf df4a 97be 1c09 fcbd 293e b2be
00000010: a692 da3b e1f3 ffbe b122 3ebe 3f6f 893e
00000020: 1487 09bf 7e95 b03e bbba d63e 140d 183f
00000030: 77f2 2ebf b329 483e 22af 8abe d7e1 e03e
00000040: 7d23 9f3e a860 3abf b214 503e 0dce eabe
00000050: ae28 d53e 8602 163f a38a b6bc 3ceb c0bd
00000060: b8e4 e33e 9954 e6bd 9efe 31bd 13a5 433f
00000070: b2ab 6ebd dfe5 0cbe 68c0 243e 2619 163d
00000080: 2f92 a8be 2669 b03e ec8f fcbe 5ded fe3d
00000090: 17c0 c4bd a218 943e 92c2 28be af76 983f
000000a0: 0f67 b93c 84d2 253f da5c 04bf f6bb e3be
000000b0: a154 0fbe 5fa7 a9be 9b0b d7bd 4a49 8d3e
000000c0: 7a53 b13f 1871 f1bf d32e 5dbf 57a6 e83e
000000d0: 5180 3c3f 584a 1dbf dbdd 7a3e defd 59be
000000e0: 9e99 71bf a8e3 8c3e f613 dd3e a6e5 7b3d
000000f0: 1ff6 8ebe 7a5e 783e 5de8 2dbf 266a c43e
00000100: f2a4 393e 24da 993d 5b8a 8ebe 173a ac3e
00000110: 6e7c 2bbe 1266 9d3e ad95 30be a316 bcbe
00000120: cd0d 8ebe 89c0 603c f1b4 94be 5105 b4be
00000130: c8ae 073c 93c5 02bf 7da3 1bbf 1e33 4fbf
00000140: 3f00 cb3b dfee babd 934d 9f3d 951d 423f
00000150: 190c 71bf 129a 84be 4e15 343d e72d 663e
00000160: 24dc b0bf 3e45 38be bb3f ecbe 1df5 73be
00000170: 84e5 de3e e1ec 91bd 7204 0a3d 591f 57be
00000180: e79c cabe 2a44 2d3f 4ca3 6ebf 0180 5b3f
00000190: 4153 db3e fe32 abbe 35d0 d23d fbca 713e
000001a0: 4749 6f3e 2da7 10bf edc9 323e 22b2 013f
000001b0: 6b6e 79be 66e0 bfbe 8e7e 4bbf 7fc3 ea3c
000001c0: 8f73 203f 2b73 0bbe f8c4 913d 93d7 ec3e
000001d0: 5f41 743e 478e b5bf 6c23 07bf fa60 343d
000001e0: 33bb 123f 1580 573f 94b9 3fbf 3e89 83be
000001f0: a2e8 8b3f 85b1 09bf baec 543e 5f3e 8abf
00000200: 0665 273f 45e4 28bf 06ee 01bf 8695 e0bc
00000210: fc89 f7be af06 58bf 666f 8d3e 8dcb 823f
00000220: 716a 90be 521f 813f 63cf c7be 471c dc3e
00000230: 9a6a a2be 32f0 3ebf 1273 4f3c 7736 1d3f
00000240: f000 703f 4192 7b3f 1609 013f 7f9c 633e
00000250: 5024 3dbf d269 a83f eaec 3ebc ae6c ebbd
00000260: f677 85bf 3da2 623f 703c 00bf 03f4 0d3f
00000270: dcfb a93f 10a1 29bf ef91 07bf 6a84 853e
00000280: b1fd 3f3e 2d8e 183f fbdb 53be 1bbb 9c3d
00000290: 15f4 f53d 0a85 74be e44c 523e a5f0 d23c
000002a0: 3d9d b7be 5371 afbe 3a7a 393d a04f 39bf
000002b0: f52d ddbc 128b 3e3f a226 ffbe fdef 263f
000002c0: ddc3 95bf f7d7 593e 55c7 0c3f 535d ecbd
000002d0: 12e4 fbbe e536 123e 75b4 d4bd 04bb e9be
000002e0: ec4f 98be 28d9 e5bc bf72 453f 07d6 5d3f
000002f0: 0fe2 063f 91f1 a4bf 2d41 d4be 44c3 7e3e
00000300: b7c8 f13c 0a28 51bf 4864 1abf 582f 263e
00000310: 6469 6abf d8a9 9e3e 375a 0d3f e04e 0d3e
00000320: 3a7d 0b3f 90da 8c3d 5e3a 75bc 4857 e6be
00000330: 912e 973e 6b3f b5be d0d4 12be 2551 07bf
00000340: de98 683f b973 debe 8e58 093e ff02 d23e
00000350: 2be4 7b3f 2871 b9be 442b 4a3f 8af1 803d
00000360: 45d6 f43c 76a5 40bc 6892 8ebe 8aee 18be
00000370: c791 57bf c82b 9e3e a5d4 f9bc b6aa b3be
00000380: b124 8ebf 13ac 5e3e 7a92 2c3f ca93 f23e
00000390: bee0 64bf 19c5 11bf 123a 8f3e a8ec a73f
000003a0: c3da 953f ee68 edbe 8ee2 76be 39a6 d03f
000003b0: ef4b a93d 63c6 b9bf 1521 f6be e556 803f
000003c0: 8f0d 1bbe 7b2a 373f c6c6 a1bd d740 24bf
000003d0: 8e9a 80bf a605 bb3f d3e6 bebd 7542 0c3d
000003e0: 0ef3 4dbe 6503 81bd f415 79be 1d33 8ebd
000003f0: 464d 5a3f 5ad8 e33e 7c55 123f 602a 5ebe

weight_hh_l0 f4 [57, 19]
0.5762321 -0.27106872 -0.6438748 0.46835762 0.32407945 -1.0415227 0.05438945 -0.45681947
-0.78515273 0.28409865 0.5531153 0.015990475 0.64355636 2.2231133 -0.22626339 -0.8148785
1.3037821 -1.3541948 0.016398635 0.064565256 -0.27675506 -1.0181549 -0.34819484 -1.4672549
0.6672051 -0.22228415 0.24863571 0.40281743 0.4142107 0.35738242 0.04603111 -0.20134583
0.09249672 0.090674445 -0.5837169 0.7761443 -0.9948323 0.010529229 -0.6011235 -0.5923591
-0.2632018 -0.8924049 -0.09941045 0.056938127 0.5428012 0.07412591 -0.11828537 -0.41783398
-1.2429768 -1.4605275 -3.0261645 1.3792496 0.3864178 -0.05120811 0.69362354 0.49569482
-1.0829283 0.5433081 -0.015284406 -0.41968724 0.79529095 -3.0337815 -0.15957047 -0.76312673
-0.3581717 0.38531438 1.0230234 0.65991336 0.5021711 0.43448317 1.4517906 0.6780859
0.67974603 0.55052763 0.91364646 0.42609733 -0.3974053 -0.45368123 -1.2709197 0.80154645
-1.6986413 0.38282064 0.5521669 0.9021139 -0.22637549 0.29735443 -0.8623898 -0.28326926
-0.80636185 2.2864401 -1.1263595 0.17837593 0.62073237 -0.6752842 -0.09756757 -0.97187304
-0.51575273 1.4950155 -0.5898992 -0.7329962 -0.33309418 0.19081926 1.6249685 0.6442083
0.2717115 -1.1761775 0.47834495 3.041781 1.0553818 -0.03116717 1.0817052 1.0606772
-0.65254873 -0.18342455 -0.16713236 0.31770578 -1.4963697 -0.22307274 0.9158633 -0.07629638
-0.35426217 0.43239954 0.3313071 0.5054587 -0.4872996 -0.5472794 0.39319375 -1.1901702
0.11268708 -0.24323557 -0.073383376 -0.08192772 -0.6568782 0.44567066 -0.7403801 -0.79026765
0.3028593 0.38139716 0.21986395 -1.3327008 0.28159058 0.15704083 -0.16769306 -0.8080795
0.77704537 -0.28130683 0.582909 -0.85254014 2.1056757 -1.4314924 -0.21276785 0.9012624
0.26214105 0.6011212 1.214893 0.26829273 0.07532099 1.2885671 -0.76146585 -0.19643351
0.28679103 -0.9214275 0.43162856 -0.33079752 0.8200924 2.0444093 0.40600803 1.371886
-0.36459646 0.50999945 1.2035459 -0.21267456 0.110987 -1.8104496 -0.27866048 0.3108451
-0.49826548 0.9231481 -0.27494484 -0.7244382 -0.18570949 0.37339914 -0.09379694 -0.9884595
0.33473232 0.08668852 -0.5391155 0.6525862 -0.3994002 -0.20698813 0.74980074 0.45080718
0.11474423 0.30143592 1.4986315 0.7754443 0.5724628 -0.3308826 0.10214759 0.19473323
-0.20352602 0.20813207 0.7087366 0.45457435 0.44406375 0.47175005 -0.2811649 -0.5377226
-0.11112711 0.16504256 -0.48126483 -0.26447675 -0.16509078 0.070982404 1.0377735 -0.4925311
0.38609684 0.867656 -0.18137544 -0.6780312 -0.3611379 1.8774953 -2.0152745 -0.0981736
0.59393436 0.133948 -0.38005912 0.5961646 0.9966371 0.75282705 1.4774748 0.3647851
-1.4634635 -0.059260678 0.7185333 1.0906909 -1.0871621 0.3243814 0.18501219 -0.38259757
-3.6699798 1.0006642 0.07997633 -0.9865894 0.85105336 -0.26703575 -0.28863823 0.013266493
0.49568698 -0.12850256 0.6944178 -0.45785746 -1.2977823 -0.18260111 -0.05479855 -1.1450188
00000000: f283 133f 85c9 8abe fbd4 24bf 92cc ef3e
00000010: beed a53e 9e50 85bf 79c7 5e3d 3ee4 e9be
00000020: c5ff 48bf 6175 913e f798 0d3f 75fe 823c
00000030: 1cc0 243f 7d47 0e40 97b1 67be e19b 50bf
00000040: 55e2 a63f 4156 adbf 6e56 863c ca3a 843d
00000050: d7b2 8dbe e652 82bf 9846 b2be 02cf bbbf
00000060: f4cd 2a3f 759e 63be 5c9a 7e3e 163e ce3e
00000070: 6d13 d43e d4fa b63e 1e8b 3c3d 9a2d 4ebe
00000080: ec6e bd3d 86b3 b93d 796e 15bf 65b1 463f
00000090: 54ad 7ebf ca82 2c3c 3be3 19bf d9a4 17bf
000000a0: 63c2 86be a674 64bf b597 cbbd f437 693d
000000b0: 05f5 0a3f 53cf 973d 9a3f f2bd 56ee d5be
000000c0: dd19 9fbf 91f2 babf aeac 41c0 408b b03f
000000d0: 8ed8 c53e 98bf 51bd 5091 313f b6cb fd3e
000000e0: 659d 8abf 3d16 0b3f 726b 7abc 3fe1 d6be
000000f0: 3098 4b3f 7a29 42c0 7166 23be 465c 43bf
00000100: 4862 b7be ed47 c53e 6ef2 823f 15f0 283f
00000110: 498e 003f 9474 de3e 46d4 b93f 0a97 2d3f
00000120: d603 2e3f 61ef 0c3f bce4 693f 6e29 da3e
00000130: b578 cbbe e848 e8be 7fad a2bf 2632 4d3f
00000140: 146d d9bf 1101 c43e cf5a 0d3f f0f0 663f
00000150: face 67be d73e 983e 94c5 5cbf ab08 91be
00000160: bb6d 4ebf 0955 1240 8c2c 90bf 2ea8 363e
00000170: 51e8 1e3f 6ddf 2cbf 82d1 c7bd accc 78bf
00000180: 5f08 04bf ab5c bf3f a203 17bf a4a5 3bbf
00000190: 528b aabe 2066 433e f8fe cf3f d6ea 243f
000001a0: c51d 8b3e fc8c 96bf a1e9 f43e 8aac 4240
000001b0: c016 873f 4b52 ffbc 5175 8a3f 45c4 873f
000001c0: 6f0d 27bf a5d3 3bbe bf24 2bbe 55aa a23e
000001d0: 0b89 bfbf 2e6d 64be 0476 6a3f 4741 9cbd
000001e0: da61 b5be 7963 dd3e 16a1 a93e be65 013f
000001f0: 557f f9be 811a 0cbf b150 c93e 7f57 98bf
00000200: 7cc8 e63d bf12 79be 064a 96bd b8c9 a7bd
00000210: 2b29 28bf f22e e43e 8d89 3dbf fb4e 4abf
00000220: 6010 9b3e 7d46 c33e 0424 613e f195 aabf
00000230: a42c 903e 50cf 203e bbb7 2bbe 4cde 4ebf
00000240: 72ec 463f 7307 90be 8639 153f 1240 5abf
00000250: 64c3 0640 253b b7bf d1df 59be 22b9 663f
00000260: 5a37 863e 14e3 193f 9d81 9b3f aa5d 893e
00000270: e441 9a3d c4ef a43f 6def 42bf de25 49be
00000280: 46d6 923e ace2 6bbf 6bfe dc3e 4b5e a9be
00000290: 93f1 513f 9ad7 0240 49e0 cf3e f699 af3f
000002a0: 63ac babe 538f 023f cb0d 9a3f 5cc7 59be
000002b0: 274d e33d d0bc e7bf 96ac 8ebe 1727 9f3e
000002c0: a71c ffbe 6f53 6c3f 92c5 8cbe c874 39bf
000002d0: a12a 3ebe 2c2e bf3e 9c18 c0bd af0b 7dbf
000002e0: 0962 ab3e c089 b13d 7903 0abf e40f 273f
000002f0: 2f7e ccbe b2f4 53be f1f2 3f3f 33d0 e63e
00000300: 06ff ea3d cf55 9a3e 28d3 bf3f 8583 463f
00000310: ec8c 123f 7269 a9be c132 d13d 2668 473e
00000320: 2069 50be 9320 553e c36f 353f f8bd e83e
00000330: 535c e33e 3989 f13e d9f4 8fbe 30a8 09bf
00000340: 9c96 e3bd eb00 293e 5868 f6be 7f69 87be
00000350: 8f0d 29be 395f 913d c3d5 843f 092d fcbe
00000360: 7cae c53e b41e 5e3f 7cba 39be 7493 2dbf
00000370: 11e7 b8be c451 f03f 42fa 00c0 3e0f c9bd
00000380: 150c 183f aa29 093e 1c97 c2be 3e9e 183f
00000390: 9c23 7f3f 46b9 403f e51d bd3f 1dc5 ba3e
000003a0: c652 bbbf 53bb 72bd ccf1 373f c29b 8b3f
000003b0: 2128 8bbf 5215 a63e d673 3d3e d4e3 c3be
000003c0: f3e0 6ac0 c415 803f a1ca a33d 1f91 7cbf
000003d0: a2de 593f e9b8 88be 64c8 93be b45b 593c
000003e0: afca fd3e 2d96 03be 5dc5 313f 4b6c eabe
000003f0: bb1d a6bf c9fb 3abe 7274 60bd fa8f 92bf

bias_ih_l0 f4 [57]
-0.38575974 0.33881858 -0.3996871 0.7112149 -0.43719935 0.008491109 0.41398576 0.95283294
0.49616903 -0.6544605 -0.19442256 0.48000377 -0.0017417269 0.34685954 0.56172097 0.9204354
0.7974407 -0.32117894 -0.048942942 0.011080472 -0.13209756 0.031948093 -0.49682975 0.65739185
-0.309541 0.22480765 -0.76258504 -0.40531558 -0.26997235 -0.17310593 0.16598526 0.6285065
0.7738126 -0.0086225355 -0.94789535 -0.070088826 0.27266672 0.27477807 -0.16952027 0.51007724
0.0547949 0.17677446 0.2210626 -0.06000303 0.3865103 -0.5555641 0.27751634 -0.046213303
0.10518933 0.09199534 0.27305776 0.09648885 0.08575134 0.12503868 0.49937174 -0.31439844
-0.40777227
00000000: 4d82 c5be a179 ad3e caa3 ccbe 2e12 363f
00000010: 98d8 dfbe 4b1e 0b3c f1f5 d33e dcec 733f
00000020: de09 fe3e b98a 27bf b516 47be 0ec3 f53e
00000030: a84a e4ba 9397 b13e f2cc 0f3f a8a1 6b3f
00000040: 1325 4c3f 9171 a4be 6578 48bd de8a 353c
00000050: 9544 07be 01dc 023d 7860 febe d54a 283f
00000060: 287c 9ebe fa33 663e c638 43bf 8685 cfbe
00000070: d139 8abe ae42 31be 0af8 293e cde5 203f
00000080: 9518 463f 8945 0dbc 45a9 72bf bb8a 8fbd
00000090: f99a 8b3e b6af 8c3e b996 2dbe 6c94 023f
000000a0: 9e70 603d 5d04 353e 3c5e 623e bdc5 75bd
000000b0: aee4 c53e 7339 0ebf 9f16 8e3e 294a 3dbd
000000c0: 816d d73d 0e68 bc3d 3ace 8b3e f29b c53d
000000d0: 669e af3d 240a 003e a7ad ff3e d5f8 a0be
000000e0: 87c7 d0be
